================================================================================
 Ethos-N Partitioning Report
 Generated: 2025-09-30 01:18:10
 Model: models/optimized_npu/level2_saved_model/level2_full_integer_quant.tflite
================================================================================

모델 로딩: models/optimized_npu/level2_saved_model/level2_full_integer_quant.tflite
✓ 모델 로드 성공

================================================================================
 1. Original Relay IR (Before Partitioning) 
================================================================================
#[version = "0.0.5"]
def @main(%v_param_137: Tensor[(1, 2, 8400), int8] /* span=tfl.pseudo_qconst1:0:0 */, %serving_default_images:0: Tensor[(1, 640, 640, 3), int8] /* span=serving_default_images:0:0:0 */, %v_param_1: Tensor[(3, 3, 3, 16), int8] /* span=tfl.pseudo_qconst137:0:0 */, %v_param_2: Tensor[(16), int32] /* span=tfl.pseudo_qconst136:0:0 */, %v_param_3: Tensor[(3, 3, 16, 32), int8] /* span=tfl.pseudo_qconst135:0:0 */, %v_param_4: Tensor[(32), int32] /* span=tfl.pseudo_qconst134:0:0 */, %v_param_5: Tensor[(1, 1, 32, 64), int8] /* span=tfl.pseudo_qconst133:0:0 */, %v_param_6: Tensor[(64), int32] /* span=tfl.pseudo_qconst132:0:0 */, %v_param_7: Tensor[(3, 3, 32, 32), int8] /* span=tfl.pseudo_qconst131:0:0 */, %v_param_8: Tensor[(32), int32] /* span=tfl.pseudo_qconst130:0:0 */, %v_param_9: Tensor[(3, 3, 32, 32), int8] /* span=tfl.pseudo_qconst129:0:0 */, %v_param_10: Tensor[(32), int32] /* span=tfl.pseudo_qconst128:0:0 */, %v_param_11: Tensor[(1, 1, 96, 64), int8] /* span=tfl.pseudo_qconst127:0:0 */, %v_param_12: Tensor[(64), int32] /* span=tfl.pseudo_qconst126:0:0 */, %v_param_13: Tensor[(3, 3, 64, 64), int8] /* span=tfl.pseudo_qconst125:0:0 */, %v_param_14: Tensor[(64), int32] /* span=tfl.pseudo_qconst124:0:0 */, %v_param_15: Tensor[(1, 1, 64, 128), int8] /* span=tfl.pseudo_qconst123:0:0 */, %v_param_16: Tensor[(128), int32] /* span=tfl.pseudo_qconst122:0:0 */, %v_param_17: Tensor[(3, 3, 64, 64), int8] /* span=tfl.pseudo_qconst121:0:0 */, %v_param_18: Tensor[(64), int32] /* span=tfl.pseudo_qconst120:0:0 */, %v_param_19: Tensor[(3, 3, 64, 64), int8] /* span=tfl.pseudo_qconst119:0:0 */, %v_param_20: Tensor[(64), int32] /* span=tfl.pseudo_qconst118:0:0 */, %v_param_21: Tensor[(1, 1, 192, 128), int8] /* span=tfl.pseudo_qconst117:0:0 */, %v_param_22: Tensor[(128), int32] /* span=tfl.pseudo_qconst116:0:0 */, %v_param_23: Tensor[(3, 3, 128, 128), int8] /* span=tfl.pseudo_qconst115:0:0 */, %v_param_24: Tensor[(128), int32] /* span=tfl.pseudo_qconst114:0:0 */, %v_param_25: Tensor[(1, 1, 128, 128), int8] /* span=tfl.pseudo_qconst113:0:0 */, %v_param_26: Tensor[(128), int32] /* span=tfl.pseudo_qconst112:0:0 */, %v_param_27: Tensor[(3, 3, 64, 64), int8] /* span=tfl.pseudo_qconst111:0:0 */, %v_param_28: Tensor[(64), int32] /* span=tfl.pseudo_qconst110:0:0 */, %v_param_29: Tensor[(3, 3, 64, 64), int8] /* span=tfl.pseudo_qconst109:0:0 */, %v_param_30: Tensor[(64), int32] /* span=tfl.pseudo_qconst108:0:0 */, %v_param_31: Tensor[(1, 1, 192, 128), int8] /* span=tfl.pseudo_qconst107:0:0 */, %v_param_32: Tensor[(128), int32] /* span=tfl.pseudo_qconst106:0:0 */, %v_param_33: Tensor[(3, 3, 128, 256), int8] /* span=tfl.pseudo_qconst105:0:0 */, %v_param_34: Tensor[(256), int32] /* span=tfl.pseudo_qconst104:0:0 */, %v_param_35: Tensor[(1, 1, 256, 256), int8] /* span=tfl.pseudo_qconst103:0:0 */, %v_param_36: Tensor[(256), int32] /* span=tfl.pseudo_qconst102:0:0 */, %v_param_37: Tensor[(3, 3, 128, 128), int8] /* span=tfl.pseudo_qconst101:0:0 */, %v_param_38: Tensor[(128), int32] /* span=tfl.pseudo_qconst100:0:0 */, %v_param_39: Tensor[(3, 3, 128, 128), int8] /* span=tfl.pseudo_qconst99:0:0 */, %v_param_40: Tensor[(128), int32] /* span=tfl.pseudo_qconst98:0:0 */, %v_param_41: Tensor[(1, 1, 384, 256), int8] /* span=tfl.pseudo_qconst97:0:0 */, %v_param_42: Tensor[(256), int32] /* span=tfl.pseudo_qconst96:0:0 */, %v_param_43: Tensor[(1, 1, 256, 128), int8] /* span=tfl.pseudo_qconst95:0:0 */, %v_param_44: Tensor[(128), int32] /* span=tfl.pseudo_qconst94:0:0 */, %v_param_45: Tensor[(1, 1, 512, 256), int8] /* span=tfl.pseudo_qconst93:0:0 */, %v_param_46: Tensor[(256), int32] /* span=tfl.pseudo_qconst92:0:0 */, %v_param_47: Tensor[(1, 1, 256, 256), int8] /* span=tfl.pseudo_qconst91:0:0 */, %v_param_48: Tensor[(256), int32] /* span=tfl.pseudo_qconst90:0:0 */, %v_param_49: Tensor[(1, 1, 128, 256), int8] /* span=tfl.pseudo_qconst89:0:0 */, %v_param_50: Tensor[(256), int32] /* span=tfl.pseudo_qconst88:0:0 */, %v_param_51: int8 /* span=tfl.pseudo_qconst87:0:0 */, %v_param_52: Tensor[(3, 3, 1, 128), int8] /* span=tfl.pseudo_qconst86:0:0 */, %v_param_53: Tensor[(128), int32] /* span=tfl.pseudo_qconst85:0:0 */, %v_param_54: Tensor[(1, 1, 128, 128), int8] /* span=tfl.pseudo_qconst84:0:0 */, %v_param_55: Tensor[(128), int32] /* span=tfl.pseudo_qconst83:0:0 */, %v_param_56: Tensor[(1, 1, 128, 256), int8] /* span=tfl.pseudo_qconst82:0:0 */, %v_param_57: Tensor[(256), int32] /* span=tfl.pseudo_qconst81:0:0 */, %v_param_58: Tensor[(1, 1, 256, 128), int8] /* span=tfl.pseudo_qconst80:0:0 */, %v_param_59: Tensor[(128), int32] /* span=tfl.pseudo_qconst79:0:0 */, %v_param_60: Tensor[(1, 1, 256, 256), int8] /* span=tfl.pseudo_qconst78:0:0 */, %v_param_61: Tensor[(256), int32] /* span=tfl.pseudo_qconst77:0:0 */, %v_param_62: Tensor[(1, 1, 384, 128), int8] /* span=tfl.pseudo_qconst76:0:0 */, %v_param_63: Tensor[(128), int32] /* span=tfl.pseudo_qconst75:0:0 */, %v_param_64: Tensor[(3, 3, 64, 64), int8] /* span=tfl.pseudo_qconst74:0:0 */, %v_param_65: Tensor[(64), int32] /* span=tfl.pseudo_qconst73:0:0 */, %v_param_66: Tensor[(3, 3, 64, 64), int8] /* span=tfl.pseudo_qconst72:0:0 */, %v_param_67: Tensor[(64), int32] /* span=tfl.pseudo_qconst71:0:0 */, %v_param_68: Tensor[(1, 1, 192, 128), int8] /* span=tfl.pseudo_qconst70:0:0 */, %v_param_69: Tensor[(128), int32] /* span=tfl.pseudo_qconst69:0:0 */, %v_param_70: Tensor[(1, 1, 256, 64), int8] /* span=tfl.pseudo_qconst68:0:0 */, %v_param_71: Tensor[(64), int32] /* span=tfl.pseudo_qconst67:0:0 */, %v_param_72: Tensor[(3, 3, 32, 32), int8] /* span=tfl.pseudo_qconst66:0:0 */, %v_param_73: Tensor[(32), int32] /* span=tfl.pseudo_qconst65:0:0 */, %v_param_74: Tensor[(3, 3, 32, 32), int8] /* span=tfl.pseudo_qconst64:0:0 */, %v_param_75: Tensor[(32), int32] /* span=tfl.pseudo_qconst63:0:0 */, %v_param_76: Tensor[(1, 1, 96, 64), int8] /* span=tfl.pseudo_qconst62:0:0 */, %v_param_77: Tensor[(64), int32] /* span=tfl.pseudo_qconst61:0:0 */, %v_param_122: Tensor[(3, 3, 64, 64), int8] /* span=tfl.pseudo_qconst16:0:0 */, %v_param_123: Tensor[(64), int32] /* span=tfl.pseudo_qconst15:0:0 */, %v_param_124: Tensor[(3, 3, 64, 64), int8] /* span=tfl.pseudo_qconst14:0:0 */, %v_param_125: Tensor[(64), int32] /* span=tfl.pseudo_qconst13:0:0 */, %v_param_126: Tensor[(1, 1, 64, 64), int8] /* span=tfl.pseudo_qconst12:0:0 */, %v_param_127: Tensor[(64), int32] /* span=tfl.pseudo_qconst11:0:0 */, %v_param_128: Tensor[(3, 3, 64, 64), int8] /* span=tfl.pseudo_qconst10:0:0 */, %v_param_129: Tensor[(64), int32] /* span=tfl.pseudo_qconst9:0:0 */, %v_param_130: Tensor[(3, 3, 64, 64), int8] /* span=tfl.pseudo_qconst8:0:0 */, %v_param_131: Tensor[(64), int32] /* span=tfl.pseudo_qconst7:0:0 */, %v_param_132: Tensor[(1, 1, 64, 15), int8] /* span=tfl.pseudo_qconst6:0:0 */, %v_param_133: Tensor[(15), int32] /* span=tfl.pseudo_qconst5:0:0 */, %v_param_78: Tensor[(3, 3, 64, 64), int8] /* span=tfl.pseudo_qconst60:0:0 */, %v_param_79: Tensor[(64), int32] /* span=tfl.pseudo_qconst59:0:0 */, %v_param_80: Tensor[(1, 1, 192, 128), int8] /* span=tfl.pseudo_qconst58:0:0 */, %v_param_81: Tensor[(128), int32] /* span=tfl.pseudo_qconst57:0:0 */, %v_param_82: Tensor[(3, 3, 64, 64), int8] /* span=tfl.pseudo_qconst56:0:0 */, %v_param_83: Tensor[(64), int32] /* span=tfl.pseudo_qconst55:0:0 */, %v_param_84: Tensor[(3, 3, 64, 64), int8] /* span=tfl.pseudo_qconst54:0:0 */, %v_param_85: Tensor[(64), int32] /* span=tfl.pseudo_qconst53:0:0 */, %v_param_86: Tensor[(1, 1, 192, 128), int8] /* span=tfl.pseudo_qconst52:0:0 */, %v_param_87: Tensor[(128), int32] /* span=tfl.pseudo_qconst51:0:0 */, %v_param_110: Tensor[(3, 3, 128, 64), int8] /* span=tfl.pseudo_qconst28:0:0 */, %v_param_111: Tensor[(64), int32] /* span=tfl.pseudo_qconst27:0:0 */, %v_param_112: Tensor[(3, 3, 64, 64), int8] /* span=tfl.pseudo_qconst26:0:0 */, %v_param_113: Tensor[(64), int32] /* span=tfl.pseudo_qconst25:0:0 */, %v_param_114: Tensor[(1, 1, 64, 64), int8] /* span=tfl.pseudo_qconst24:0:0 */, %v_param_115: Tensor[(64), int32] /* span=tfl.pseudo_qconst23:0:0 */, %v_param_116: Tensor[(3, 3, 128, 64), int8] /* span=tfl.pseudo_qconst22:0:0 */, %v_param_117: Tensor[(64), int32] /* span=tfl.pseudo_qconst21:0:0 */, %v_param_118: Tensor[(3, 3, 64, 64), int8] /* span=tfl.pseudo_qconst20:0:0 */, %v_param_119: Tensor[(64), int32] /* span=tfl.pseudo_qconst19:0:0 */, %v_param_120: Tensor[(1, 1, 64, 15), int8] /* span=tfl.pseudo_qconst18:0:0 */, %v_param_121: Tensor[(15), int32] /* span=tfl.pseudo_qconst17:0:0 */, %v_param_88: Tensor[(3, 3, 128, 128), int8] /* span=tfl.pseudo_qconst50:0:0 */, %v_param_89: Tensor[(128), int32] /* span=tfl.pseudo_qconst49:0:0 */, %v_param_90: Tensor[(1, 1, 384, 256), int8] /* span=tfl.pseudo_qconst48:0:0 */, %v_param_91: Tensor[(256), int32] /* span=tfl.pseudo_qconst47:0:0 */, %v_param_92: Tensor[(3, 3, 128, 128), int8] /* span=tfl.pseudo_qconst46:0:0 */, %v_param_93: Tensor[(128), int32] /* span=tfl.pseudo_qconst45:0:0 */, %v_param_94: Tensor[(3, 3, 128, 128), int8] /* span=tfl.pseudo_qconst44:0:0 */, %v_param_95: Tensor[(128), int32] /* span=tfl.pseudo_qconst43:0:0 */, %v_param_96: Tensor[(1, 1, 384, 256), int8] /* span=tfl.pseudo_qconst42:0:0 */, %v_param_97: Tensor[(256), int32] /* span=tfl.pseudo_qconst41:0:0 */, %v_param_98: Tensor[(3, 3, 256, 64), int8] /* span=tfl.pseudo_qconst40:0:0 */, %v_param_99: Tensor[(64), int32] /* span=tfl.pseudo_qconst39:0:0 */, %v_param_100: Tensor[(3, 3, 64, 64), int8] /* span=tfl.pseudo_qconst38:0:0 */, %v_param_101: Tensor[(64), int32] /* span=tfl.pseudo_qconst37:0:0 */, %v_param_102: Tensor[(1, 1, 64, 64), int8] /* span=tfl.pseudo_qconst36:0:0 */, %v_param_103: Tensor[(64), int32] /* span=tfl.pseudo_qconst35:0:0 */, %v_param_104: Tensor[(3, 3, 256, 64), int8] /* span=tfl.pseudo_qconst34:0:0 */, %v_param_105: Tensor[(64), int32] /* span=tfl.pseudo_qconst33:0:0 */, %v_param_106: Tensor[(3, 3, 64, 64), int8] /* span=tfl.pseudo_qconst32:0:0 */, %v_param_107: Tensor[(64), int32] /* span=tfl.pseudo_qconst31:0:0 */, %v_param_108: Tensor[(1, 1, 64, 15), int8] /* span=tfl.pseudo_qconst30:0:0 */, %v_param_109: Tensor[(15), int32] /* span=tfl.pseudo_qconst29:0:0 */, %v_param_134: Tensor[(1, 1, 16, 1), int8] /* span=tfl.pseudo_qconst4:0:0 */, %v_param_135: Tensor[(1), int32] /* span=tfl.pseudo_qconst3:0:0 */, %v_param_136: Tensor[(1, 4, 8400), int8] /* span=tfl.pseudo_qconst2:0:0 */, %v_param_138: Tensor[(1, 2, 8400), int8] /* span=tfl.pseudo_qconst1:0:0 */, %v_param_139: int8 /* span=tfl.pseudo_qconst:0:0 */, output_tensor_names=["StatefulPartitionedCall_0"]) {
  %0 = nn.pad(%serving_default_images:0, -128f /* span=model_90/tf.compat.v1.pad/Pad:0:0 */, pad_width=[[0, 0], [1, 1], [1, 1], [0, 0]]) /* span=model_90/tf.compat.v1.pad/Pad:0:0 */;
  %1 = qnn.conv2d(%0, %v_param_1, -128 /* span=model_90/tf.math.add/Add;model_90/tf.nn.convolution/convolution;Const_178:0:0 */, 0 /* span=model_90/tf.math.add/Add;model_90/tf.nn.convolution/convolution;Const_178:0:0 */, 0.00392157f /* span=model_90/tf.math.add/Add;model_90/tf.nn.convolution/convolution;Const_178:0:0 */, meta[relay.Constant][0] /* span=model_90/tf.math.add/Add;model_90/tf.nn.convolution/convolution;Const_178:0:0 */, strides=[2, 2], padding=[0, 0, 0, 0], channels=16, kernel_size=[3, 3], data_layout="NHWC", kernel_layout="HWIO", out_dtype="int32") /* span=model_90/tf.math.add/Add;model_90/tf.nn.convolution/convolution;Const_178:0:0 */;
  %2 = nn.bias_add(%1, %v_param_2, axis=3) /* span=model_90/tf.math.add/Add;model_90/tf.nn.convolution/convolution;Const_178:0:0 */;
  %3 = qnn.requantize(%2, meta[relay.Constant][1] /* span=model_90/tf.math.add/Add;model_90/tf.nn.convolution/convolution;Const_178:0:0 */, 0 /* span=model_90/tf.math.add/Add;model_90/tf.nn.convolution/convolution;Const_178:0:0 */, 0.637916f /* span=model_90/tf.math.add/Add;model_90/tf.nn.convolution/convolution;Const_178:0:0 */, -4 /* span=model_90/tf.math.add/Add;model_90/tf.nn.convolution/convolution;Const_178:0:0 */, axis=3, out_dtype="int8") /* span=model_90/tf.math.add/Add;model_90/tf.nn.convolution/convolution;Const_178:0:0 */;
  %4 = qnn.dequantize(%3, 0.637916f /* span=model_90/tf.math.sigmoid/Sigmoid:0:0 */, -4 /* span=model_90/tf.math.sigmoid/Sigmoid:0:0 */, out_dtype="float32") /* span=model_90/tf.math.sigmoid/Sigmoid:0:0 */;
  %5 = sigmoid(%4) /* span=model_90/tf.math.sigmoid/Sigmoid:0:0 */;
  %6 = qnn.quantize(%5, 0.00390625f /* span=model_90/tf.math.sigmoid/Sigmoid:0:0 */, -128 /* span=model_90/tf.math.sigmoid/Sigmoid:0:0 */, out_dtype="int8") /* span=model_90/tf.math.sigmoid/Sigmoid:0:0 */;
  %7 = qnn.mul(%3, %6, 0.637916f /* span=model_90/tf.math.multiply_3/Mul:0:0 */, -4 /* span=model_90/tf.math.multiply_3/Mul:0:0 */, 0.00390625f /* span=model_90/tf.math.multiply_3/Mul:0:0 */, -128 /* span=model_90/tf.math.multiply_3/Mul:0:0 */, 0.329715f /* span=model_90/tf.math.multiply_3/Mul:0:0 */, -127 /* span=model_90/tf.math.multiply_3/Mul:0:0 */) /* span=model_90/tf.math.multiply_3/Mul:0:0 */;
  %8 = nn.pad(%7, -127f /* span=model_90/tf.compat.v1.pad_1/Pad:0:0 */, pad_width=[[0, 0], [1, 1], [1, 1], [0, 0]]) /* span=model_90/tf.compat.v1.pad_1/Pad:0:0 */;
  %9 = qnn.conv2d(%8, %v_param_3, -127 /* span=model_90/tf.math.add_1/Add;model_90/tf.nn.convolution_1/convolution;Const_175:0:0 */, 0 /* span=model_90/tf.math.add_1/Add;model_90/tf.nn.convolution_1/convolution;Const_175:0:0 */, 0.329715f /* span=model_90/tf.math.add_1/Add;model_90/tf.nn.convolution_1/convolution;Const_175:0:0 */, meta[relay.Constant][2] /* span=model_90/tf.math.add_1/Add;model_90/tf.nn.convolution_1/convolution;Const_175:0:0 */, strides=[2, 2], padding=[0, 0, 0, 0], channels=32, kernel_size=[3, 3], data_layout="NHWC", kernel_layout="HWIO", out_dtype="int32") /* span=model_90/tf.math.add_1/Add;model_90/tf.nn.convolution_1/convolution;Const_175:0:0 */;
  %10 = nn.bias_add(%9, %v_param_4, axis=3) /* span=model_90/tf.math.add_1/Add;model_90/tf.nn.convolution_1/convolution;Const_175:0:0 */;
  %11 = qnn.requantize(%10, meta[relay.Constant][3] /* span=model_90/tf.math.add_1/Add;model_90/tf.nn.convolution_1/convolution;Const_175:0:0 */, 0 /* span=model_90/tf.math.add_1/Add;model_90/tf.nn.convolution_1/convolution;Const_175:0:0 */, 1.11752f /* span=model_90/tf.math.add_1/Add;model_90/tf.nn.convolution_1/convolution;Const_175:0:0 */, 11 /* span=model_90/tf.math.add_1/Add;model_90/tf.nn.convolution_1/convolution;Const_175:0:0 */, axis=3, out_dtype="int8") /* span=model_90/tf.math.add_1/Add;model_90/tf.nn.convolution_1/convolution;Const_175:0:0 */;
  %12 = qnn.dequantize(%11, 1.11752f /* span=model_90/tf.math.sigmoid_1/Sigmoid:0:0 */, 11 /* span=model_90/tf.math.sigmoid_1/Sigmoid:0:0 */, out_dtype="float32") /* span=model_90/tf.math.sigmoid_1/Sigmoid:0:0 */;
  %13 = sigmoid(%12) /* span=model_90/tf.math.sigmoid_1/Sigmoid:0:0 */;
  %14 = qnn.quantize(%13, 0.00390625f /* span=model_90/tf.math.sigmoid_1/Sigmoid:0:0 */, -128 /* span=model_90/tf.math.sigmoid_1/Sigmoid:0:0 */, out_dtype="int8") /* span=model_90/tf.math.sigmoid_1/Sigmoid:0:0 */;
  %15 = qnn.mul(%11, %14, 1.11752f /* span=model_90/tf.math.multiply_7/Mul:0:0 */, 11 /* span=model_90/tf.math.multiply_7/Mul:0:0 */, 0.00390625f /* span=model_90/tf.math.multiply_7/Mul:0:0 */, -128 /* span=model_90/tf.math.multiply_7/Mul:0:0 */, 0.509577f /* span=model_90/tf.math.multiply_7/Mul:0:0 */, -127 /* span=model_90/tf.math.multiply_7/Mul:0:0 */) /* span=model_90/tf.math.multiply_7/Mul:0:0 */;
  %16 = qnn.conv2d(%15, %v_param_5, -127 /* span=model_90/tf.math.add_2/Add;model_90/tf.nn.convolution_2/convolution;Const_173:0:0 */, 0 /* span=model_90/tf.math.add_2/Add;model_90/tf.nn.convolution_2/convolution;Const_173:0:0 */, 0.509577f /* span=model_90/tf.math.add_2/Add;model_90/tf.nn.convolution_2/convolution;Const_173:0:0 */, meta[relay.Constant][4] /* span=model_90/tf.math.add_2/Add;model_90/tf.nn.convolution_2/convolution;Const_173:0:0 */, padding=[0, 0, 0, 0], channels=64, kernel_size=[1, 1], data_layout="NHWC", kernel_layout="HWIO", out_dtype="int32") /* span=model_90/tf.math.add_2/Add;model_90/tf.nn.convolution_2/convolution;Const_173:0:0 */;
  %17 = nn.bias_add(%16, %v_param_6, axis=3) /* span=model_90/tf.math.add_2/Add;model_90/tf.nn.convolution_2/convolution;Const_173:0:0 */;
  %18 = qnn.requantize(%17, meta[relay.Constant][5] /* span=model_90/tf.math.add_2/Add;model_90/tf.nn.convolution_2/convolution;Const_173:0:0 */, 0 /* span=model_90/tf.math.add_2/Add;model_90/tf.nn.convolution_2/convolution;Const_173:0:0 */, 0.178683f /* span=model_90/tf.math.add_2/Add;model_90/tf.nn.convolution_2/convolution;Const_173:0:0 */, -3 /* span=model_90/tf.math.add_2/Add;model_90/tf.nn.convolution_2/convolution;Const_173:0:0 */, axis=3, out_dtype="int8") /* span=model_90/tf.math.add_2/Add;model_90/tf.nn.convolution_2/convolution;Const_173:0:0 */;
  %19 = qnn.dequantize(%18, 0.178683f /* span=model_90/tf.math.sigmoid_2/Sigmoid:0:0 */, -3 /* span=model_90/tf.math.sigmoid_2/Sigmoid:0:0 */, out_dtype="float32") /* span=model_90/tf.math.sigmoid_2/Sigmoid:0:0 */;
  %20 = sigmoid(%19) /* span=model_90/tf.math.sigmoid_2/Sigmoid:0:0 */;
  %21 = qnn.quantize(%20, 0.00390625f /* span=model_90/tf.math.sigmoid_2/Sigmoid:0:0 */, -128 /* span=model_90/tf.math.sigmoid_2/Sigmoid:0:0 */, out_dtype="int8") /* span=model_90/tf.math.sigmoid_2/Sigmoid:0:0 */;
  %22 = qnn.mul(%18, %21, 0.178683f /* span=model_90/tf.math.multiply_11/Mul:0:0 */, -3 /* span=model_90/tf.math.multiply_11/Mul:0:0 */, 0.00390625f /* span=model_90/tf.math.multiply_11/Mul:0:0 */, -128 /* span=model_90/tf.math.multiply_11/Mul:0:0 */, 0.0920584f /* span=model_90/tf.math.multiply_11/Mul:0:0 */, -125 /* span=model_90/tf.math.multiply_11/Mul:0:0 */) /* span=model_90/tf.math.multiply_11/Mul:0:0 */;
  %23 = strided_slice(%22, begin=[0, 0, 0, 0], end=[1, 160, 160, 32], strides=[1, 1, 1, 1], axes=None) /* span=model_90/tf.strided_slice/StridedSlice:0:0 */;
  %24 = strided_slice(%22, begin=[0, 0, 0, 32], end=[1, 160, 160, 64], strides=[1, 1, 1, 1], axes=None) /* span=model_90/tf.strided_slice_1/StridedSlice:0:0 */;
  %25 = reshape(%24, newshape=[1, 160, 160, 32]) /* span=model_90/tf.strided_slice_1/StridedSlice:0:0 */;
  %26 = qnn.conv2d(%25, %v_param_7, -125 /* span=model_90/tf.math.add_3/Add;model_90/tf.nn.convolution_3/convolution;Const_169:0:0 */, 0 /* span=model_90/tf.math.add_3/Add;model_90/tf.nn.convolution_3/convolution;Const_169:0:0 */, 0.0920584f /* span=model_90/tf.math.add_3/Add;model_90/tf.nn.convolution_3/convolution;Const_169:0:0 */, meta[relay.Constant][6] /* span=model_90/tf.math.add_3/Add;model_90/tf.nn.convolution_3/convolution;Const_169:0:0 */, padding=[1, 1, 1, 1], channels=32, kernel_size=[3, 3], data_layout="NHWC", kernel_layout="HWIO", out_dtype="int32") /* span=model_90/tf.math.add_3/Add;model_90/tf.nn.convolution_3/convolution;Const_169:0:0 */;
  %27 = nn.bias_add(%26, %v_param_8, axis=3) /* span=model_90/tf.math.add_3/Add;model_90/tf.nn.convolution_3/convolution;Const_169:0:0 */;
  %28 = qnn.requantize(%27, meta[relay.Constant][7] /* span=model_90/tf.math.add_3/Add;model_90/tf.nn.convolution_3/convolution;Const_169:0:0 */, 0 /* span=model_90/tf.math.add_3/Add;model_90/tf.nn.convolution_3/convolution;Const_169:0:0 */, 0.143203f /* span=model_90/tf.math.add_3/Add;model_90/tf.nn.convolution_3/convolution;Const_169:0:0 */, 20 /* span=model_90/tf.math.add_3/Add;model_90/tf.nn.convolution_3/convolution;Const_169:0:0 */, axis=3, out_dtype="int8") /* span=model_90/tf.math.add_3/Add;model_90/tf.nn.convolution_3/convolution;Const_169:0:0 */;
  %29 = qnn.dequantize(%28, 0.143203f /* span=model_90/tf.math.sigmoid_3/Sigmoid:0:0 */, 20 /* span=model_90/tf.math.sigmoid_3/Sigmoid:0:0 */, out_dtype="float32") /* span=model_90/tf.math.sigmoid_3/Sigmoid:0:0 */;
  %30 = sigmoid(%29) /* span=model_90/tf.math.sigmoid_3/Sigmoid:0:0 */;
  %31 = qnn.quantize(%30, 0.00390625f /* span=model_90/tf.math.sigmoid_3/Sigmoid:0:0 */, -128 /* span=model_90/tf.math.sigmoid_3/Sigmoid:0:0 */, out_dtype="int8") /* span=model_90/tf.math.sigmoid_3/Sigmoid:0:0 */;
  %32 = qnn.mul(%28, %31, 0.143203f /* span=model_90/tf.math.multiply_15/Mul:0:0 */, 20 /* span=model_90/tf.math.multiply_15/Mul:0:0 */, 0.00390625f /* span=model_90/tf.math.multiply_15/Mul:0:0 */, -128 /* span=model_90/tf.math.multiply_15/Mul:0:0 */, 0.0610811f /* span=model_90/tf.math.multiply_15/Mul:0:0 */, -123 /* span=model_90/tf.math.multiply_15/Mul:0:0 */) /* span=model_90/tf.math.multiply_15/Mul:0:0 */;
  %33 = qnn.conv2d(%32, %v_param_9, -123 /* span=model_90/tf.math.add_4/Add;model_90/tf.nn.convolution_4/convolution;Const_167:0:0 */, 0 /* span=model_90/tf.math.add_4/Add;model_90/tf.nn.convolution_4/convolution;Const_167:0:0 */, 0.0610811f /* span=model_90/tf.math.add_4/Add;model_90/tf.nn.convolution_4/convolution;Const_167:0:0 */, meta[relay.Constant][8] /* span=model_90/tf.math.add_4/Add;model_90/tf.nn.convolution_4/convolution;Const_167:0:0 */, padding=[1, 1, 1, 1], channels=32, kernel_size=[3, 3], data_layout="NHWC", kernel_layout="HWIO", out_dtype="int32") /* span=model_90/tf.math.add_4/Add;model_90/tf.nn.convolution_4/convolution;Const_167:0:0 */;
  %34 = nn.bias_add(%33, %v_param_10, axis=3) /* span=model_90/tf.math.add_4/Add;model_90/tf.nn.convolution_4/convolution;Const_167:0:0 */;
  %35 = qnn.requantize(%34, meta[relay.Constant][9] /* span=model_90/tf.math.add_4/Add;model_90/tf.nn.convolution_4/convolution;Const_167:0:0 */, 0 /* span=model_90/tf.math.add_4/Add;model_90/tf.nn.convolution_4/convolution;Const_167:0:0 */, 0.124722f /* span=model_90/tf.math.add_4/Add;model_90/tf.nn.convolution_4/convolution;Const_167:0:0 */, 2 /* span=model_90/tf.math.add_4/Add;model_90/tf.nn.convolution_4/convolution;Const_167:0:0 */, axis=3, out_dtype="int8") /* span=model_90/tf.math.add_4/Add;model_90/tf.nn.convolution_4/convolution;Const_167:0:0 */;
  %36 = qnn.dequantize(%35, 0.124722f /* span=model_90/tf.math.sigmoid_4/Sigmoid:0:0 */, 2 /* span=model_90/tf.math.sigmoid_4/Sigmoid:0:0 */, out_dtype="float32") /* span=model_90/tf.math.sigmoid_4/Sigmoid:0:0 */;
  %37 = sigmoid(%36) /* span=model_90/tf.math.sigmoid_4/Sigmoid:0:0 */;
  %38 = qnn.quantize(%37, 0.00390625f /* span=model_90/tf.math.sigmoid_4/Sigmoid:0:0 */, -128 /* span=model_90/tf.math.sigmoid_4/Sigmoid:0:0 */, out_dtype="int8") /* span=model_90/tf.math.sigmoid_4/Sigmoid:0:0 */;
  %39 = reshape(%23, newshape=[1, 160, 160, 32]) /* span=model_90/tf.strided_slice/StridedSlice:0:0 */;
  %40 = qnn.mul(%35, %38, 0.124722f /* span=model_90/tf.math.multiply_19/Mul:0:0 */, 2 /* span=model_90/tf.math.multiply_19/Mul:0:0 */, 0.00390625f /* span=model_90/tf.math.multiply_19/Mul:0:0 */, -128 /* span=model_90/tf.math.multiply_19/Mul:0:0 */, 0.0920584f /* span=model_90/tf.math.multiply_19/Mul:0:0 */, -125 /* span=model_90/tf.math.multiply_19/Mul:0:0 */) /* span=model_90/tf.math.multiply_19/Mul:0:0 */;
  %41 = (%39, %25, %40) /* span=model_90/tf.concat/concat:0:0 */;
  %42 = (0.0920584f /* span=model_90/tf.concat/concat:0:0 */, 0.0920584f /* span=model_90/tf.concat/concat:0:0 */, 0.0920584f /* span=model_90/tf.concat/concat:0:0 */) /* span=model_90/tf.concat/concat:0:0 */;
  %43 = (-125 /* span=model_90/tf.concat/concat:0:0 */, -125 /* span=model_90/tf.concat/concat:0:0 */, -125 /* span=model_90/tf.concat/concat:0:0 */) /* span=model_90/tf.concat/concat:0:0 */;
  %44 = qnn.concatenate(%41, %42, %43, 0.0920584f /* span=model_90/tf.concat/concat:0:0 */, -125 /* span=model_90/tf.concat/concat:0:0 */, axis=3) /* span=model_90/tf.concat/concat:0:0 */;
  %45 = qnn.conv2d(%44, %v_param_11, -125 /* span=model_90/tf.math.add_5/Add;model_90/tf.nn.convolution_5/convolution;Const_163:0:0 */, 0 /* span=model_90/tf.math.add_5/Add;model_90/tf.nn.convolution_5/convolution;Const_163:0:0 */, 0.0920584f /* span=model_90/tf.math.add_5/Add;model_90/tf.nn.convolution_5/convolution;Const_163:0:0 */, meta[relay.Constant][10] /* span=model_90/tf.math.add_5/Add;model_90/tf.nn.convolution_5/convolution;Const_163:0:0 */, padding=[0, 0, 0, 0], channels=64, kernel_size=[1, 1], data_layout="NHWC", kernel_layout="HWIO", out_dtype="int32") /* span=model_90/tf.math.add_5/Add;model_90/tf.nn.convolution_5/convolution;Const_163:0:0 */;
  %46 = nn.bias_add(%45, %v_param_12, axis=3) /* span=model_90/tf.math.add_5/Add;model_90/tf.nn.convolution_5/convolution;Const_163:0:0 */;
  %47 = qnn.requantize(%46, meta[relay.Constant][11] /* span=model_90/tf.math.add_5/Add;model_90/tf.nn.convolution_5/convolution;Const_163:0:0 */, 0 /* span=model_90/tf.math.add_5/Add;model_90/tf.nn.convolution_5/convolution;Const_163:0:0 */, 0.428803f /* span=model_90/tf.math.add_5/Add;model_90/tf.nn.convolution_5/convolution;Const_163:0:0 */, 16 /* span=model_90/tf.math.add_5/Add;model_90/tf.nn.convolution_5/convolution;Const_163:0:0 */, axis=3, out_dtype="int8") /* span=model_90/tf.math.add_5/Add;model_90/tf.nn.convolution_5/convolution;Const_163:0:0 */;
  %48 = qnn.dequantize(%47, 0.428803f /* span=model_90/tf.math.sigmoid_5/Sigmoid:0:0 */, 16 /* span=model_90/tf.math.sigmoid_5/Sigmoid:0:0 */, out_dtype="float32") /* span=model_90/tf.math.sigmoid_5/Sigmoid:0:0 */;
  %49 = sigmoid(%48) /* span=model_90/tf.math.sigmoid_5/Sigmoid:0:0 */;
  %50 = qnn.quantize(%49, 0.00390625f /* span=model_90/tf.math.sigmoid_5/Sigmoid:0:0 */, -128 /* span=model_90/tf.math.sigmoid_5/Sigmoid:0:0 */, out_dtype="int8") /* span=model_90/tf.math.sigmoid_5/Sigmoid:0:0 */;
  %51 = qnn.mul(%47, %50, 0.428803f /* span=model_90/tf.math.multiply_23/Mul:0:0 */, 16 /* span=model_90/tf.math.multiply_23/Mul:0:0 */, 0.00390625f /* span=model_90/tf.math.multiply_23/Mul:0:0 */, -128 /* span=model_90/tf.math.multiply_23/Mul:0:0 */, 0.187213f /* span=model_90/tf.math.multiply_23/Mul:0:0 */, -127 /* span=model_90/tf.math.multiply_23/Mul:0:0 */) /* span=model_90/tf.math.multiply_23/Mul:0:0 */;
  %52 = nn.pad(%51, -127f /* span=model_90/tf.compat.v1.pad_2/Pad:0:0 */, pad_width=[[0, 0], [1, 1], [1, 1], [0, 0]]) /* span=model_90/tf.compat.v1.pad_2/Pad:0:0 */;
  %53 = qnn.conv2d(%52, %v_param_13, -127 /* span=model_90/tf.math.add_6/Add;model_90/tf.nn.convolution_6/convolution;Const_160:0:0 */, 0 /* span=model_90/tf.math.add_6/Add;model_90/tf.nn.convolution_6/convolution;Const_160:0:0 */, 0.187213f /* span=model_90/tf.math.add_6/Add;model_90/tf.nn.convolution_6/convolution;Const_160:0:0 */, meta[relay.Constant][12] /* span=model_90/tf.math.add_6/Add;model_90/tf.nn.convolution_6/convolution;Const_160:0:0 */, strides=[2, 2], padding=[0, 0, 0, 0], channels=64, kernel_size=[3, 3], data_layout="NHWC", kernel_layout="HWIO", out_dtype="int32") /* span=model_90/tf.math.add_6/Add;model_90/tf.nn.convolution_6/convolution;Const_160:0:0 */;
  %54 = nn.bias_add(%53, %v_param_14, axis=3) /* span=model_90/tf.math.add_6/Add;model_90/tf.nn.convolution_6/convolution;Const_160:0:0 */;
  %55 = qnn.requantize(%54, meta[relay.Constant][13] /* span=model_90/tf.math.add_6/Add;model_90/tf.nn.convolution_6/convolution;Const_160:0:0 */, 0 /* span=model_90/tf.math.add_6/Add;model_90/tf.nn.convolution_6/convolution;Const_160:0:0 */, 0.123609f /* span=model_90/tf.math.add_6/Add;model_90/tf.nn.convolution_6/convolution;Const_160:0:0 */, 34 /* span=model_90/tf.math.add_6/Add;model_90/tf.nn.convolution_6/convolution;Const_160:0:0 */, axis=3, out_dtype="int8") /* span=model_90/tf.math.add_6/Add;model_90/tf.nn.convolution_6/convolution;Const_160:0:0 */;
  %56 = qnn.dequantize(%55, 0.123609f /* span=model_90/tf.math.sigmoid_6/Sigmoid:0:0 */, 34 /* span=model_90/tf.math.sigmoid_6/Sigmoid:0:0 */, out_dtype="float32") /* span=model_90/tf.math.sigmoid_6/Sigmoid:0:0 */;
  %57 = sigmoid(%56) /* span=model_90/tf.math.sigmoid_6/Sigmoid:0:0 */;
  %58 = qnn.quantize(%57, 0.00390625f /* span=model_90/tf.math.sigmoid_6/Sigmoid:0:0 */, -128 /* span=model_90/tf.math.sigmoid_6/Sigmoid:0:0 */, out_dtype="int8") /* span=model_90/tf.math.sigmoid_6/Sigmoid:0:0 */;
  %59 = qnn.mul(%55, %58, 0.123609f /* span=model_90/tf.math.multiply_27/Mul:0:0 */, 34 /* span=model_90/tf.math.multiply_27/Mul:0:0 */, 0.00390625f /* span=model_90/tf.math.multiply_27/Mul:0:0 */, -128 /* span=model_90/tf.math.multiply_27/Mul:0:0 */, 0.0459687f /* span=model_90/tf.math.multiply_27/Mul:0:0 */, -122 /* span=model_90/tf.math.multiply_27/Mul:0:0 */) /* span=model_90/tf.math.multiply_27/Mul:0:0 */;
  %60 = qnn.conv2d(%59, %v_param_15, -122 /* span=model_90/tf.math.add_7/Add;model_90/tf.nn.convolution_7/convolution;Const_158:0:0 */, 0 /* span=model_90/tf.math.add_7/Add;model_90/tf.nn.convolution_7/convolution;Const_158:0:0 */, 0.0459687f /* span=model_90/tf.math.add_7/Add;model_90/tf.nn.convolution_7/convolution;Const_158:0:0 */, meta[relay.Constant][14] /* span=model_90/tf.math.add_7/Add;model_90/tf.nn.convolution_7/convolution;Const_158:0:0 */, padding=[0, 0, 0, 0], channels=128, kernel_size=[1, 1], data_layout="NHWC", kernel_layout="HWIO", out_dtype="int32") /* span=model_90/tf.math.add_7/Add;model_90/tf.nn.convolution_7/convolution;Const_158:0:0 */;
  %61 = nn.bias_add(%60, %v_param_16, axis=3) /* span=model_90/tf.math.add_7/Add;model_90/tf.nn.convolution_7/convolution;Const_158:0:0 */;
  %62 = qnn.requantize(%61, meta[relay.Constant][15] /* span=model_90/tf.math.add_7/Add;model_90/tf.nn.convolution_7/convolution;Const_158:0:0 */, 0 /* span=model_90/tf.math.add_7/Add;model_90/tf.nn.convolution_7/convolution;Const_158:0:0 */, 0.0889365f /* span=model_90/tf.math.add_7/Add;model_90/tf.nn.convolution_7/convolution;Const_158:0:0 */, 6 /* span=model_90/tf.math.add_7/Add;model_90/tf.nn.convolution_7/convolution;Const_158:0:0 */, axis=3, out_dtype="int8") /* span=model_90/tf.math.add_7/Add;model_90/tf.nn.convolution_7/convolution;Const_158:0:0 */;
  %63 = qnn.dequantize(%62, 0.0889365f /* span=model_90/tf.math.sigmoid_7/Sigmoid:0:0 */, 6 /* span=model_90/tf.math.sigmoid_7/Sigmoid:0:0 */, out_dtype="float32") /* span=model_90/tf.math.sigmoid_7/Sigmoid:0:0 */;
  %64 = sigmoid(%63) /* span=model_90/tf.math.sigmoid_7/Sigmoid:0:0 */;
  %65 = qnn.quantize(%64, 0.00390625f /* span=model_90/tf.math.sigmoid_7/Sigmoid:0:0 */, -128 /* span=model_90/tf.math.sigmoid_7/Sigmoid:0:0 */, out_dtype="int8") /* span=model_90/tf.math.sigmoid_7/Sigmoid:0:0 */;
  %66 = qnn.mul(%62, %65, 0.0889365f /* span=model_90/tf.math.multiply_31/Mul:0:0 */, 6 /* span=model_90/tf.math.multiply_31/Mul:0:0 */, 0.00390625f /* span=model_90/tf.math.multiply_31/Mul:0:0 */, -128 /* span=model_90/tf.math.multiply_31/Mul:0:0 */, 0.043374f /* span=model_90/tf.math.multiply_31/Mul:0:0 */, -122 /* span=model_90/tf.math.multiply_31/Mul:0:0 */) /* span=model_90/tf.math.multiply_31/Mul:0:0 */;
  %67 = strided_slice(%66, begin=[0, 0, 0, 0], end=[1, 80, 80, 64], strides=[1, 1, 1, 1], axes=None) /* span=model_90/tf.strided_slice_2/StridedSlice:0:0 */;
  %68 = strided_slice(%66, begin=[0, 0, 0, 64], end=[1, 80, 80, 128], strides=[1, 1, 1, 1], axes=None) /* span=model_90/tf.strided_slice_3/StridedSlice:0:0 */;
  %69 = reshape(%68, newshape=[1, 80, 80, 64]) /* span=model_90/tf.strided_slice_3/StridedSlice:0:0 */;
  %70 = qnn.conv2d(%69, %v_param_17, -122 /* span=model_90/tf.math.add_8/Add;model_90/tf.nn.convolution_8/convolution;Const_154:0:0 */, 0 /* span=model_90/tf.math.add_8/Add;model_90/tf.nn.convolution_8/convolution;Const_154:0:0 */, 0.043374f /* span=model_90/tf.math.add_8/Add;model_90/tf.nn.convolution_8/convolution;Const_154:0:0 */, meta[relay.Constant][16] /* span=model_90/tf.math.add_8/Add;model_90/tf.nn.convolution_8/convolution;Const_154:0:0 */, padding=[1, 1, 1, 1], channels=64, kernel_size=[3, 3], data_layout="NHWC", kernel_layout="HWIO", out_dtype="int32") /* span=model_90/tf.math.add_8/Add;model_90/tf.nn.convolution_8/convolution;Const_154:0:0 */;
  %71 = nn.bias_add(%70, %v_param_18, axis=3) /* span=model_90/tf.math.add_8/Add;model_90/tf.nn.convolution_8/convolution;Const_154:0:0 */;
  %72 = qnn.requantize(%71, meta[relay.Constant][17] /* span=model_90/tf.math.add_8/Add;model_90/tf.nn.convolution_8/convolution;Const_154:0:0 */, 0 /* span=model_90/tf.math.add_8/Add;model_90/tf.nn.convolution_8/convolution;Const_154:0:0 */, 0.0739072f /* span=model_90/tf.math.add_8/Add;model_90/tf.nn.convolution_8/convolution;Const_154:0:0 */, 18 /* span=model_90/tf.math.add_8/Add;model_90/tf.nn.convolution_8/convolution;Const_154:0:0 */, axis=3, out_dtype="int8") /* span=model_90/tf.math.add_8/Add;model_90/tf.nn.convolution_8/convolution;Const_154:0:0 */;
  %73 = qnn.dequantize(%72, 0.0739072f /* span=model_90/tf.math.sigmoid_8/Sigmoid:0:0 */, 18 /* span=model_90/tf.math.sigmoid_8/Sigmoid:0:0 */, out_dtype="float32") /* span=model_90/tf.math.sigmoid_8/Sigmoid:0:0 */;
  %74 = sigmoid(%73) /* span=model_90/tf.math.sigmoid_8/Sigmoid:0:0 */;
  %75 = qnn.quantize(%74, 0.00390625f /* span=model_90/tf.math.sigmoid_8/Sigmoid:0:0 */, -128 /* span=model_90/tf.math.sigmoid_8/Sigmoid:0:0 */, out_dtype="int8") /* span=model_90/tf.math.sigmoid_8/Sigmoid:0:0 */;
  %76 = qnn.mul(%72, %75, 0.0739072f /* span=model_90/tf.math.multiply_35/Mul:0:0 */, 18 /* span=model_90/tf.math.multiply_35/Mul:0:0 */, 0.00390625f /* span=model_90/tf.math.multiply_35/Mul:0:0 */, -128 /* span=model_90/tf.math.multiply_35/Mul:0:0 */, 0.0326546f /* span=model_90/tf.math.multiply_35/Mul:0:0 */, -119 /* span=model_90/tf.math.multiply_35/Mul:0:0 */) /* span=model_90/tf.math.multiply_35/Mul:0:0 */;
  %77 = qnn.conv2d(%76, %v_param_19, -119 /* span=model_90/tf.math.add_9/Add;model_90/tf.nn.convolution_9/convolution;Const_152:0:0 */, 0 /* span=model_90/tf.math.add_9/Add;model_90/tf.nn.convolution_9/convolution;Const_152:0:0 */, 0.0326546f /* span=model_90/tf.math.add_9/Add;model_90/tf.nn.convolution_9/convolution;Const_152:0:0 */, meta[relay.Constant][18] /* span=model_90/tf.math.add_9/Add;model_90/tf.nn.convolution_9/convolution;Const_152:0:0 */, padding=[1, 1, 1, 1], channels=64, kernel_size=[3, 3], data_layout="NHWC", kernel_layout="HWIO", out_dtype="int32") /* span=model_90/tf.math.add_9/Add;model_90/tf.nn.convolution_9/convolution;Const_152:0:0 */;
  %78 = nn.bias_add(%77, %v_param_20, axis=3) /* span=model_90/tf.math.add_9/Add;model_90/tf.nn.convolution_9/convolution;Const_152:0:0 */;
  %79 = qnn.requantize(%78, meta[relay.Constant][19] /* span=model_90/tf.math.add_9/Add;model_90/tf.nn.convolution_9/convolution;Const_152:0:0 */, 0 /* span=model_90/tf.math.add_9/Add;model_90/tf.nn.convolution_9/convolution;Const_152:0:0 */, 0.0763959f /* span=model_90/tf.math.add_9/Add;model_90/tf.nn.convolution_9/convolution;Const_152:0:0 */, 2 /* span=model_90/tf.math.add_9/Add;model_90/tf.nn.convolution_9/convolution;Const_152:0:0 */, axis=3, out_dtype="int8") /* span=model_90/tf.math.add_9/Add;model_90/tf.nn.convolution_9/convolution;Const_152:0:0 */;
  %80 = qnn.dequantize(%79, 0.0763959f /* span=model_90/tf.math.sigmoid_9/Sigmoid:0:0 */, 2 /* span=model_90/tf.math.sigmoid_9/Sigmoid:0:0 */, out_dtype="float32") /* span=model_90/tf.math.sigmoid_9/Sigmoid:0:0 */;
  %81 = sigmoid(%80) /* span=model_90/tf.math.sigmoid_9/Sigmoid:0:0 */;
  %82 = qnn.quantize(%81, 0.00390625f /* span=model_90/tf.math.sigmoid_9/Sigmoid:0:0 */, -128 /* span=model_90/tf.math.sigmoid_9/Sigmoid:0:0 */, out_dtype="int8") /* span=model_90/tf.math.sigmoid_9/Sigmoid:0:0 */;
  %83 = reshape(%67, newshape=[1, 80, 80, 64]) /* span=model_90/tf.strided_slice_2/StridedSlice:0:0 */;
  %84 = qnn.mul(%79, %82, 0.0763959f /* span=model_90/tf.math.multiply_39/Mul:0:0 */, 2 /* span=model_90/tf.math.multiply_39/Mul:0:0 */, 0.00390625f /* span=model_90/tf.math.multiply_39/Mul:0:0 */, -128 /* span=model_90/tf.math.multiply_39/Mul:0:0 */, 0.043374f /* span=model_90/tf.math.multiply_39/Mul:0:0 */, -122 /* span=model_90/tf.math.multiply_39/Mul:0:0 */) /* span=model_90/tf.math.multiply_39/Mul:0:0 */;
  %85 = (%83, %69, %84) /* span=model_90/tf.concat_1/concat:0:0 */;
  %86 = (0.043374f /* span=model_90/tf.concat_1/concat:0:0 */, 0.043374f /* span=model_90/tf.concat_1/concat:0:0 */, 0.043374f /* span=model_90/tf.concat_1/concat:0:0 */) /* span=model_90/tf.concat_1/concat:0:0 */;
  %87 = (-122 /* span=model_90/tf.concat_1/concat:0:0 */, -122 /* span=model_90/tf.concat_1/concat:0:0 */, -122 /* span=model_90/tf.concat_1/concat:0:0 */) /* span=model_90/tf.concat_1/concat:0:0 */;
  %88 = qnn.concatenate(%85, %86, %87, 0.043374f /* span=model_90/tf.concat_1/concat:0:0 */, -122 /* span=model_90/tf.concat_1/concat:0:0 */, axis=3) /* span=model_90/tf.concat_1/concat:0:0 */;
  %89 = qnn.conv2d(%88, %v_param_21, -122 /* span=model_90/tf.math.add_10/Add;model_90/tf.nn.convolution_10/convolution;Const_148:0:0 */, 0 /* span=model_90/tf.math.add_10/Add;model_90/tf.nn.convolution_10/convolution;Const_148:0:0 */, 0.043374f /* span=model_90/tf.math.add_10/Add;model_90/tf.nn.convolution_10/convolution;Const_148:0:0 */, meta[relay.Constant][20] /* span=model_90/tf.math.add_10/Add;model_90/tf.nn.convolution_10/convolution;Const_148:0:0 */, padding=[0, 0, 0, 0], channels=128, kernel_size=[1, 1], data_layout="NHWC", kernel_layout="HWIO", out_dtype="int32") /* span=model_90/tf.math.add_10/Add;model_90/tf.nn.convolution_10/convolution;Const_148:0:0 */;
  %90 = nn.bias_add(%89, %v_param_22, axis=3) /* span=model_90/tf.math.add_10/Add;model_90/tf.nn.convolution_10/convolution;Const_148:0:0 */;
  %91 = qnn.requantize(%90, meta[relay.Constant][21] /* span=model_90/tf.math.add_10/Add;model_90/tf.nn.convolution_10/convolution;Const_148:0:0 */, 0 /* span=model_90/tf.math.add_10/Add;model_90/tf.nn.convolution_10/convolution;Const_148:0:0 */, 0.0901296f /* span=model_90/tf.math.add_10/Add;model_90/tf.nn.convolution_10/convolution;Const_148:0:0 */, 45 /* span=model_90/tf.math.add_10/Add;model_90/tf.nn.convolution_10/convolution;Const_148:0:0 */, axis=3, out_dtype="int8") /* span=model_90/tf.math.add_10/Add;model_90/tf.nn.convolution_10/convolution;Const_148:0:0 */;
  %92 = qnn.dequantize(%91, 0.0901296f /* span=model_90/tf.math.sigmoid_10/Sigmoid:0:0 */, 45 /* span=model_90/tf.math.sigmoid_10/Sigmoid:0:0 */, out_dtype="float32") /* span=model_90/tf.math.sigmoid_10/Sigmoid:0:0 */;
  %93 = sigmoid(%92) /* span=model_90/tf.math.sigmoid_10/Sigmoid:0:0 */;
  %94 = qnn.quantize(%93, 0.00390625f /* span=model_90/tf.math.sigmoid_10/Sigmoid:0:0 */, -128 /* span=model_90/tf.math.sigmoid_10/Sigmoid:0:0 */, out_dtype="int8") /* span=model_90/tf.math.sigmoid_10/Sigmoid:0:0 */;
  %95 = qnn.mul(%91, %94, 0.0901296f /* span=model_90/tf.math.multiply_43/Mul:0:0 */, 45 /* span=model_90/tf.math.multiply_43/Mul:0:0 */, 0.00390625f /* span=model_90/tf.math.multiply_43/Mul:0:0 */, -128 /* span=model_90/tf.math.multiply_43/Mul:0:0 */, 0.0299939f /* span=model_90/tf.math.multiply_43/Mul:0:0 */, -119 /* span=model_90/tf.math.multiply_43/Mul:0:0 */) /* span=model_90/tf.math.multiply_43/Mul:0:0 */;
  %96 = nn.pad(%95, -119f /* span=model_90/tf.compat.v1.pad_3/Pad:0:0 */, pad_width=[[0, 0], [1, 1], [1, 1], [0, 0]]) /* span=model_90/tf.compat.v1.pad_3/Pad:0:0 */;
  %97 = qnn.conv2d(%96, %v_param_23, -119 /* span=model_90/tf.math.add_11/Add;model_90/tf.nn.convolution_11/convolution;Const_145:0:0 */, 0 /* span=model_90/tf.math.add_11/Add;model_90/tf.nn.convolution_11/convolution;Const_145:0:0 */, 0.0299939f /* span=model_90/tf.math.add_11/Add;model_90/tf.nn.convolution_11/convolution;Const_145:0:0 */, meta[relay.Constant][22] /* span=model_90/tf.math.add_11/Add;model_90/tf.nn.convolution_11/convolution;Const_145:0:0 */, strides=[2, 2], padding=[0, 0, 0, 0], channels=128, kernel_size=[3, 3], data_layout="NHWC", kernel_layout="HWIO", out_dtype="int32") /* span=model_90/tf.math.add_11/Add;model_90/tf.nn.convolution_11/convolution;Const_145:0:0 */;
  %98 = nn.bias_add(%97, %v_param_24, axis=3) /* span=model_90/tf.math.add_11/Add;model_90/tf.nn.convolution_11/convolution;Const_145:0:0 */;
  %99 = qnn.requantize(%98, meta[relay.Constant][23] /* span=model_90/tf.math.add_11/Add;model_90/tf.nn.convolution_11/convolution;Const_145:0:0 */, 0 /* span=model_90/tf.math.add_11/Add;model_90/tf.nn.convolution_11/convolution;Const_145:0:0 */, 0.0587924f /* span=model_90/tf.math.add_11/Add;model_90/tf.nn.convolution_11/convolution;Const_145:0:0 */, 26 /* span=model_90/tf.math.add_11/Add;model_90/tf.nn.convolution_11/convolution;Const_145:0:0 */, axis=3, out_dtype="int8") /* span=model_90/tf.math.add_11/Add;model_90/tf.nn.convolution_11/convolution;Const_145:0:0 */;
  %100 = qnn.dequantize(%99, 0.0587924f /* span=model_90/tf.math.sigmoid_11/Sigmoid:0:0 */, 26 /* span=model_90/tf.math.sigmoid_11/Sigmoid:0:0 */, out_dtype="float32") /* span=model_90/tf.math.sigmoid_11/Sigmoid:0:0 */;
  %101 = sigmoid(%100) /* span=model_90/tf.math.sigmoid_11/Sigmoid:0:0 */;
  %102 = qnn.quantize(%101, 0.00390625f /* span=model_90/tf.math.sigmoid_11/Sigmoid:0:0 */, -128 /* span=model_90/tf.math.sigmoid_11/Sigmoid:0:0 */, out_dtype="int8") /* span=model_90/tf.math.sigmoid_11/Sigmoid:0:0 */;
  %103 = qnn.mul(%99, %102, 0.0587924f /* span=model_90/tf.math.multiply_47/Mul:0:0 */, 26 /* span=model_90/tf.math.multiply_47/Mul:0:0 */, 0.00390625f /* span=model_90/tf.math.multiply_47/Mul:0:0 */, -128 /* span=model_90/tf.math.multiply_47/Mul:0:0 */, 0.0243775f /* span=model_90/tf.math.multiply_47/Mul:0:0 */, -117 /* span=model_90/tf.math.multiply_47/Mul:0:0 */) /* span=model_90/tf.math.multiply_47/Mul:0:0 */;
  %104 = qnn.conv2d(%103, %v_param_25, -117 /* span=model_90/tf.math.add_12/Add;model_90/tf.nn.convolution_12/convolution;Const_143:0:0 */, 0 /* span=model_90/tf.math.add_12/Add;model_90/tf.nn.convolution_12/convolution;Const_143:0:0 */, 0.0243775f /* span=model_90/tf.math.add_12/Add;model_90/tf.nn.convolution_12/convolution;Const_143:0:0 */, meta[relay.Constant][24] /* span=model_90/tf.math.add_12/Add;model_90/tf.nn.convolution_12/convolution;Const_143:0:0 */, padding=[0, 0, 0, 0], channels=128, kernel_size=[1, 1], data_layout="NHWC", kernel_layout="HWIO", out_dtype="int32") /* span=model_90/tf.math.add_12/Add;model_90/tf.nn.convolution_12/convolution;Const_143:0:0 */;
  %105 = nn.bias_add(%104, %v_param_26, axis=3) /* span=model_90/tf.math.add_12/Add;model_90/tf.nn.convolution_12/convolution;Const_143:0:0 */;
  %106 = qnn.requantize(%105, meta[relay.Constant][25] /* span=model_90/tf.math.add_12/Add;model_90/tf.nn.convolution_12/convolution;Const_143:0:0 */, 0 /* span=model_90/tf.math.add_12/Add;model_90/tf.nn.convolution_12/convolution;Const_143:0:0 */, 0.116438f /* span=model_90/tf.math.add_12/Add;model_90/tf.nn.convolution_12/convolution;Const_143:0:0 */, 44 /* span=model_90/tf.math.add_12/Add;model_90/tf.nn.convolution_12/convolution;Const_143:0:0 */, axis=3, out_dtype="int8") /* span=model_90/tf.math.add_12/Add;model_90/tf.nn.convolution_12/convolution;Const_143:0:0 */;
  %107 = qnn.dequantize(%106, 0.116438f /* span=model_90/tf.math.sigmoid_12/Sigmoid:0:0 */, 44 /* span=model_90/tf.math.sigmoid_12/Sigmoid:0:0 */, out_dtype="float32") /* span=model_90/tf.math.sigmoid_12/Sigmoid:0:0 */;
  %108 = sigmoid(%107) /* span=model_90/tf.math.sigmoid_12/Sigmoid:0:0 */;
  %109 = qnn.quantize(%108, 0.00390625f /* span=model_90/tf.math.sigmoid_12/Sigmoid:0:0 */, -128 /* span=model_90/tf.math.sigmoid_12/Sigmoid:0:0 */, out_dtype="int8") /* span=model_90/tf.math.sigmoid_12/Sigmoid:0:0 */;
  %110 = qnn.mul(%106, %109, 0.116438f /* span=model_90/tf.math.multiply_51/Mul:0:0 */, 44 /* span=model_90/tf.math.multiply_51/Mul:0:0 */, 0.00390625f /* span=model_90/tf.math.multiply_51/Mul:0:0 */, -128 /* span=model_90/tf.math.multiply_51/Mul:0:0 */, 0.040282f /* span=model_90/tf.math.multiply_51/Mul:0:0 */, -114 /* span=model_90/tf.math.multiply_51/Mul:0:0 */) /* span=model_90/tf.math.multiply_51/Mul:0:0 */;
  %111 = strided_slice(%110, begin=[0, 0, 0, 0], end=[1, 40, 40, 64], strides=[1, 1, 1, 1], axes=None) /* span=model_90/tf.strided_slice_4/StridedSlice:0:0 */;
  %112 = strided_slice(%110, begin=[0, 0, 0, 64], end=[1, 40, 40, 128], strides=[1, 1, 1, 1], axes=None) /* span=model_90/tf.strided_slice_5/StridedSlice:0:0 */;
  %113 = reshape(%112, newshape=[1, 40, 40, 64]) /* span=model_90/tf.strided_slice_5/StridedSlice:0:0 */;
  %114 = qnn.conv2d(%113, %v_param_27, -114 /* span=model_90/tf.math.add_13/Add;model_90/tf.nn.convolution_13/convolution;Const_139:0:0 */, 0 /* span=model_90/tf.math.add_13/Add;model_90/tf.nn.convolution_13/convolution;Const_139:0:0 */, 0.040282f /* span=model_90/tf.math.add_13/Add;model_90/tf.nn.convolution_13/convolution;Const_139:0:0 */, meta[relay.Constant][26] /* span=model_90/tf.math.add_13/Add;model_90/tf.nn.convolution_13/convolution;Const_139:0:0 */, padding=[1, 1, 1, 1], channels=64, kernel_size=[3, 3], data_layout="NHWC", kernel_layout="HWIO", out_dtype="int32") /* span=model_90/tf.math.add_13/Add;model_90/tf.nn.convolution_13/convolution;Const_139:0:0 */;
  %115 = nn.bias_add(%114, %v_param_28, axis=3) /* span=model_90/tf.math.add_13/Add;model_90/tf.nn.convolution_13/convolution;Const_139:0:0 */;
  %116 = qnn.requantize(%115, meta[relay.Constant][27] /* span=model_90/tf.math.add_13/Add;model_90/tf.nn.convolution_13/convolution;Const_139:0:0 */, 0 /* span=model_90/tf.math.add_13/Add;model_90/tf.nn.convolution_13/convolution;Const_139:0:0 */, 0.0431658f /* span=model_90/tf.math.add_13/Add;model_90/tf.nn.convolution_13/convolution;Const_139:0:0 */, -2 /* span=model_90/tf.math.add_13/Add;model_90/tf.nn.convolution_13/convolution;Const_139:0:0 */, axis=3, out_dtype="int8") /* span=model_90/tf.math.add_13/Add;model_90/tf.nn.convolution_13/convolution;Const_139:0:0 */;
  %117 = qnn.dequantize(%116, 0.0431658f /* span=model_90/tf.math.sigmoid_13/Sigmoid:0:0 */, -2 /* span=model_90/tf.math.sigmoid_13/Sigmoid:0:0 */, out_dtype="float32") /* span=model_90/tf.math.sigmoid_13/Sigmoid:0:0 */;
  %118 = sigmoid(%117) /* span=model_90/tf.math.sigmoid_13/Sigmoid:0:0 */;
  %119 = qnn.quantize(%118, 0.00390625f /* span=model_90/tf.math.sigmoid_13/Sigmoid:0:0 */, -128 /* span=model_90/tf.math.sigmoid_13/Sigmoid:0:0 */, out_dtype="int8") /* span=model_90/tf.math.sigmoid_13/Sigmoid:0:0 */;
  %120 = qnn.mul(%116, %119, 0.0431658f /* span=model_90/tf.math.multiply_55/Mul:0:0 */, -2 /* span=model_90/tf.math.multiply_55/Mul:0:0 */, 0.00390625f /* span=model_90/tf.math.multiply_55/Mul:0:0 */, -128 /* span=model_90/tf.math.multiply_55/Mul:0:0 */, 0.0228733f /* span=model_90/tf.math.multiply_55/Mul:0:0 */, -116 /* span=model_90/tf.math.multiply_55/Mul:0:0 */) /* span=model_90/tf.math.multiply_55/Mul:0:0 */;
  %121 = qnn.conv2d(%120, %v_param_29, -116 /* span=model_90/tf.math.add_14/Add;model_90/tf.nn.convolution_14/convolution;Const_137:0:0 */, 0 /* span=model_90/tf.math.add_14/Add;model_90/tf.nn.convolution_14/convolution;Const_137:0:0 */, 0.0228733f /* span=model_90/tf.math.add_14/Add;model_90/tf.nn.convolution_14/convolution;Const_137:0:0 */, meta[relay.Constant][28] /* span=model_90/tf.math.add_14/Add;model_90/tf.nn.convolution_14/convolution;Const_137:0:0 */, padding=[1, 1, 1, 1], channels=64, kernel_size=[3, 3], data_layout="NHWC", kernel_layout="HWIO", out_dtype="int32") /* span=model_90/tf.math.add_14/Add;model_90/tf.nn.convolution_14/convolution;Const_137:0:0 */;
  %122 = nn.bias_add(%121, %v_param_30, axis=3) /* span=model_90/tf.math.add_14/Add;model_90/tf.nn.convolution_14/convolution;Const_137:0:0 */;
  %123 = qnn.requantize(%122, meta[relay.Constant][29] /* span=model_90/tf.math.add_14/Add;model_90/tf.nn.convolution_14/convolution;Const_137:0:0 */, 0 /* span=model_90/tf.math.add_14/Add;model_90/tf.nn.convolution_14/convolution;Const_137:0:0 */, 0.0501052f /* span=model_90/tf.math.add_14/Add;model_90/tf.nn.convolution_14/convolution;Const_137:0:0 */, 19 /* span=model_90/tf.math.add_14/Add;model_90/tf.nn.convolution_14/convolution;Const_137:0:0 */, axis=3, out_dtype="int8") /* span=model_90/tf.math.add_14/Add;model_90/tf.nn.convolution_14/convolution;Const_137:0:0 */;
  %124 = qnn.dequantize(%123, 0.0501052f /* span=model_90/tf.math.sigmoid_14/Sigmoid:0:0 */, 19 /* span=model_90/tf.math.sigmoid_14/Sigmoid:0:0 */, out_dtype="float32") /* span=model_90/tf.math.sigmoid_14/Sigmoid:0:0 */;
  %125 = sigmoid(%124) /* span=model_90/tf.math.sigmoid_14/Sigmoid:0:0 */;
  %126 = qnn.quantize(%125, 0.00390625f /* span=model_90/tf.math.sigmoid_14/Sigmoid:0:0 */, -128 /* span=model_90/tf.math.sigmoid_14/Sigmoid:0:0 */, out_dtype="int8") /* span=model_90/tf.math.sigmoid_14/Sigmoid:0:0 */;
  %127 = qnn.mul(%123, %126, 0.0501052f /* span=model_90/tf.math.multiply_59/Mul:0:0 */, 19 /* span=model_90/tf.math.multiply_59/Mul:0:0 */, 0.00390625f /* span=model_90/tf.math.multiply_59/Mul:0:0 */, -128 /* span=model_90/tf.math.multiply_59/Mul:0:0 */, 0.0276006f /* span=model_90/tf.math.multiply_59/Mul:0:0 */, -108 /* span=model_90/tf.math.multiply_59/Mul:0:0 */) /* span=model_90/tf.math.multiply_59/Mul:0:0 */;
  %128 = reshape(%111, newshape=[1, 40, 40, 64]) /* span=model_90/tf.strided_slice_4/StridedSlice:0:0 */;
  %129 = qnn.add(%113, %127, 0.040282f /* span=model_90/tf.math.add_16/Add:0:0 */, -114 /* span=model_90/tf.math.add_16/Add:0:0 */, 0.0276006f /* span=model_90/tf.math.add_16/Add:0:0 */, -108 /* span=model_90/tf.math.add_16/Add:0:0 */, 0.040282f /* span=model_90/tf.math.add_16/Add:0:0 */, -114 /* span=model_90/tf.math.add_16/Add:0:0 */) /* span=model_90/tf.math.add_16/Add:0:0 */;
  %130 = (%128, %113, %129) /* span=model_90/tf.concat_2/concat:0:0 */;
  %131 = (0.040282f /* span=model_90/tf.concat_2/concat:0:0 */, 0.040282f /* span=model_90/tf.concat_2/concat:0:0 */, 0.040282f /* span=model_90/tf.concat_2/concat:0:0 */) /* span=model_90/tf.concat_2/concat:0:0 */;
  %132 = (-114 /* span=model_90/tf.concat_2/concat:0:0 */, -114 /* span=model_90/tf.concat_2/concat:0:0 */, -114 /* span=model_90/tf.concat_2/concat:0:0 */) /* span=model_90/tf.concat_2/concat:0:0 */;
  %133 = qnn.concatenate(%130, %131, %132, 0.040282f /* span=model_90/tf.concat_2/concat:0:0 */, -114 /* span=model_90/tf.concat_2/concat:0:0 */, axis=3) /* span=model_90/tf.concat_2/concat:0:0 */;
  %134 = qnn.conv2d(%133, %v_param_31, -114 /* span=model_90/tf.math.add_17/Add;model_90/tf.nn.convolution_15/convolution;Const_133:0:0 */, 0 /* span=model_90/tf.math.add_17/Add;model_90/tf.nn.convolution_15/convolution;Const_133:0:0 */, 0.040282f /* span=model_90/tf.math.add_17/Add;model_90/tf.nn.convolution_15/convolution;Const_133:0:0 */, meta[relay.Constant][30] /* span=model_90/tf.math.add_17/Add;model_90/tf.nn.convolution_15/convolution;Const_133:0:0 */, padding=[0, 0, 0, 0], channels=128, kernel_size=[1, 1], data_layout="NHWC", kernel_layout="HWIO", out_dtype="int32") /* span=model_90/tf.math.add_17/Add;model_90/tf.nn.convolution_15/convolution;Const_133:0:0 */;
  %135 = nn.bias_add(%134, %v_param_32, axis=3) /* span=model_90/tf.math.add_17/Add;model_90/tf.nn.convolution_15/convolution;Const_133:0:0 */;
  %136 = qnn.requantize(%135, meta[relay.Constant][31] /* span=model_90/tf.math.add_17/Add;model_90/tf.nn.convolution_15/convolution;Const_133:0:0 */, 0 /* span=model_90/tf.math.add_17/Add;model_90/tf.nn.convolution_15/convolution;Const_133:0:0 */, 0.0478594f /* span=model_90/tf.math.add_17/Add;model_90/tf.nn.convolution_15/convolution;Const_133:0:0 */, 29 /* span=model_90/tf.math.add_17/Add;model_90/tf.nn.convolution_15/convolution;Const_133:0:0 */, axis=3, out_dtype="int8") /* span=model_90/tf.math.add_17/Add;model_90/tf.nn.convolution_15/convolution;Const_133:0:0 */;
  %137 = qnn.dequantize(%136, 0.0478594f /* span=model_90/tf.math.sigmoid_15/Sigmoid:0:0 */, 29 /* span=model_90/tf.math.sigmoid_15/Sigmoid:0:0 */, out_dtype="float32") /* span=model_90/tf.math.sigmoid_15/Sigmoid:0:0 */;
  %138 = sigmoid(%137) /* span=model_90/tf.math.sigmoid_15/Sigmoid:0:0 */;
  %139 = qnn.quantize(%138, 0.00390625f /* span=model_90/tf.math.sigmoid_15/Sigmoid:0:0 */, -128 /* span=model_90/tf.math.sigmoid_15/Sigmoid:0:0 */, out_dtype="int8") /* span=model_90/tf.math.sigmoid_15/Sigmoid:0:0 */;
  %140 = qnn.mul(%136, %139, 0.0478594f /* span=model_90/tf.math.multiply_65/Mul:0:0 */, 29 /* span=model_90/tf.math.multiply_65/Mul:0:0 */, 0.00390625f /* span=model_90/tf.math.multiply_65/Mul:0:0 */, -128 /* span=model_90/tf.math.multiply_65/Mul:0:0 */, 0.019251f /* span=model_90/tf.math.multiply_65/Mul:0:0 */, -114 /* span=model_90/tf.math.multiply_65/Mul:0:0 */) /* span=model_90/tf.math.multiply_65/Mul:0:0 */;
  %141 = nn.pad(%140, -114f /* span=model_90/tf.compat.v1.pad_4/Pad:0:0 */, pad_width=[[0, 0], [1, 1], [1, 1], [0, 0]]) /* span=model_90/tf.compat.v1.pad_4/Pad:0:0 */;
  %142 = qnn.conv2d(%141, %v_param_33, -114 /* span=model_90/tf.math.add_18/Add;model_90/tf.nn.convolution_16/convolution;Const_130:0:0 */, 0 /* span=model_90/tf.math.add_18/Add;model_90/tf.nn.convolution_16/convolution;Const_130:0:0 */, 0.019251f /* span=model_90/tf.math.add_18/Add;model_90/tf.nn.convolution_16/convolution;Const_130:0:0 */, meta[relay.Constant][32] /* span=model_90/tf.math.add_18/Add;model_90/tf.nn.convolution_16/convolution;Const_130:0:0 */, strides=[2, 2], padding=[0, 0, 0, 0], channels=256, kernel_size=[3, 3], data_layout="NHWC", kernel_layout="HWIO", out_dtype="int32") /* span=model_90/tf.math.add_18/Add;model_90/tf.nn.convolution_16/convolution;Const_130:0:0 */;
  %143 = nn.bias_add(%142, %v_param_34, axis=3) /* span=model_90/tf.math.add_18/Add;model_90/tf.nn.convolution_16/convolution;Const_130:0:0 */;
  %144 = qnn.requantize(%143, meta[relay.Constant][33] /* span=model_90/tf.math.add_18/Add;model_90/tf.nn.convolution_16/convolution;Const_130:0:0 */, 0 /* span=model_90/tf.math.add_18/Add;model_90/tf.nn.convolution_16/convolution;Const_130:0:0 */, 0.0765426f /* span=model_90/tf.math.add_18/Add;model_90/tf.nn.convolution_16/convolution;Const_130:0:0 */, 61 /* span=model_90/tf.math.add_18/Add;model_90/tf.nn.convolution_16/convolution;Const_130:0:0 */, axis=3, out_dtype="int8") /* span=model_90/tf.math.add_18/Add;model_90/tf.nn.convolution_16/convolution;Const_130:0:0 */;
  %145 = qnn.dequantize(%144, 0.0765426f /* span=model_90/tf.math.sigmoid_16/Sigmoid:0:0 */, 61 /* span=model_90/tf.math.sigmoid_16/Sigmoid:0:0 */, out_dtype="float32") /* span=model_90/tf.math.sigmoid_16/Sigmoid:0:0 */;
  %146 = sigmoid(%145) /* span=model_90/tf.math.sigmoid_16/Sigmoid:0:0 */;
  %147 = qnn.quantize(%146, 0.00390625f /* span=model_90/tf.math.sigmoid_16/Sigmoid:0:0 */, -128 /* span=model_90/tf.math.sigmoid_16/Sigmoid:0:0 */, out_dtype="int8") /* span=model_90/tf.math.sigmoid_16/Sigmoid:0:0 */;
  %148 = qnn.mul(%144, %147, 0.0765426f /* span=model_90/tf.math.multiply_69/Mul:0:0 */, 61 /* span=model_90/tf.math.multiply_69/Mul:0:0 */, 0.00390625f /* span=model_90/tf.math.multiply_69/Mul:0:0 */, -128 /* span=model_90/tf.math.multiply_69/Mul:0:0 */, 0.0208385f /* span=model_90/tf.math.multiply_69/Mul:0:0 */, -115 /* span=model_90/tf.math.multiply_69/Mul:0:0 */) /* span=model_90/tf.math.multiply_69/Mul:0:0 */;
  %149 = qnn.conv2d(%148, %v_param_35, -115 /* span=model_90/tf.math.add_19/Add;model_90/tf.nn.convolution_17/convolution;Const_128:0:0 */, 0 /* span=model_90/tf.math.add_19/Add;model_90/tf.nn.convolution_17/convolution;Const_128:0:0 */, 0.0208385f /* span=model_90/tf.math.add_19/Add;model_90/tf.nn.convolution_17/convolution;Const_128:0:0 */, meta[relay.Constant][34] /* span=model_90/tf.math.add_19/Add;model_90/tf.nn.convolution_17/convolution;Const_128:0:0 */, padding=[0, 0, 0, 0], channels=256, kernel_size=[1, 1], data_layout="NHWC", kernel_layout="HWIO", out_dtype="int32") /* span=model_90/tf.math.add_19/Add;model_90/tf.nn.convolution_17/convolution;Const_128:0:0 */;
  %150 = nn.bias_add(%149, %v_param_36, axis=3) /* span=model_90/tf.math.add_19/Add;model_90/tf.nn.convolution_17/convolution;Const_128:0:0 */;
  %151 = qnn.requantize(%150, meta[relay.Constant][35] /* span=model_90/tf.math.add_19/Add;model_90/tf.nn.convolution_17/convolution;Const_128:0:0 */, 0 /* span=model_90/tf.math.add_19/Add;model_90/tf.nn.convolution_17/convolution;Const_128:0:0 */, 0.0638647f /* span=model_90/tf.math.add_19/Add;model_90/tf.nn.convolution_17/convolution;Const_128:0:0 */, 20 /* span=model_90/tf.math.add_19/Add;model_90/tf.nn.convolution_17/convolution;Const_128:0:0 */, axis=3, out_dtype="int8") /* span=model_90/tf.math.add_19/Add;model_90/tf.nn.convolution_17/convolution;Const_128:0:0 */;
  %152 = qnn.dequantize(%151, 0.0638647f /* span=model_90/tf.math.sigmoid_17/Sigmoid:0:0 */, 20 /* span=model_90/tf.math.sigmoid_17/Sigmoid:0:0 */, out_dtype="float32") /* span=model_90/tf.math.sigmoid_17/Sigmoid:0:0 */;
  %153 = sigmoid(%152) /* span=model_90/tf.math.sigmoid_17/Sigmoid:0:0 */;
  %154 = qnn.quantize(%153, 0.00390625f /* span=model_90/tf.math.sigmoid_17/Sigmoid:0:0 */, -128 /* span=model_90/tf.math.sigmoid_17/Sigmoid:0:0 */, out_dtype="int8") /* span=model_90/tf.math.sigmoid_17/Sigmoid:0:0 */;
  %155 = qnn.mul(%151, %154, 0.0638647f /* span=model_90/tf.math.multiply_73/Mul:0:0 */, 20 /* span=model_90/tf.math.multiply_73/Mul:0:0 */, 0.00390625f /* span=model_90/tf.math.multiply_73/Mul:0:0 */, -128 /* span=model_90/tf.math.multiply_73/Mul:0:0 */, 0.0288433f /* span=model_90/tf.math.multiply_73/Mul:0:0 */, -109 /* span=model_90/tf.math.multiply_73/Mul:0:0 */) /* span=model_90/tf.math.multiply_73/Mul:0:0 */;
  %156 = strided_slice(%155, begin=[0, 0, 0, 0], end=[1, 20, 20, 128], strides=[1, 1, 1, 1], axes=None) /* span=model_90/tf.strided_slice_6/StridedSlice:0:0 */;
  %157 = strided_slice(%155, begin=[0, 0, 0, 128], end=[1, 20, 20, 256], strides=[1, 1, 1, 1], axes=None) /* span=model_90/tf.strided_slice_7/StridedSlice:0:0 */;
  %158 = reshape(%157, newshape=[1, 20, 20, 128]) /* span=model_90/tf.strided_slice_7/StridedSlice:0:0 */;
  %159 = qnn.conv2d(%158, %v_param_37, -109 /* span=model_90/tf.math.add_20/Add;model_90/tf.nn.convolution_18/convolution;Const_124:0:0 */, 0 /* span=model_90/tf.math.add_20/Add;model_90/tf.nn.convolution_18/convolution;Const_124:0:0 */, 0.0288433f /* span=model_90/tf.math.add_20/Add;model_90/tf.nn.convolution_18/convolution;Const_124:0:0 */, meta[relay.Constant][36] /* span=model_90/tf.math.add_20/Add;model_90/tf.nn.convolution_18/convolution;Const_124:0:0 */, padding=[1, 1, 1, 1], channels=128, kernel_size=[3, 3], data_layout="NHWC", kernel_layout="HWIO", out_dtype="int32") /* span=model_90/tf.math.add_20/Add;model_90/tf.nn.convolution_18/convolution;Const_124:0:0 */;
  %160 = nn.bias_add(%159, %v_param_38, axis=3) /* span=model_90/tf.math.add_20/Add;model_90/tf.nn.convolution_18/convolution;Const_124:0:0 */;
  %161 = qnn.requantize(%160, meta[relay.Constant][37] /* span=model_90/tf.math.add_20/Add;model_90/tf.nn.convolution_18/convolution;Const_124:0:0 */, 0 /* span=model_90/tf.math.add_20/Add;model_90/tf.nn.convolution_18/convolution;Const_124:0:0 */, 0.0539202f /* span=model_90/tf.math.add_20/Add;model_90/tf.nn.convolution_18/convolution;Const_124:0:0 */, 1 /* span=model_90/tf.math.add_20/Add;model_90/tf.nn.convolution_18/convolution;Const_124:0:0 */, axis=3, out_dtype="int8") /* span=model_90/tf.math.add_20/Add;model_90/tf.nn.convolution_18/convolution;Const_124:0:0 */;
  %162 = qnn.dequantize(%161, 0.0539202f /* span=model_90/tf.math.sigmoid_18/Sigmoid:0:0 */, 1 /* span=model_90/tf.math.sigmoid_18/Sigmoid:0:0 */, out_dtype="float32") /* span=model_90/tf.math.sigmoid_18/Sigmoid:0:0 */;
  %163 = sigmoid(%162) /* span=model_90/tf.math.sigmoid_18/Sigmoid:0:0 */;
  %164 = qnn.quantize(%163, 0.00390625f /* span=model_90/tf.math.sigmoid_18/Sigmoid:0:0 */, -128 /* span=model_90/tf.math.sigmoid_18/Sigmoid:0:0 */, out_dtype="int8") /* span=model_90/tf.math.sigmoid_18/Sigmoid:0:0 */;
  %165 = qnn.mul(%161, %164, 0.0539202f /* span=model_90/tf.math.multiply_77/Mul:0:0 */, 1 /* span=model_90/tf.math.multiply_77/Mul:0:0 */, 0.00390625f /* span=model_90/tf.math.multiply_77/Mul:0:0 */, -128 /* span=model_90/tf.math.multiply_77/Mul:0:0 */, 0.0276928f /* span=model_90/tf.math.multiply_77/Mul:0:0 */, -118 /* span=model_90/tf.math.multiply_77/Mul:0:0 */) /* span=model_90/tf.math.multiply_77/Mul:0:0 */;
  %166 = qnn.conv2d(%165, %v_param_39, -118 /* span=model_90/tf.math.add_21/Add;model_90/tf.nn.convolution_19/convolution;Const_122:0:0 */, 0 /* span=model_90/tf.math.add_21/Add;model_90/tf.nn.convolution_19/convolution;Const_122:0:0 */, 0.0276928f /* span=model_90/tf.math.add_21/Add;model_90/tf.nn.convolution_19/convolution;Const_122:0:0 */, meta[relay.Constant][38] /* span=model_90/tf.math.add_21/Add;model_90/tf.nn.convolution_19/convolution;Const_122:0:0 */, padding=[1, 1, 1, 1], channels=128, kernel_size=[3, 3], data_layout="NHWC", kernel_layout="HWIO", out_dtype="int32") /* span=model_90/tf.math.add_21/Add;model_90/tf.nn.convolution_19/convolution;Const_122:0:0 */;
  %167 = nn.bias_add(%166, %v_param_40, axis=3) /* span=model_90/tf.math.add_21/Add;model_90/tf.nn.convolution_19/convolution;Const_122:0:0 */;
  %168 = qnn.requantize(%167, meta[relay.Constant][39] /* span=model_90/tf.math.add_21/Add;model_90/tf.nn.convolution_19/convolution;Const_122:0:0 */, 0 /* span=model_90/tf.math.add_21/Add;model_90/tf.nn.convolution_19/convolution;Const_122:0:0 */, 0.0448597f /* span=model_90/tf.math.add_21/Add;model_90/tf.nn.convolution_19/convolution;Const_122:0:0 */, -12 /* span=model_90/tf.math.add_21/Add;model_90/tf.nn.convolution_19/convolution;Const_122:0:0 */, axis=3, out_dtype="int8") /* span=model_90/tf.math.add_21/Add;model_90/tf.nn.convolution_19/convolution;Const_122:0:0 */;
  %169 = qnn.dequantize(%168, 0.0448597f /* span=model_90/tf.math.sigmoid_19/Sigmoid:0:0 */, -12 /* span=model_90/tf.math.sigmoid_19/Sigmoid:0:0 */, out_dtype="float32") /* span=model_90/tf.math.sigmoid_19/Sigmoid:0:0 */;
  %170 = sigmoid(%169) /* span=model_90/tf.math.sigmoid_19/Sigmoid:0:0 */;
  %171 = qnn.quantize(%170, 0.00390625f /* span=model_90/tf.math.sigmoid_19/Sigmoid:0:0 */, -128 /* span=model_90/tf.math.sigmoid_19/Sigmoid:0:0 */, out_dtype="int8") /* span=model_90/tf.math.sigmoid_19/Sigmoid:0:0 */;
  %172 = qnn.mul(%168, %171, 0.0448597f /* span=model_90/tf.math.multiply_81/Mul:0:0 */, -12 /* span=model_90/tf.math.multiply_81/Mul:0:0 */, 0.00390625f /* span=model_90/tf.math.multiply_81/Mul:0:0 */, -128 /* span=model_90/tf.math.multiply_81/Mul:0:0 */, 0.0265882f /* span=model_90/tf.math.multiply_81/Mul:0:0 */, -107 /* span=model_90/tf.math.multiply_81/Mul:0:0 */) /* span=model_90/tf.math.multiply_81/Mul:0:0 */;
  %173 = reshape(%156, newshape=[1, 20, 20, 128]) /* span=model_90/tf.strided_slice_6/StridedSlice:0:0 */;
  %174 = qnn.add(%158, %172, 0.0288433f /* span=model_90/tf.math.add_23/Add:0:0 */, -109 /* span=model_90/tf.math.add_23/Add:0:0 */, 0.0265882f /* span=model_90/tf.math.add_23/Add:0:0 */, -107 /* span=model_90/tf.math.add_23/Add:0:0 */, 0.0288433f /* span=model_90/tf.math.add_23/Add:0:0 */, -109 /* span=model_90/tf.math.add_23/Add:0:0 */) /* span=model_90/tf.math.add_23/Add:0:0 */;
  %175 = (%173, %158, %174) /* span=model_90/tf.concat_3/concat:0:0 */;
  %176 = (0.0288433f /* span=model_90/tf.concat_3/concat:0:0 */, 0.0288433f /* span=model_90/tf.concat_3/concat:0:0 */, 0.0288433f /* span=model_90/tf.concat_3/concat:0:0 */) /* span=model_90/tf.concat_3/concat:0:0 */;
  %177 = (-109 /* span=model_90/tf.concat_3/concat:0:0 */, -109 /* span=model_90/tf.concat_3/concat:0:0 */, -109 /* span=model_90/tf.concat_3/concat:0:0 */) /* span=model_90/tf.concat_3/concat:0:0 */;
  %178 = qnn.concatenate(%175, %176, %177, 0.0288433f /* span=model_90/tf.concat_3/concat:0:0 */, -109 /* span=model_90/tf.concat_3/concat:0:0 */, axis=3) /* span=model_90/tf.concat_3/concat:0:0 */;
  %179 = qnn.conv2d(%178, %v_param_41, -109 /* span=model_90/tf.math.add_24/Add;model_90/tf.nn.convolution_20/convolution;Const_118:0:0 */, 0 /* span=model_90/tf.math.add_24/Add;model_90/tf.nn.convolution_20/convolution;Const_118:0:0 */, 0.0288433f /* span=model_90/tf.math.add_24/Add;model_90/tf.nn.convolution_20/convolution;Const_118:0:0 */, meta[relay.Constant][40] /* span=model_90/tf.math.add_24/Add;model_90/tf.nn.convolution_20/convolution;Const_118:0:0 */, padding=[0, 0, 0, 0], channels=256, kernel_size=[1, 1], data_layout="NHWC", kernel_layout="HWIO", out_dtype="int32") /* span=model_90/tf.math.add_24/Add;model_90/tf.nn.convolution_20/convolution;Const_118:0:0 */;
  %180 = nn.bias_add(%179, %v_param_42, axis=3) /* span=model_90/tf.math.add_24/Add;model_90/tf.nn.convolution_20/convolution;Const_118:0:0 */;
  %181 = qnn.requantize(%180, meta[relay.Constant][41] /* span=model_90/tf.math.add_24/Add;model_90/tf.nn.convolution_20/convolution;Const_118:0:0 */, 0 /* span=model_90/tf.math.add_24/Add;model_90/tf.nn.convolution_20/convolution;Const_118:0:0 */, 0.0892466f /* span=model_90/tf.math.add_24/Add;model_90/tf.nn.convolution_20/convolution;Const_118:0:0 */, 50 /* span=model_90/tf.math.add_24/Add;model_90/tf.nn.convolution_20/convolution;Const_118:0:0 */, axis=3, out_dtype="int8") /* span=model_90/tf.math.add_24/Add;model_90/tf.nn.convolution_20/convolution;Const_118:0:0 */;
  %182 = qnn.dequantize(%181, 0.0892466f /* span=model_90/tf.math.sigmoid_20/Sigmoid:0:0 */, 50 /* span=model_90/tf.math.sigmoid_20/Sigmoid:0:0 */, out_dtype="float32") /* span=model_90/tf.math.sigmoid_20/Sigmoid:0:0 */;
  %183 = sigmoid(%182) /* span=model_90/tf.math.sigmoid_20/Sigmoid:0:0 */;
  %184 = qnn.quantize(%183, 0.00390625f /* span=model_90/tf.math.sigmoid_20/Sigmoid:0:0 */, -128 /* span=model_90/tf.math.sigmoid_20/Sigmoid:0:0 */, out_dtype="int8") /* span=model_90/tf.math.sigmoid_20/Sigmoid:0:0 */;
  %185 = qnn.mul(%181, %184, 0.0892466f /* span=model_90/tf.math.multiply_87/Mul:0:0 */, 50 /* span=model_90/tf.math.multiply_87/Mul:0:0 */, 0.00390625f /* span=model_90/tf.math.multiply_87/Mul:0:0 */, -128 /* span=model_90/tf.math.multiply_87/Mul:0:0 */, 0.0279378f /* span=model_90/tf.math.multiply_87/Mul:0:0 */, -118 /* span=model_90/tf.math.multiply_87/Mul:0:0 */) /* span=model_90/tf.math.multiply_87/Mul:0:0 */;
  %186 = qnn.conv2d(%185, %v_param_43, -118 /* span=model_90/tf.math.add_25/Add;model_90/tf.nn.convolution_21/convolution;Const_116:0:0 */, 0 /* span=model_90/tf.math.add_25/Add;model_90/tf.nn.convolution_21/convolution;Const_116:0:0 */, 0.0279378f /* span=model_90/tf.math.add_25/Add;model_90/tf.nn.convolution_21/convolution;Const_116:0:0 */, meta[relay.Constant][42] /* span=model_90/tf.math.add_25/Add;model_90/tf.nn.convolution_21/convolution;Const_116:0:0 */, padding=[0, 0, 0, 0], channels=128, kernel_size=[1, 1], data_layout="NHWC", kernel_layout="HWIO", out_dtype="int32") /* span=model_90/tf.math.add_25/Add;model_90/tf.nn.convolution_21/convolution;Const_116:0:0 */;
  %187 = nn.bias_add(%186, %v_param_44, axis=3) /* span=model_90/tf.math.add_25/Add;model_90/tf.nn.convolution_21/convolution;Const_116:0:0 */;
  %188 = qnn.requantize(%187, meta[relay.Constant][43] /* span=model_90/tf.math.add_25/Add;model_90/tf.nn.convolution_21/convolution;Const_116:0:0 */, 0 /* span=model_90/tf.math.add_25/Add;model_90/tf.nn.convolution_21/convolution;Const_116:0:0 */, 0.0426991f /* span=model_90/tf.math.add_25/Add;model_90/tf.nn.convolution_21/convolution;Const_116:0:0 */, -36 /* span=model_90/tf.math.add_25/Add;model_90/tf.nn.convolution_21/convolution;Const_116:0:0 */, axis=3, out_dtype="int8") /* span=model_90/tf.math.add_25/Add;model_90/tf.nn.convolution_21/convolution;Const_116:0:0 */;
  %189 = qnn.dequantize(%188, 0.0426991f /* span=model_90/tf.math.sigmoid_21/Sigmoid:0:0 */, -36 /* span=model_90/tf.math.sigmoid_21/Sigmoid:0:0 */, out_dtype="float32") /* span=model_90/tf.math.sigmoid_21/Sigmoid:0:0 */;
  %190 = sigmoid(%189) /* span=model_90/tf.math.sigmoid_21/Sigmoid:0:0 */;
  %191 = qnn.quantize(%190, 0.00390625f /* span=model_90/tf.math.sigmoid_21/Sigmoid:0:0 */, -128 /* span=model_90/tf.math.sigmoid_21/Sigmoid:0:0 */, out_dtype="int8") /* span=model_90/tf.math.sigmoid_21/Sigmoid:0:0 */;
  %192 = qnn.mul(%188, %191, 0.0426991f /* span=model_90/tf.math.multiply_91/Mul:0:0 */, -36 /* span=model_90/tf.math.multiply_91/Mul:0:0 */, 0.00390625f /* span=model_90/tf.math.multiply_91/Mul:0:0 */, -128 /* span=model_90/tf.math.multiply_91/Mul:0:0 */, 0.0282958f /* span=model_90/tf.math.multiply_91/Mul:0:0 */, -118 /* span=model_90/tf.math.multiply_91/Mul:0:0 */) /* span=model_90/tf.math.multiply_91/Mul:0:0 */;
  %193 = nn.max_pool2d(%192, pool_size=[5, 5], padding=[2, 2, 2, 2], layout="NHWC") /* span=model_90/tf.compat.v1.nn.pool/max_pool:0:0 */;
  %194 = nn.max_pool2d(%193, pool_size=[5, 5], padding=[2, 2, 2, 2], layout="NHWC") /* span=model_90/tf.compat.v1.nn.pool_1/max_pool:0:0 */;
  %195 = nn.max_pool2d(%194, pool_size=[5, 5], padding=[2, 2, 2, 2], layout="NHWC") /* span=model_90/tf.compat.v1.nn.pool_2/max_pool:0:0 */;
  %196 = (%192, %193, %194, %195) /* span=model_90/tf.concat_4/concat:0:0 */;
  %197 = (0.0282958f /* span=model_90/tf.concat_4/concat:0:0 */, 0.0282958f /* span=model_90/tf.concat_4/concat:0:0 */, 0.0282958f /* span=model_90/tf.concat_4/concat:0:0 */, 0.0282958f /* span=model_90/tf.concat_4/concat:0:0 */) /* span=model_90/tf.concat_4/concat:0:0 */;
  %198 = (-118 /* span=model_90/tf.concat_4/concat:0:0 */, -118 /* span=model_90/tf.concat_4/concat:0:0 */, -118 /* span=model_90/tf.concat_4/concat:0:0 */, -118 /* span=model_90/tf.concat_4/concat:0:0 */) /* span=model_90/tf.concat_4/concat:0:0 */;
  %199 = qnn.concatenate(%196, %197, %198, 0.0282958f /* span=model_90/tf.concat_4/concat:0:0 */, -118 /* span=model_90/tf.concat_4/concat:0:0 */, axis=3) /* span=model_90/tf.concat_4/concat:0:0 */;
  %200 = qnn.conv2d(%199, %v_param_45, -118 /* span=model_90/tf.math.add_26/Add;model_90/tf.nn.convolution_22/convolution;Const_114:0:0 */, 0 /* span=model_90/tf.math.add_26/Add;model_90/tf.nn.convolution_22/convolution;Const_114:0:0 */, 0.0282958f /* span=model_90/tf.math.add_26/Add;model_90/tf.nn.convolution_22/convolution;Const_114:0:0 */, meta[relay.Constant][44] /* span=model_90/tf.math.add_26/Add;model_90/tf.nn.convolution_22/convolution;Const_114:0:0 */, padding=[0, 0, 0, 0], channels=256, kernel_size=[1, 1], data_layout="NHWC", kernel_layout="HWIO", out_dtype="int32") /* span=model_90/tf.math.add_26/Add;model_90/tf.nn.convolution_22/convolution;Const_114:0:0 */;
  %201 = nn.bias_add(%200, %v_param_46, axis=3) /* span=model_90/tf.math.add_26/Add;model_90/tf.nn.convolution_22/convolution;Const_114:0:0 */;
  %202 = qnn.requantize(%201, meta[relay.Constant][45] /* span=model_90/tf.math.add_26/Add;model_90/tf.nn.convolution_22/convolution;Const_114:0:0 */, 0 /* span=model_90/tf.math.add_26/Add;model_90/tf.nn.convolution_22/convolution;Const_114:0:0 */, 0.0516906f /* span=model_90/tf.math.add_26/Add;model_90/tf.nn.convolution_22/convolution;Const_114:0:0 */, 45 /* span=model_90/tf.math.add_26/Add;model_90/tf.nn.convolution_22/convolution;Const_114:0:0 */, axis=3, out_dtype="int8") /* span=model_90/tf.math.add_26/Add;model_90/tf.nn.convolution_22/convolution;Const_114:0:0 */;
  %203 = qnn.dequantize(%202, 0.0516906f /* span=model_90/tf.math.sigmoid_22/Sigmoid:0:0 */, 45 /* span=model_90/tf.math.sigmoid_22/Sigmoid:0:0 */, out_dtype="float32") /* span=model_90/tf.math.sigmoid_22/Sigmoid:0:0 */;
  %204 = sigmoid(%203) /* span=model_90/tf.math.sigmoid_22/Sigmoid:0:0 */;
  %205 = qnn.quantize(%204, 0.00390625f /* span=model_90/tf.math.sigmoid_22/Sigmoid:0:0 */, -128 /* span=model_90/tf.math.sigmoid_22/Sigmoid:0:0 */, out_dtype="int8") /* span=model_90/tf.math.sigmoid_22/Sigmoid:0:0 */;
  %206 = qnn.mul(%202, %205, 0.0516906f /* span=model_90/tf.math.multiply_95/Mul:0:0 */, 45 /* span=model_90/tf.math.multiply_95/Mul:0:0 */, 0.00390625f /* span=model_90/tf.math.multiply_95/Mul:0:0 */, -128 /* span=model_90/tf.math.multiply_95/Mul:0:0 */, 0.0175211f /* span=model_90/tf.math.multiply_95/Mul:0:0 */, -112 /* span=model_90/tf.math.multiply_95/Mul:0:0 */) /* span=model_90/tf.math.multiply_95/Mul:0:0 */;
  %207 = qnn.conv2d(%206, %v_param_47, -112 /* span=model_90/tf.math.add_27/Add;model_90/tf.nn.convolution_23/convolution;Const_112:0:0 */, 0 /* span=model_90/tf.math.add_27/Add;model_90/tf.nn.convolution_23/convolution;Const_112:0:0 */, 0.0175211f /* span=model_90/tf.math.add_27/Add;model_90/tf.nn.convolution_23/convolution;Const_112:0:0 */, meta[relay.Constant][46] /* span=model_90/tf.math.add_27/Add;model_90/tf.nn.convolution_23/convolution;Const_112:0:0 */, padding=[0, 0, 0, 0], channels=256, kernel_size=[1, 1], data_layout="NHWC", kernel_layout="HWIO", out_dtype="int32") /* span=model_90/tf.math.add_27/Add;model_90/tf.nn.convolution_23/convolution;Const_112:0:0 */;
  %208 = nn.bias_add(%207, %v_param_48, axis=3) /* span=model_90/tf.math.add_27/Add;model_90/tf.nn.convolution_23/convolution;Const_112:0:0 */;
  %209 = qnn.requantize(%208, meta[relay.Constant][47] /* span=model_90/tf.math.add_27/Add;model_90/tf.nn.convolution_23/convolution;Const_112:0:0 */, 0 /* span=model_90/tf.math.add_27/Add;model_90/tf.nn.convolution_23/convolution;Const_112:0:0 */, 0.149357f /* span=model_90/tf.math.add_27/Add;model_90/tf.nn.convolution_23/convolution;Const_112:0:0 */, 10 /* span=model_90/tf.math.add_27/Add;model_90/tf.nn.convolution_23/convolution;Const_112:0:0 */, axis=3, out_dtype="int8") /* span=model_90/tf.math.add_27/Add;model_90/tf.nn.convolution_23/convolution;Const_112:0:0 */;
  %210 = qnn.dequantize(%209, 0.149357f /* span=model_90/tf.math.sigmoid_23/Sigmoid:0:0 */, 10 /* span=model_90/tf.math.sigmoid_23/Sigmoid:0:0 */, out_dtype="float32") /* span=model_90/tf.math.sigmoid_23/Sigmoid:0:0 */;
  %211 = sigmoid(%210) /* span=model_90/tf.math.sigmoid_23/Sigmoid:0:0 */;
  %212 = qnn.quantize(%211, 0.00390625f /* span=model_90/tf.math.sigmoid_23/Sigmoid:0:0 */, -128 /* span=model_90/tf.math.sigmoid_23/Sigmoid:0:0 */, out_dtype="int8") /* span=model_90/tf.math.sigmoid_23/Sigmoid:0:0 */;
  %213 = qnn.mul(%209, %212, 0.149357f /* span=model_90/tf.math.multiply_99/Mul:0:0 */, 10 /* span=model_90/tf.math.multiply_99/Mul:0:0 */, 0.00390625f /* span=model_90/tf.math.multiply_99/Mul:0:0 */, -128 /* span=model_90/tf.math.multiply_99/Mul:0:0 */, 0.0930227f /* span=model_90/tf.math.multiply_99/Mul:0:0 */, -51 /* span=model_90/tf.math.multiply_99/Mul:0:0 */) /* span=model_90/tf.math.multiply_99/Mul:0:0 */;
  %214 = strided_slice(%213, begin=[0, 0, 0, 0], end=[1, 20, 20, 128], strides=[1, 1, 1, 1], axes=None) /* span=model_90/tf.strided_slice_8/StridedSlice:0:0 */;
  %215 = strided_slice(%213, begin=[0, 0, 0, 128], end=[1, 20, 20, 256], strides=[1, 1, 1, 1], axes=None) /* span=model_90/tf.strided_slice_9/StridedSlice:0:0 */;
  %216 = reshape(%215, newshape=[1, 20, 20, 128]) /* span=model_90/tf.strided_slice_9/StridedSlice:0:0 */;
  %217 = qnn.conv2d(%216, %v_param_49, -51 /* span=model_90/tf.math.add_28/Add;model_90/tf.nn.convolution_24/convolution;Const_110:0:0 */, 0 /* span=model_90/tf.math.add_28/Add;model_90/tf.nn.convolution_24/convolution;Const_110:0:0 */, 0.0930227f /* span=model_90/tf.math.add_28/Add;model_90/tf.nn.convolution_24/convolution;Const_110:0:0 */, meta[relay.Constant][48] /* span=model_90/tf.math.add_28/Add;model_90/tf.nn.convolution_24/convolution;Const_110:0:0 */, padding=[0, 0, 0, 0], channels=256, kernel_size=[1, 1], data_layout="NHWC", kernel_layout="HWIO", out_dtype="int32") /* span=model_90/tf.math.add_28/Add;model_90/tf.nn.convolution_24/convolution;Const_110:0:0 */;
  %218 = nn.bias_add(%217, %v_param_50, axis=3) /* span=model_90/tf.math.add_28/Add;model_90/tf.nn.convolution_24/convolution;Const_110:0:0 */;
  %219 = qnn.requantize(%218, meta[relay.Constant][49] /* span=model_90/tf.math.add_28/Add;model_90/tf.nn.convolution_24/convolution;Const_110:0:0 */, 0 /* span=model_90/tf.math.add_28/Add;model_90/tf.nn.convolution_24/convolution;Const_110:0:0 */, 0.0957604f /* span=model_90/tf.math.add_28/Add;model_90/tf.nn.convolution_24/convolution;Const_110:0:0 */, -20 /* span=model_90/tf.math.add_28/Add;model_90/tf.nn.convolution_24/convolution;Const_110:0:0 */, axis=3, out_dtype="int8") /* span=model_90/tf.math.add_28/Add;model_90/tf.nn.convolution_24/convolution;Const_110:0:0 */;
  %220 = transpose(%219, axes=[0, 3, 1, 2]) /* span=model_90/tf.compat.v1.transpose_28/transpose:0:0 */;
  %221 = reshape(%220, newshape=[1, 2, 128, 400]) /* span=model_90/tf.reshape_2/Reshape:0:0 */;
  %222 = strided_slice(%221, begin=[0, 0, 64, 0], end=[1, 2, 128, 400], strides=[1, 1, 1, 1], axes=None) /* span=model_90/tf.strided_slice_12/StridedSlice:0:0 */;
  %223 = reshape(%222, newshape=[1, 2, 64, 400]) /* span=model_90/tf.strided_slice_12/StridedSlice:0:0 */;
  %224 = strided_slice(%221, begin=[0, 0, 0, 0], end=[1, 2, 32, 400], strides=[1, 1, 1, 1], axes=None) /* span=model_90/tf.strided_slice_10/StridedSlice:0:0 */;
  %225 = reshape(%224, newshape=[1, 2, 32, 400]) /* span=model_90/tf.strided_slice_10/StridedSlice:0:0 */;
  %226 = reshape(%225, newshape=[-1, 32, 400]) /* span=model_90/tf.linalg.matmul_6/MatMul;model_90/tf.compat.v1.transpose_31/transpose:0:0 */;
  %227 = strided_slice(%221, begin=[0, 0, 32, 0], end=[1, 2, 64, 400], strides=[1, 1, 1, 1], axes=None) /* span=model_90/tf.strided_slice_11/StridedSlice:0:0 */;
  %228 = reshape(%227, newshape=[1, 2, 32, 400]) /* span=model_90/tf.strided_slice_11/StridedSlice:0:0 */;
  %229 = reshape(%228, newshape=[-1, 32, 400]) /* span=model_90/tf.linalg.matmul_6/MatMul;model_90/tf.compat.v1.transpose_31/transpose:0:0 */;
  %230 = transpose(%226, axes=[0, 2, 1]) /* span=model_90/tf.linalg.matmul_6/MatMul;model_90/tf.compat.v1.transpose_31/transpose:0:0 */;
  %231 = transpose(%229, axes=[0, 2, 1]) /* span=model_90/tf.linalg.matmul_6/MatMul;model_90/tf.compat.v1.transpose_31/transpose:0:0 */;
  %232 = qnn.batch_matmul(%230, %231, 0 /* span=model_90/tf.linalg.matmul_6/MatMul;model_90/tf.compat.v1.transpose_31/transpose:0:0 */, 0 /* span=model_90/tf.linalg.matmul_6/MatMul;model_90/tf.compat.v1.transpose_31/transpose:0:0 */, 1f /* span=model_90/tf.linalg.matmul_6/MatMul;model_90/tf.compat.v1.transpose_31/transpose:0:0 */, 1f /* span=model_90/tf.linalg.matmul_6/MatMul;model_90/tf.compat.v1.transpose_31/transpose:0:0 */, out_dtype="int32", transpose_b=True) /* span=model_90/tf.linalg.matmul_6/MatMul;model_90/tf.compat.v1.transpose_31/transpose:0:0 */;
  %233 = reshape(%232, newshape=[1, 2, 400, 400]) /* span=model_90/tf.linalg.matmul_6/MatMul;model_90/tf.compat.v1.transpose_31/transpose:0:0 */;
  %234 = qnn.requantize(%233, 1f /* span=model_90/tf.linalg.matmul_6/MatMul;model_90/tf.compat.v1.transpose_31/transpose:0:0 */, 0 /* span=model_90/tf.linalg.matmul_6/MatMul;model_90/tf.compat.v1.transpose_31/transpose:0:0 */, 1f /* span=model_90/tf.linalg.matmul_6/MatMul;model_90/tf.compat.v1.transpose_31/transpose:0:0 */, 0 /* span=model_90/tf.linalg.matmul_6/MatMul;model_90/tf.compat.v1.transpose_31/transpose:0:0 */, out_dtype="int8") /* span=model_90/tf.linalg.matmul_6/MatMul;model_90/tf.compat.v1.transpose_31/transpose:0:0 */;
  %235 = qnn.mul(%234, %v_param_51, 1.19237f /* span=model_90/tf.math.multiply_102/Mul:0:0 */, 5 /* span=model_90/tf.math.multiply_102/Mul:0:0 */, 0.000693242f /* span=model_90/tf.math.multiply_102/Mul:0:0 */, -128 /* span=model_90/tf.math.multiply_102/Mul:0:0 */, 0.210783f /* span=model_90/tf.math.multiply_102/Mul:0:0 */, 5 /* span=model_90/tf.math.multiply_102/Mul:0:0 */) /* span=model_90/tf.math.multiply_102/Mul:0:0 */;
  %236 = qnn.dequantize(%235, 0.210783f /* span=model_90/tf.nn.softmax_1/wa/model.10/m/m.0/attn/Softmax:0:0 */, 5 /* span=model_90/tf.nn.softmax_1/wa/model.10/m/m.0/attn/Softmax:0:0 */, out_dtype="float32") /* span=model_90/tf.nn.softmax_1/wa/model.10/m/m.0/attn/Softmax:0:0 */;
  %237 = nn.softmax(%236) /* span=model_90/tf.nn.softmax_1/wa/model.10/m/m.0/attn/Softmax:0:0 */;
  %238 = qnn.quantize(%237, 0.00390625f /* span=model_90/tf.nn.softmax_1/wa/model.10/m/m.0/attn/Softmax:0:0 */, -128 /* span=model_90/tf.nn.softmax_1/wa/model.10/m/m.0/attn/Softmax:0:0 */, out_dtype="int8") /* span=model_90/tf.nn.softmax_1/wa/model.10/m/m.0/attn/Softmax:0:0 */;
  %239 = reshape(%223, newshape=[-1, 64, 400]) /* span=model_90/tf.linalg.matmul_19/MatMul;model_90/tf.compat.v1.transpose_46/transpose:0:0 */;
  %240 = reshape(%238, newshape=[-1, 400, 400]) /* span=model_90/tf.linalg.matmul_19/MatMul;model_90/tf.compat.v1.transpose_46/transpose:0:0 */;
  %241 = qnn.batch_matmul(%239, %240, 0 /* span=model_90/tf.linalg.matmul_19/MatMul;model_90/tf.compat.v1.transpose_46/transpose:0:0 */, 0 /* span=model_90/tf.linalg.matmul_19/MatMul;model_90/tf.compat.v1.transpose_46/transpose:0:0 */, 1f /* span=model_90/tf.linalg.matmul_19/MatMul;model_90/tf.compat.v1.transpose_46/transpose:0:0 */, 1f /* span=model_90/tf.linalg.matmul_19/MatMul;model_90/tf.compat.v1.transpose_46/transpose:0:0 */, out_dtype="int32", transpose_b=True) /* span=model_90/tf.linalg.matmul_19/MatMul;model_90/tf.compat.v1.transpose_46/transpose:0:0 */;
  %242 = reshape(%241, newshape=[1, 2, 64, 400]) /* span=model_90/tf.linalg.matmul_19/MatMul;model_90/tf.compat.v1.transpose_46/transpose:0:0 */;
  %243 = qnn.requantize(%242, 1f /* span=model_90/tf.linalg.matmul_19/MatMul;model_90/tf.compat.v1.transpose_46/transpose:0:0 */, 0 /* span=model_90/tf.linalg.matmul_19/MatMul;model_90/tf.compat.v1.transpose_46/transpose:0:0 */, 1f /* span=model_90/tf.linalg.matmul_19/MatMul;model_90/tf.compat.v1.transpose_46/transpose:0:0 */, 0 /* span=model_90/tf.linalg.matmul_19/MatMul;model_90/tf.compat.v1.transpose_46/transpose:0:0 */, out_dtype="int8") /* span=model_90/tf.linalg.matmul_19/MatMul;model_90/tf.compat.v1.transpose_46/transpose:0:0 */;
  %244 = reshape(%243, newshape=[1, 128, 20, 20]) /* span=model_90/tf.reshape_31/Reshape:0:0 */;
  %245 = reshape(%223, newshape=[1, 128, 20, 20]) /* span=model_90/tf.reshape_5/Reshape:0:0 */;
  %246 = transpose(%245, axes=[0, 2, 3, 1]) /* span=model_90/tf.compat.v1.transpose_44/transpose:0:0 */;
  %247 = qnn.conv2d(%246, %v_param_52, -20 /* span=model_90/tf.math.add_29/Add;model_90/tf.nn.convolution_25/convolution;Const_109:0:0 */, 0 /* span=model_90/tf.math.add_29/Add;model_90/tf.nn.convolution_25/convolution;Const_109:0:0 */, 0.0957604f /* span=model_90/tf.math.add_29/Add;model_90/tf.nn.convolution_25/convolution;Const_109:0:0 */, meta[relay.Constant][50] /* span=model_90/tf.math.add_29/Add;model_90/tf.nn.convolution_25/convolution;Const_109:0:0 */, padding=[1, 1, 1, 1], groups=128, channels=128, kernel_size=[3, 3], data_layout="NHWC", kernel_layout="HWIO", out_dtype="int32") /* span=model_90/tf.math.add_29/Add;model_90/tf.nn.convolution_25/convolution;Const_109:0:0 */;
  %248 = nn.bias_add(%247, %v_param_53, axis=3) /* span=model_90/tf.math.add_29/Add;model_90/tf.nn.convolution_25/convolution;Const_109:0:0 */;
  %249 = transpose(%244, axes=[0, 2, 3, 1]) /* span=model_90/tf.compat.v1.transpose_92/transpose:0:0 */;
  %250 = qnn.requantize(%248, meta[relay.Constant][51] /* span=model_90/tf.math.add_29/Add;model_90/tf.nn.convolution_25/convolution;Const_109:0:0 */, 0 /* span=model_90/tf.math.add_29/Add;model_90/tf.nn.convolution_25/convolution;Const_109:0:0 */, 0.0610208f /* span=model_90/tf.math.add_29/Add;model_90/tf.nn.convolution_25/convolution;Const_109:0:0 */, 26 /* span=model_90/tf.math.add_29/Add;model_90/tf.nn.convolution_25/convolution;Const_109:0:0 */, axis=3, out_dtype="int8") /* span=model_90/tf.math.add_29/Add;model_90/tf.nn.convolution_25/convolution;Const_109:0:0 */;
  %251 = qnn.add(%249, %250, 0.0717384f /* span=model_90/tf.math.add_31/Add:0:0 */, -38 /* span=model_90/tf.math.add_31/Add:0:0 */, 0.0610208f /* span=model_90/tf.math.add_31/Add:0:0 */, 26 /* span=model_90/tf.math.add_31/Add:0:0 */, 0.0309167f /* span=model_90/tf.math.add_31/Add:0:0 */, 7 /* span=model_90/tf.math.add_31/Add:0:0 */) /* span=model_90/tf.math.add_31/Add:0:0 */;
  %252 = qnn.conv2d(%251, %v_param_54, 7 /* span=model_90/tf.math.add_32/Add;model_90/tf.nn.convolution_26/convolution;Const_107:0:0 */, 0 /* span=model_90/tf.math.add_32/Add;model_90/tf.nn.convolution_26/convolution;Const_107:0:0 */, 0.0309167f /* span=model_90/tf.math.add_32/Add;model_90/tf.nn.convolution_26/convolution;Const_107:0:0 */, meta[relay.Constant][52] /* span=model_90/tf.math.add_32/Add;model_90/tf.nn.convolution_26/convolution;Const_107:0:0 */, padding=[0, 0, 0, 0], channels=128, kernel_size=[1, 1], data_layout="NHWC", kernel_layout="HWIO", out_dtype="int32") /* span=model_90/tf.math.add_32/Add;model_90/tf.nn.convolution_26/convolution;Const_107:0:0 */;
  %253 = nn.bias_add(%252, %v_param_55, axis=3) /* span=model_90/tf.math.add_32/Add;model_90/tf.nn.convolution_26/convolution;Const_107:0:0 */;
  %254 = qnn.requantize(%253, meta[relay.Constant][53] /* span=model_90/tf.math.add_32/Add;model_90/tf.nn.convolution_26/convolution;Const_107:0:0 */, 0 /* span=model_90/tf.math.add_32/Add;model_90/tf.nn.convolution_26/convolution;Const_107:0:0 */, 0.0917026f /* span=model_90/tf.math.add_32/Add;model_90/tf.nn.convolution_26/convolution;Const_107:0:0 */, -48 /* span=model_90/tf.math.add_32/Add;model_90/tf.nn.convolution_26/convolution;Const_107:0:0 */, axis=3, out_dtype="int8") /* span=model_90/tf.math.add_32/Add;model_90/tf.nn.convolution_26/convolution;Const_107:0:0 */;
  %255 = qnn.add(%216, %254, 0.0930227f /* span=model_90/tf.math.add_34/Add:0:0 */, -51 /* span=model_90/tf.math.add_34/Add:0:0 */, 0.0917026f /* span=model_90/tf.math.add_34/Add:0:0 */, -48 /* span=model_90/tf.math.add_34/Add:0:0 */, 0.0824492f /* span=model_90/tf.math.add_34/Add:0:0 */, -67 /* span=model_90/tf.math.add_34/Add:0:0 */) /* span=model_90/tf.math.add_34/Add:0:0 */;
  %256 = qnn.conv2d(%255, %v_param_56, -67 /* span=model_90/tf.math.add_35/Add;model_90/tf.nn.convolution_27/convolution;Const_105:0:0 */, 0 /* span=model_90/tf.math.add_35/Add;model_90/tf.nn.convolution_27/convolution;Const_105:0:0 */, 0.0824492f /* span=model_90/tf.math.add_35/Add;model_90/tf.nn.convolution_27/convolution;Const_105:0:0 */, meta[relay.Constant][54] /* span=model_90/tf.math.add_35/Add;model_90/tf.nn.convolution_27/convolution;Const_105:0:0 */, padding=[0, 0, 0, 0], channels=256, kernel_size=[1, 1], data_layout="NHWC", kernel_layout="HWIO", out_dtype="int32") /* span=model_90/tf.math.add_35/Add;model_90/tf.nn.convolution_27/convolution;Const_105:0:0 */;
  %257 = nn.bias_add(%256, %v_param_57, axis=3) /* span=model_90/tf.math.add_35/Add;model_90/tf.nn.convolution_27/convolution;Const_105:0:0 */;
  %258 = qnn.requantize(%257, meta[relay.Constant][55] /* span=model_90/tf.math.add_35/Add;model_90/tf.nn.convolution_27/convolution;Const_105:0:0 */, 0 /* span=model_90/tf.math.add_35/Add;model_90/tf.nn.convolution_27/convolution;Const_105:0:0 */, 0.0434229f /* span=model_90/tf.math.add_35/Add;model_90/tf.nn.convolution_27/convolution;Const_105:0:0 */, 31 /* span=model_90/tf.math.add_35/Add;model_90/tf.nn.convolution_27/convolution;Const_105:0:0 */, axis=3, out_dtype="int8") /* span=model_90/tf.math.add_35/Add;model_90/tf.nn.convolution_27/convolution;Const_105:0:0 */;
  %259 = qnn.dequantize(%258, 0.0434229f /* span=model_90/tf.math.sigmoid_24/Sigmoid:0:0 */, 31 /* span=model_90/tf.math.sigmoid_24/Sigmoid:0:0 */, out_dtype="float32") /* span=model_90/tf.math.sigmoid_24/Sigmoid:0:0 */;
  %260 = sigmoid(%259) /* span=model_90/tf.math.sigmoid_24/Sigmoid:0:0 */;
  %261 = qnn.quantize(%260, 0.00390625f /* span=model_90/tf.math.sigmoid_24/Sigmoid:0:0 */, -128 /* span=model_90/tf.math.sigmoid_24/Sigmoid:0:0 */, out_dtype="int8") /* span=model_90/tf.math.sigmoid_24/Sigmoid:0:0 */;
  %262 = qnn.mul(%258, %261, 0.0434229f /* span=model_90/tf.math.multiply_110/Mul:0:0 */, 31 /* span=model_90/tf.math.multiply_110/Mul:0:0 */, 0.00390625f /* span=model_90/tf.math.multiply_110/Mul:0:0 */, -128 /* span=model_90/tf.math.multiply_110/Mul:0:0 */, 0.0172021f /* span=model_90/tf.math.multiply_110/Mul:0:0 */, -112 /* span=model_90/tf.math.multiply_110/Mul:0:0 */) /* span=model_90/tf.math.multiply_110/Mul:0:0 */;
  %263 = qnn.conv2d(%262, %v_param_58, -112 /* span=model_90/tf.math.add_36/Add;model_90/tf.nn.convolution_28/convolution;Const_103:0:0 */, 0 /* span=model_90/tf.math.add_36/Add;model_90/tf.nn.convolution_28/convolution;Const_103:0:0 */, 0.0172021f /* span=model_90/tf.math.add_36/Add;model_90/tf.nn.convolution_28/convolution;Const_103:0:0 */, meta[relay.Constant][56] /* span=model_90/tf.math.add_36/Add;model_90/tf.nn.convolution_28/convolution;Const_103:0:0 */, padding=[0, 0, 0, 0], channels=128, kernel_size=[1, 1], data_layout="NHWC", kernel_layout="HWIO", out_dtype="int32") /* span=model_90/tf.math.add_36/Add;model_90/tf.nn.convolution_28/convolution;Const_103:0:0 */;
  %264 = nn.bias_add(%263, %v_param_59, axis=3) /* span=model_90/tf.math.add_36/Add;model_90/tf.nn.convolution_28/convolution;Const_103:0:0 */;
  %265 = qnn.requantize(%264, meta[relay.Constant][57] /* span=model_90/tf.math.add_36/Add;model_90/tf.nn.convolution_28/convolution;Const_103:0:0 */, 0 /* span=model_90/tf.math.add_36/Add;model_90/tf.nn.convolution_28/convolution;Const_103:0:0 */, 0.0961465f /* span=model_90/tf.math.add_36/Add;model_90/tf.nn.convolution_28/convolution;Const_103:0:0 */, -45 /* span=model_90/tf.math.add_36/Add;model_90/tf.nn.convolution_28/convolution;Const_103:0:0 */, axis=3, out_dtype="int8") /* span=model_90/tf.math.add_36/Add;model_90/tf.nn.convolution_28/convolution;Const_103:0:0 */;
  %266 = reshape(%214, newshape=[1, 20, 20, 128]) /* span=model_90/tf.strided_slice_8/StridedSlice:0:0 */;
  %267 = qnn.add(%255, %265, 0.0824492f /* span=model_90/tf.math.add_38/Add:0:0 */, -67 /* span=model_90/tf.math.add_38/Add:0:0 */, 0.0961465f /* span=model_90/tf.math.add_38/Add:0:0 */, -45 /* span=model_90/tf.math.add_38/Add:0:0 */, 0.0930227f /* span=model_90/tf.math.add_38/Add:0:0 */, -51 /* span=model_90/tf.math.add_38/Add:0:0 */) /* span=model_90/tf.math.add_38/Add:0:0 */;
  %268 = (%266, %267) /* span=model_90/tf.concat_5/concat:0:0 */;
  %269 = (0.0930227f /* span=model_90/tf.concat_5/concat:0:0 */, 0.0930227f /* span=model_90/tf.concat_5/concat:0:0 */) /* span=model_90/tf.concat_5/concat:0:0 */;
  %270 = (-51 /* span=model_90/tf.concat_5/concat:0:0 */, -51 /* span=model_90/tf.concat_5/concat:0:0 */) /* span=model_90/tf.concat_5/concat:0:0 */;
  %271 = qnn.concatenate(%268, %269, %270, 0.0930227f /* span=model_90/tf.concat_5/concat:0:0 */, -51 /* span=model_90/tf.concat_5/concat:0:0 */, axis=3) /* span=model_90/tf.concat_5/concat:0:0 */;
  %272 = qnn.conv2d(%271, %v_param_60, -51 /* span=model_90/tf.math.add_39/Add;model_90/tf.nn.convolution_29/convolution;Const_101:0:0 */, 0 /* span=model_90/tf.math.add_39/Add;model_90/tf.nn.convolution_29/convolution;Const_101:0:0 */, 0.0930227f /* span=model_90/tf.math.add_39/Add;model_90/tf.nn.convolution_29/convolution;Const_101:0:0 */, meta[relay.Constant][58] /* span=model_90/tf.math.add_39/Add;model_90/tf.nn.convolution_29/convolution;Const_101:0:0 */, padding=[0, 0, 0, 0], channels=256, kernel_size=[1, 1], data_layout="NHWC", kernel_layout="HWIO", out_dtype="int32") /* span=model_90/tf.math.add_39/Add;model_90/tf.nn.convolution_29/convolution;Const_101:0:0 */;
  %273 = nn.bias_add(%272, %v_param_61, axis=3) /* span=model_90/tf.math.add_39/Add;model_90/tf.nn.convolution_29/convolution;Const_101:0:0 */;
  %274 = qnn.requantize(%273, meta[relay.Constant][59] /* span=model_90/tf.math.add_39/Add;model_90/tf.nn.convolution_29/convolution;Const_101:0:0 */, 0 /* span=model_90/tf.math.add_39/Add;model_90/tf.nn.convolution_29/convolution;Const_101:0:0 */, 0.0571363f /* span=model_90/tf.math.add_39/Add;model_90/tf.nn.convolution_29/convolution;Const_101:0:0 */, 48 /* span=model_90/tf.math.add_39/Add;model_90/tf.nn.convolution_29/convolution;Const_101:0:0 */, axis=3, out_dtype="int8") /* span=model_90/tf.math.add_39/Add;model_90/tf.nn.convolution_29/convolution;Const_101:0:0 */;
  %275 = qnn.dequantize(%274, 0.0571363f /* span=model_90/tf.math.sigmoid_25/Sigmoid:0:0 */, 48 /* span=model_90/tf.math.sigmoid_25/Sigmoid:0:0 */, out_dtype="float32") /* span=model_90/tf.math.sigmoid_25/Sigmoid:0:0 */;
  %276 = sigmoid(%275) /* span=model_90/tf.math.sigmoid_25/Sigmoid:0:0 */;
  %277 = qnn.quantize(%276, 0.00390625f /* span=model_90/tf.math.sigmoid_25/Sigmoid:0:0 */, -128 /* span=model_90/tf.math.sigmoid_25/Sigmoid:0:0 */, out_dtype="int8") /* span=model_90/tf.math.sigmoid_25/Sigmoid:0:0 */;
  %278 = qnn.mul(%274, %277, 0.0571363f /* span=model_90/tf.math.multiply_116/Mul:0:0 */, 48 /* span=model_90/tf.math.multiply_116/Mul:0:0 */, 0.00390625f /* span=model_90/tf.math.multiply_116/Mul:0:0 */, -128 /* span=model_90/tf.math.multiply_116/Mul:0:0 */, 0.0334442f /* span=model_90/tf.math.multiply_116/Mul:0:0 */, -120 /* span=model_90/tf.math.multiply_116/Mul:0:0 */) /* span=model_90/tf.math.multiply_116/Mul:0:0 */;
  %279 = qnn.requantize(%278, 0.0334442f /* span=model_90/tf.math.multiply_116/Mul1:0:0 */, -120 /* span=model_90/tf.math.multiply_116/Mul1:0:0 */, 0.019251f /* span=model_90/tf.math.multiply_116/Mul1:0:0 */, -114 /* span=model_90/tf.math.multiply_116/Mul1:0:0 */, out_dtype="int8") /* span=model_90/tf.math.multiply_116/Mul1:0:0 */;
  %280 = image.resize2d(%279, size=[40, 40], roi=[0f, 0f, 0f, 0f], layout="NHWC", method="nearest_neighbor", rounding_method="round_prefer_ceil") /* span=model_90/tf.image.resize/resize/ResizeNearestNeighbor:0:0 */;
  %281 = (%280, %140) /* span=model_90/tf.concat_6/concat:0:0 */;
  %282 = (0.019251f /* span=model_90/tf.concat_6/concat:0:0 */, 0.019251f /* span=model_90/tf.concat_6/concat:0:0 */) /* span=model_90/tf.concat_6/concat:0:0 */;
  %283 = (-114 /* span=model_90/tf.concat_6/concat:0:0 */, -114 /* span=model_90/tf.concat_6/concat:0:0 */) /* span=model_90/tf.concat_6/concat:0:0 */;
  %284 = qnn.concatenate(%281, %282, %283, 0.019251f /* span=model_90/tf.concat_6/concat:0:0 */, -114 /* span=model_90/tf.concat_6/concat:0:0 */, axis=3) /* span=model_90/tf.concat_6/concat:0:0 */;
  %285 = qnn.conv2d(%284, %v_param_62, -114 /* span=model_90/tf.math.add_40/Add;model_90/tf.nn.convolution_30/convolution;Const_99:0:0 */, 0 /* span=model_90/tf.math.add_40/Add;model_90/tf.nn.convolution_30/convolution;Const_99:0:0 */, 0.019251f /* span=model_90/tf.math.add_40/Add;model_90/tf.nn.convolution_30/convolution;Const_99:0:0 */, meta[relay.Constant][60] /* span=model_90/tf.math.add_40/Add;model_90/tf.nn.convolution_30/convolution;Const_99:0:0 */, padding=[0, 0, 0, 0], channels=128, kernel_size=[1, 1], data_layout="NHWC", kernel_layout="HWIO", out_dtype="int32") /* span=model_90/tf.math.add_40/Add;model_90/tf.nn.convolution_30/convolution;Const_99:0:0 */;
  %286 = nn.bias_add(%285, %v_param_63, axis=3) /* span=model_90/tf.math.add_40/Add;model_90/tf.nn.convolution_30/convolution;Const_99:0:0 */;
  %287 = qnn.requantize(%286, meta[relay.Constant][61] /* span=model_90/tf.math.add_40/Add;model_90/tf.nn.convolution_30/convolution;Const_99:0:0 */, 0 /* span=model_90/tf.math.add_40/Add;model_90/tf.nn.convolution_30/convolution;Const_99:0:0 */, 0.0440194f /* span=model_90/tf.math.add_40/Add;model_90/tf.nn.convolution_30/convolution;Const_99:0:0 */, 30 /* span=model_90/tf.math.add_40/Add;model_90/tf.nn.convolution_30/convolution;Const_99:0:0 */, axis=3, out_dtype="int8") /* span=model_90/tf.math.add_40/Add;model_90/tf.nn.convolution_30/convolution;Const_99:0:0 */;
  %288 = qnn.dequantize(%287, 0.0440194f /* span=model_90/tf.math.sigmoid_26/Sigmoid:0:0 */, 30 /* span=model_90/tf.math.sigmoid_26/Sigmoid:0:0 */, out_dtype="float32") /* span=model_90/tf.math.sigmoid_26/Sigmoid:0:0 */;
  %289 = sigmoid(%288) /* span=model_90/tf.math.sigmoid_26/Sigmoid:0:0 */;
  %290 = qnn.quantize(%289, 0.00390625f /* span=model_90/tf.math.sigmoid_26/Sigmoid:0:0 */, -128 /* span=model_90/tf.math.sigmoid_26/Sigmoid:0:0 */, out_dtype="int8") /* span=model_90/tf.math.sigmoid_26/Sigmoid:0:0 */;
  %291 = qnn.mul(%287, %290, 0.0440194f /* span=model_90/tf.math.multiply_120/Mul:0:0 */, 30 /* span=model_90/tf.math.multiply_120/Mul:0:0 */, 0.00390625f /* span=model_90/tf.math.multiply_120/Mul:0:0 */, -128 /* span=model_90/tf.math.multiply_120/Mul:0:0 */, 0.0226269f /* span=model_90/tf.math.multiply_120/Mul:0:0 */, -116 /* span=model_90/tf.math.multiply_120/Mul:0:0 */) /* span=model_90/tf.math.multiply_120/Mul:0:0 */;
  %292 = strided_slice(%291, begin=[0, 0, 0, 0], end=[1, 40, 40, 64], strides=[1, 1, 1, 1], axes=None) /* span=model_90/tf.strided_slice_13/StridedSlice:0:0 */;
  %293 = strided_slice(%291, begin=[0, 0, 0, 64], end=[1, 40, 40, 128], strides=[1, 1, 1, 1], axes=None) /* span=model_90/tf.strided_slice_14/StridedSlice:0:0 */;
  %294 = reshape(%293, newshape=[1, 40, 40, 64]) /* span=model_90/tf.strided_slice_14/StridedSlice:0:0 */;
  %295 = qnn.conv2d(%294, %v_param_64, -116 /* span=model_90/tf.math.add_41/Add;model_90/tf.nn.convolution_31/convolution;Const_95:0:0 */, 0 /* span=model_90/tf.math.add_41/Add;model_90/tf.nn.convolution_31/convolution;Const_95:0:0 */, 0.0226269f /* span=model_90/tf.math.add_41/Add;model_90/tf.nn.convolution_31/convolution;Const_95:0:0 */, meta[relay.Constant][62] /* span=model_90/tf.math.add_41/Add;model_90/tf.nn.convolution_31/convolution;Const_95:0:0 */, padding=[1, 1, 1, 1], channels=64, kernel_size=[3, 3], data_layout="NHWC", kernel_layout="HWIO", out_dtype="int32") /* span=model_90/tf.math.add_41/Add;model_90/tf.nn.convolution_31/convolution;Const_95:0:0 */;
  %296 = nn.bias_add(%295, %v_param_65, axis=3) /* span=model_90/tf.math.add_41/Add;model_90/tf.nn.convolution_31/convolution;Const_95:0:0 */;
  %297 = qnn.requantize(%296, meta[relay.Constant][63] /* span=model_90/tf.math.add_41/Add;model_90/tf.nn.convolution_31/convolution;Const_95:0:0 */, 0 /* span=model_90/tf.math.add_41/Add;model_90/tf.nn.convolution_31/convolution;Const_95:0:0 */, 0.0397803f /* span=model_90/tf.math.add_41/Add;model_90/tf.nn.convolution_31/convolution;Const_95:0:0 */, 4 /* span=model_90/tf.math.add_41/Add;model_90/tf.nn.convolution_31/convolution;Const_95:0:0 */, axis=3, out_dtype="int8") /* span=model_90/tf.math.add_41/Add;model_90/tf.nn.convolution_31/convolution;Const_95:0:0 */;
  %298 = qnn.dequantize(%297, 0.0397803f /* span=model_90/tf.math.sigmoid_27/Sigmoid:0:0 */, 4 /* span=model_90/tf.math.sigmoid_27/Sigmoid:0:0 */, out_dtype="float32") /* span=model_90/tf.math.sigmoid_27/Sigmoid:0:0 */;
  %299 = sigmoid(%298) /* span=model_90/tf.math.sigmoid_27/Sigmoid:0:0 */;
  %300 = qnn.quantize(%299, 0.00390625f /* span=model_90/tf.math.sigmoid_27/Sigmoid:0:0 */, -128 /* span=model_90/tf.math.sigmoid_27/Sigmoid:0:0 */, out_dtype="int8") /* span=model_90/tf.math.sigmoid_27/Sigmoid:0:0 */;
  %301 = qnn.mul(%297, %300, 0.0397803f /* span=model_90/tf.math.multiply_124/Mul:0:0 */, 4 /* span=model_90/tf.math.multiply_124/Mul:0:0 */, 0.00390625f /* span=model_90/tf.math.multiply_124/Mul:0:0 */, -128 /* span=model_90/tf.math.multiply_124/Mul:0:0 */, 0.0201317f /* span=model_90/tf.math.multiply_124/Mul:0:0 */, -114 /* span=model_90/tf.math.multiply_124/Mul:0:0 */) /* span=model_90/tf.math.multiply_124/Mul:0:0 */;
  %302 = qnn.conv2d(%301, %v_param_66, -114 /* span=model_90/tf.math.add_42/Add;model_90/tf.nn.convolution_32/convolution;Const_93:0:0 */, 0 /* span=model_90/tf.math.add_42/Add;model_90/tf.nn.convolution_32/convolution;Const_93:0:0 */, 0.0201317f /* span=model_90/tf.math.add_42/Add;model_90/tf.nn.convolution_32/convolution;Const_93:0:0 */, meta[relay.Constant][64] /* span=model_90/tf.math.add_42/Add;model_90/tf.nn.convolution_32/convolution;Const_93:0:0 */, padding=[1, 1, 1, 1], channels=64, kernel_size=[3, 3], data_layout="NHWC", kernel_layout="HWIO", out_dtype="int32") /* span=model_90/tf.math.add_42/Add;model_90/tf.nn.convolution_32/convolution;Const_93:0:0 */;
  %303 = nn.bias_add(%302, %v_param_67, axis=3) /* span=model_90/tf.math.add_42/Add;model_90/tf.nn.convolution_32/convolution;Const_93:0:0 */;
  %304 = qnn.requantize(%303, meta[relay.Constant][65] /* span=model_90/tf.math.add_42/Add;model_90/tf.nn.convolution_32/convolution;Const_93:0:0 */, 0 /* span=model_90/tf.math.add_42/Add;model_90/tf.nn.convolution_32/convolution;Const_93:0:0 */, 0.0480403f /* span=model_90/tf.math.add_42/Add;model_90/tf.nn.convolution_32/convolution;Const_93:0:0 */, 12 /* span=model_90/tf.math.add_42/Add;model_90/tf.nn.convolution_32/convolution;Const_93:0:0 */, axis=3, out_dtype="int8") /* span=model_90/tf.math.add_42/Add;model_90/tf.nn.convolution_32/convolution;Const_93:0:0 */;
  %305 = qnn.dequantize(%304, 0.0480403f /* span=model_90/tf.math.sigmoid_28/Sigmoid:0:0 */, 12 /* span=model_90/tf.math.sigmoid_28/Sigmoid:0:0 */, out_dtype="float32") /* span=model_90/tf.math.sigmoid_28/Sigmoid:0:0 */;
  %306 = sigmoid(%305) /* span=model_90/tf.math.sigmoid_28/Sigmoid:0:0 */;
  %307 = qnn.quantize(%306, 0.00390625f /* span=model_90/tf.math.sigmoid_28/Sigmoid:0:0 */, -128 /* span=model_90/tf.math.sigmoid_28/Sigmoid:0:0 */, out_dtype="int8") /* span=model_90/tf.math.sigmoid_28/Sigmoid:0:0 */;
  %308 = reshape(%292, newshape=[1, 40, 40, 64]) /* span=model_90/tf.strided_slice_13/StridedSlice:0:0 */;
  %309 = qnn.mul(%304, %307, 0.0480403f /* span=model_90/tf.math.multiply_128/Mul:0:0 */, 12 /* span=model_90/tf.math.multiply_128/Mul:0:0 */, 0.00390625f /* span=model_90/tf.math.multiply_128/Mul:0:0 */, -128 /* span=model_90/tf.math.multiply_128/Mul:0:0 */, 0.0226269f /* span=model_90/tf.math.multiply_128/Mul:0:0 */, -116 /* span=model_90/tf.math.multiply_128/Mul:0:0 */) /* span=model_90/tf.math.multiply_128/Mul:0:0 */;
  %310 = (%308, %294, %309) /* span=model_90/tf.concat_7/concat:0:0 */;
  %311 = (0.0226269f /* span=model_90/tf.concat_7/concat:0:0 */, 0.0226269f /* span=model_90/tf.concat_7/concat:0:0 */, 0.0226269f /* span=model_90/tf.concat_7/concat:0:0 */) /* span=model_90/tf.concat_7/concat:0:0 */;
  %312 = (-116 /* span=model_90/tf.concat_7/concat:0:0 */, -116 /* span=model_90/tf.concat_7/concat:0:0 */, -116 /* span=model_90/tf.concat_7/concat:0:0 */) /* span=model_90/tf.concat_7/concat:0:0 */;
  %313 = qnn.concatenate(%310, %311, %312, 0.0226269f /* span=model_90/tf.concat_7/concat:0:0 */, -116 /* span=model_90/tf.concat_7/concat:0:0 */, axis=3) /* span=model_90/tf.concat_7/concat:0:0 */;
  %314 = qnn.conv2d(%313, %v_param_68, -116 /* span=model_90/tf.math.add_43/Add;model_90/tf.nn.convolution_33/convolution;Const_89:0:0 */, 0 /* span=model_90/tf.math.add_43/Add;model_90/tf.nn.convolution_33/convolution;Const_89:0:0 */, 0.0226269f /* span=model_90/tf.math.add_43/Add;model_90/tf.nn.convolution_33/convolution;Const_89:0:0 */, meta[relay.Constant][66] /* span=model_90/tf.math.add_43/Add;model_90/tf.nn.convolution_33/convolution;Const_89:0:0 */, padding=[0, 0, 0, 0], channels=128, kernel_size=[1, 1], data_layout="NHWC", kernel_layout="HWIO", out_dtype="int32") /* span=model_90/tf.math.add_43/Add;model_90/tf.nn.convolution_33/convolution;Const_89:0:0 */;
  %315 = nn.bias_add(%314, %v_param_69, axis=3) /* span=model_90/tf.math.add_43/Add;model_90/tf.nn.convolution_33/convolution;Const_89:0:0 */;
  %316 = qnn.requantize(%315, meta[relay.Constant][67] /* span=model_90/tf.math.add_43/Add;model_90/tf.nn.convolution_33/convolution;Const_89:0:0 */, 0 /* span=model_90/tf.math.add_43/Add;model_90/tf.nn.convolution_33/convolution;Const_89:0:0 */, 0.0445474f /* span=model_90/tf.math.add_43/Add;model_90/tf.nn.convolution_33/convolution;Const_89:0:0 */, 38 /* span=model_90/tf.math.add_43/Add;model_90/tf.nn.convolution_33/convolution;Const_89:0:0 */, axis=3, out_dtype="int8") /* span=model_90/tf.math.add_43/Add;model_90/tf.nn.convolution_33/convolution;Const_89:0:0 */;
  %317 = qnn.dequantize(%316, 0.0445474f /* span=model_90/tf.math.sigmoid_29/Sigmoid:0:0 */, 38 /* span=model_90/tf.math.sigmoid_29/Sigmoid:0:0 */, out_dtype="float32") /* span=model_90/tf.math.sigmoid_29/Sigmoid:0:0 */;
  %318 = sigmoid(%317) /* span=model_90/tf.math.sigmoid_29/Sigmoid:0:0 */;
  %319 = qnn.quantize(%318, 0.00390625f /* span=model_90/tf.math.sigmoid_29/Sigmoid:0:0 */, -128 /* span=model_90/tf.math.sigmoid_29/Sigmoid:0:0 */, out_dtype="int8") /* span=model_90/tf.math.sigmoid_29/Sigmoid:0:0 */;
  %320 = qnn.mul(%316, %319, 0.0445474f /* span=model_90/tf.math.multiply_132/Mul:0:0 */, 38 /* span=model_90/tf.math.multiply_132/Mul:0:0 */, 0.00390625f /* span=model_90/tf.math.multiply_132/Mul:0:0 */, -128 /* span=model_90/tf.math.multiply_132/Mul:0:0 */, 0.0200745f /* span=model_90/tf.math.multiply_132/Mul:0:0 */, -114 /* span=model_90/tf.math.multiply_132/Mul:0:0 */) /* span=model_90/tf.math.multiply_132/Mul:0:0 */;
  %321 = qnn.requantize(%320, 0.0200745f /* span=model_90/tf.math.multiply_132/Mul1:0:0 */, -114 /* span=model_90/tf.math.multiply_132/Mul1:0:0 */, 0.0299939f /* span=model_90/tf.math.multiply_132/Mul1:0:0 */, -119 /* span=model_90/tf.math.multiply_132/Mul1:0:0 */, out_dtype="int8") /* span=model_90/tf.math.multiply_132/Mul1:0:0 */;
  %322 = image.resize2d(%321, size=[80, 80], roi=[0f, 0f, 0f, 0f], layout="NHWC", method="nearest_neighbor", rounding_method="round_prefer_ceil") /* span=model_90/tf.image.resize_1/resize/ResizeNearestNeighbor:0:0 */;
  %323 = (%322, %95) /* span=model_90/tf.concat_8/concat:0:0 */;
  %324 = (0.0299939f /* span=model_90/tf.concat_8/concat:0:0 */, 0.0299939f /* span=model_90/tf.concat_8/concat:0:0 */) /* span=model_90/tf.concat_8/concat:0:0 */;
  %325 = (-119 /* span=model_90/tf.concat_8/concat:0:0 */, -119 /* span=model_90/tf.concat_8/concat:0:0 */) /* span=model_90/tf.concat_8/concat:0:0 */;
  %326 = qnn.concatenate(%323, %324, %325, 0.0299939f /* span=model_90/tf.concat_8/concat:0:0 */, -119 /* span=model_90/tf.concat_8/concat:0:0 */, axis=3) /* span=model_90/tf.concat_8/concat:0:0 */;
  %327 = qnn.conv2d(%326, %v_param_70, -119 /* span=model_90/tf.math.add_44/Add;model_90/tf.nn.convolution_34/convolution;Const_87:0:0 */, 0 /* span=model_90/tf.math.add_44/Add;model_90/tf.nn.convolution_34/convolution;Const_87:0:0 */, 0.0299939f /* span=model_90/tf.math.add_44/Add;model_90/tf.nn.convolution_34/convolution;Const_87:0:0 */, meta[relay.Constant][68] /* span=model_90/tf.math.add_44/Add;model_90/tf.nn.convolution_34/convolution;Const_87:0:0 */, padding=[0, 0, 0, 0], channels=64, kernel_size=[1, 1], data_layout="NHWC", kernel_layout="HWIO", out_dtype="int32") /* span=model_90/tf.math.add_44/Add;model_90/tf.nn.convolution_34/convolution;Const_87:0:0 */;
  %328 = nn.bias_add(%327, %v_param_71, axis=3) /* span=model_90/tf.math.add_44/Add;model_90/tf.nn.convolution_34/convolution;Const_87:0:0 */;
  %329 = qnn.requantize(%328, meta[relay.Constant][69] /* span=model_90/tf.math.add_44/Add;model_90/tf.nn.convolution_34/convolution;Const_87:0:0 */, 0 /* span=model_90/tf.math.add_44/Add;model_90/tf.nn.convolution_34/convolution;Const_87:0:0 */, 0.0397207f /* span=model_90/tf.math.add_44/Add;model_90/tf.nn.convolution_34/convolution;Const_87:0:0 */, 45 /* span=model_90/tf.math.add_44/Add;model_90/tf.nn.convolution_34/convolution;Const_87:0:0 */, axis=3, out_dtype="int8") /* span=model_90/tf.math.add_44/Add;model_90/tf.nn.convolution_34/convolution;Const_87:0:0 */;
  %330 = qnn.dequantize(%329, 0.0397207f /* span=model_90/tf.math.sigmoid_30/Sigmoid:0:0 */, 45 /* span=model_90/tf.math.sigmoid_30/Sigmoid:0:0 */, out_dtype="float32") /* span=model_90/tf.math.sigmoid_30/Sigmoid:0:0 */;
  %331 = sigmoid(%330) /* span=model_90/tf.math.sigmoid_30/Sigmoid:0:0 */;
  %332 = qnn.quantize(%331, 0.00390625f /* span=model_90/tf.math.sigmoid_30/Sigmoid:0:0 */, -128 /* span=model_90/tf.math.sigmoid_30/Sigmoid:0:0 */, out_dtype="int8") /* span=model_90/tf.math.sigmoid_30/Sigmoid:0:0 */;
  %333 = qnn.mul(%329, %332, 0.0397207f /* span=model_90/tf.math.multiply_136/Mul:0:0 */, 45 /* span=model_90/tf.math.multiply_136/Mul:0:0 */, 0.00390625f /* span=model_90/tf.math.multiply_136/Mul:0:0 */, -128 /* span=model_90/tf.math.multiply_136/Mul:0:0 */, 0.0275721f /* span=model_90/tf.math.multiply_136/Mul:0:0 */, -118 /* span=model_90/tf.math.multiply_136/Mul:0:0 */) /* span=model_90/tf.math.multiply_136/Mul:0:0 */;
  %334 = strided_slice(%333, begin=[0, 0, 0, 0], end=[1, 80, 80, 32], strides=[1, 1, 1, 1], axes=None) /* span=model_90/tf.strided_slice_15/StridedSlice:0:0 */;
  %335 = strided_slice(%333, begin=[0, 0, 0, 32], end=[1, 80, 80, 64], strides=[1, 1, 1, 1], axes=None) /* span=model_90/tf.strided_slice_16/StridedSlice:0:0 */;
  %336 = reshape(%335, newshape=[1, 80, 80, 32]) /* span=model_90/tf.strided_slice_16/StridedSlice:0:0 */;
  %337 = qnn.conv2d(%336, %v_param_72, -118 /* span=model_90/tf.math.add_45/Add;model_90/tf.nn.convolution_35/convolution;Const_83:0:0 */, 0 /* span=model_90/tf.math.add_45/Add;model_90/tf.nn.convolution_35/convolution;Const_83:0:0 */, 0.0275721f /* span=model_90/tf.math.add_45/Add;model_90/tf.nn.convolution_35/convolution;Const_83:0:0 */, meta[relay.Constant][70] /* span=model_90/tf.math.add_45/Add;model_90/tf.nn.convolution_35/convolution;Const_83:0:0 */, padding=[1, 1, 1, 1], channels=32, kernel_size=[3, 3], data_layout="NHWC", kernel_layout="HWIO", out_dtype="int32") /* span=model_90/tf.math.add_45/Add;model_90/tf.nn.convolution_35/convolution;Const_83:0:0 */;
  %338 = nn.bias_add(%337, %v_param_73, axis=3) /* span=model_90/tf.math.add_45/Add;model_90/tf.nn.convolution_35/convolution;Const_83:0:0 */;
  %339 = qnn.requantize(%338, meta[relay.Constant][71] /* span=model_90/tf.math.add_45/Add;model_90/tf.nn.convolution_35/convolution;Const_83:0:0 */, 0 /* span=model_90/tf.math.add_45/Add;model_90/tf.nn.convolution_35/convolution;Const_83:0:0 */, 0.0476508f /* span=model_90/tf.math.add_45/Add;model_90/tf.nn.convolution_35/convolution;Const_83:0:0 */, -16 /* span=model_90/tf.math.add_45/Add;model_90/tf.nn.convolution_35/convolution;Const_83:0:0 */, axis=3, out_dtype="int8") /* span=model_90/tf.math.add_45/Add;model_90/tf.nn.convolution_35/convolution;Const_83:0:0 */;
  %340 = qnn.dequantize(%339, 0.0476508f /* span=model_90/tf.math.sigmoid_31/Sigmoid:0:0 */, -16 /* span=model_90/tf.math.sigmoid_31/Sigmoid:0:0 */, out_dtype="float32") /* span=model_90/tf.math.sigmoid_31/Sigmoid:0:0 */;
  %341 = sigmoid(%340) /* span=model_90/tf.math.sigmoid_31/Sigmoid:0:0 */;
  %342 = qnn.quantize(%341, 0.00390625f /* span=model_90/tf.math.sigmoid_31/Sigmoid:0:0 */, -128 /* span=model_90/tf.math.sigmoid_31/Sigmoid:0:0 */, out_dtype="int8") /* span=model_90/tf.math.sigmoid_31/Sigmoid:0:0 */;
  %343 = qnn.mul(%339, %342, 0.0476508f /* span=model_90/tf.math.multiply_140/Mul:0:0 */, -16 /* span=model_90/tf.math.multiply_140/Mul:0:0 */, 0.00390625f /* span=model_90/tf.math.multiply_140/Mul:0:0 */, -128 /* span=model_90/tf.math.multiply_140/Mul:0:0 */, 0.0278595f /* span=model_90/tf.math.multiply_140/Mul:0:0 */, -118 /* span=model_90/tf.math.multiply_140/Mul:0:0 */) /* span=model_90/tf.math.multiply_140/Mul:0:0 */;
  %344 = qnn.conv2d(%343, %v_param_74, -118 /* span=model_90/tf.math.add_46/Add;model_90/tf.nn.convolution_36/convolution;Const_81:0:0 */, 0 /* span=model_90/tf.math.add_46/Add;model_90/tf.nn.convolution_36/convolution;Const_81:0:0 */, 0.0278595f /* span=model_90/tf.math.add_46/Add;model_90/tf.nn.convolution_36/convolution;Const_81:0:0 */, meta[relay.Constant][72] /* span=model_90/tf.math.add_46/Add;model_90/tf.nn.convolution_36/convolution;Const_81:0:0 */, padding=[1, 1, 1, 1], channels=32, kernel_size=[3, 3], data_layout="NHWC", kernel_layout="HWIO", out_dtype="int32") /* span=model_90/tf.math.add_46/Add;model_90/tf.nn.convolution_36/convolution;Const_81:0:0 */;
  %345 = nn.bias_add(%344, %v_param_75, axis=3) /* span=model_90/tf.math.add_46/Add;model_90/tf.nn.convolution_36/convolution;Const_81:0:0 */;
  %346 = qnn.requantize(%345, meta[relay.Constant][73] /* span=model_90/tf.math.add_46/Add;model_90/tf.nn.convolution_36/convolution;Const_81:0:0 */, 0 /* span=model_90/tf.math.add_46/Add;model_90/tf.nn.convolution_36/convolution;Const_81:0:0 */, 0.054597f /* span=model_90/tf.math.add_46/Add;model_90/tf.nn.convolution_36/convolution;Const_81:0:0 */, 3 /* span=model_90/tf.math.add_46/Add;model_90/tf.nn.convolution_36/convolution;Const_81:0:0 */, axis=3, out_dtype="int8") /* span=model_90/tf.math.add_46/Add;model_90/tf.nn.convolution_36/convolution;Const_81:0:0 */;
  %347 = qnn.dequantize(%346, 0.054597f /* span=model_90/tf.math.sigmoid_32/Sigmoid:0:0 */, 3 /* span=model_90/tf.math.sigmoid_32/Sigmoid:0:0 */, out_dtype="float32") /* span=model_90/tf.math.sigmoid_32/Sigmoid:0:0 */;
  %348 = sigmoid(%347) /* span=model_90/tf.math.sigmoid_32/Sigmoid:0:0 */;
  %349 = qnn.quantize(%348, 0.00390625f /* span=model_90/tf.math.sigmoid_32/Sigmoid:0:0 */, -128 /* span=model_90/tf.math.sigmoid_32/Sigmoid:0:0 */, out_dtype="int8") /* span=model_90/tf.math.sigmoid_32/Sigmoid:0:0 */;
  %350 = reshape(%334, newshape=[1, 80, 80, 32]) /* span=model_90/tf.strided_slice_15/StridedSlice:0:0 */;
  %351 = qnn.mul(%346, %349, 0.054597f /* span=model_90/tf.math.multiply_144/Mul:0:0 */, 3 /* span=model_90/tf.math.multiply_144/Mul:0:0 */, 0.00390625f /* span=model_90/tf.math.multiply_144/Mul:0:0 */, -128 /* span=model_90/tf.math.multiply_144/Mul:0:0 */, 0.0275721f /* span=model_90/tf.math.multiply_144/Mul:0:0 */, -118 /* span=model_90/tf.math.multiply_144/Mul:0:0 */) /* span=model_90/tf.math.multiply_144/Mul:0:0 */;
  %352 = (%350, %336, %351) /* span=model_90/tf.concat_9/concat:0:0 */;
  %353 = (0.0275721f /* span=model_90/tf.concat_9/concat:0:0 */, 0.0275721f /* span=model_90/tf.concat_9/concat:0:0 */, 0.0275721f /* span=model_90/tf.concat_9/concat:0:0 */) /* span=model_90/tf.concat_9/concat:0:0 */;
  %354 = (-118 /* span=model_90/tf.concat_9/concat:0:0 */, -118 /* span=model_90/tf.concat_9/concat:0:0 */, -118 /* span=model_90/tf.concat_9/concat:0:0 */) /* span=model_90/tf.concat_9/concat:0:0 */;
  %355 = qnn.concatenate(%352, %353, %354, 0.0275721f /* span=model_90/tf.concat_9/concat:0:0 */, -118 /* span=model_90/tf.concat_9/concat:0:0 */, axis=3) /* span=model_90/tf.concat_9/concat:0:0 */;
  %356 = qnn.conv2d(%355, %v_param_76, -118 /* span=model_90/tf.math.add_47/Add;model_90/tf.nn.convolution_37/convolution;Const_77:0:0 */, 0 /* span=model_90/tf.math.add_47/Add;model_90/tf.nn.convolution_37/convolution;Const_77:0:0 */, 0.0275721f /* span=model_90/tf.math.add_47/Add;model_90/tf.nn.convolution_37/convolution;Const_77:0:0 */, meta[relay.Constant][74] /* span=model_90/tf.math.add_47/Add;model_90/tf.nn.convolution_37/convolution;Const_77:0:0 */, padding=[0, 0, 0, 0], channels=64, kernel_size=[1, 1], data_layout="NHWC", kernel_layout="HWIO", out_dtype="int32") /* span=model_90/tf.math.add_47/Add;model_90/tf.nn.convolution_37/convolution;Const_77:0:0 */;
  %357 = nn.bias_add(%356, %v_param_77, axis=3) /* span=model_90/tf.math.add_47/Add;model_90/tf.nn.convolution_37/convolution;Const_77:0:0 */;
  %358 = qnn.requantize(%357, meta[relay.Constant][75] /* span=model_90/tf.math.add_47/Add;model_90/tf.nn.convolution_37/convolution;Const_77:0:0 */, 0 /* span=model_90/tf.math.add_47/Add;model_90/tf.nn.convolution_37/convolution;Const_77:0:0 */, 0.0479761f /* span=model_90/tf.math.add_47/Add;model_90/tf.nn.convolution_37/convolution;Const_77:0:0 */, 42 /* span=model_90/tf.math.add_47/Add;model_90/tf.nn.convolution_37/convolution;Const_77:0:0 */, axis=3, out_dtype="int8") /* span=model_90/tf.math.add_47/Add;model_90/tf.nn.convolution_37/convolution;Const_77:0:0 */;
  %359 = qnn.dequantize(%358, 0.0479761f /* span=model_90/tf.math.sigmoid_33/Sigmoid:0:0 */, 42 /* span=model_90/tf.math.sigmoid_33/Sigmoid:0:0 */, out_dtype="float32") /* span=model_90/tf.math.sigmoid_33/Sigmoid:0:0 */;
  %360 = sigmoid(%359) /* span=model_90/tf.math.sigmoid_33/Sigmoid:0:0 */;
  %361 = qnn.quantize(%360, 0.00390625f /* span=model_90/tf.math.sigmoid_33/Sigmoid:0:0 */, -128 /* span=model_90/tf.math.sigmoid_33/Sigmoid:0:0 */, out_dtype="int8") /* span=model_90/tf.math.sigmoid_33/Sigmoid:0:0 */;
  %362 = qnn.mul(%358, %361, 0.0479761f /* span=model_90/tf.math.multiply_148/Mul:0:0 */, 42 /* span=model_90/tf.math.multiply_148/Mul:0:0 */, 0.00390625f /* span=model_90/tf.math.multiply_148/Mul:0:0 */, -128 /* span=model_90/tf.math.multiply_148/Mul:0:0 */, 0.0167996f /* span=model_90/tf.math.multiply_148/Mul:0:0 */, -111 /* span=model_90/tf.math.multiply_148/Mul:0:0 */) /* span=model_90/tf.math.multiply_148/Mul:0:0 */;
  %363 = qnn.conv2d(%362, %v_param_122, -111 /* span=model_90/tf.math.add_49/Add;model_90/tf.nn.convolution_39/convolution;Const_35:0:0 */, 0 /* span=model_90/tf.math.add_49/Add;model_90/tf.nn.convolution_39/convolution;Const_35:0:0 */, 0.0167996f /* span=model_90/tf.math.add_49/Add;model_90/tf.nn.convolution_39/convolution;Const_35:0:0 */, meta[relay.Constant][76] /* span=model_90/tf.math.add_49/Add;model_90/tf.nn.convolution_39/convolution;Const_35:0:0 */, padding=[1, 1, 1, 1], channels=64, kernel_size=[3, 3], data_layout="NHWC", kernel_layout="HWIO", out_dtype="int32") /* span=model_90/tf.math.add_49/Add;model_90/tf.nn.convolution_39/convolution;Const_35:0:0 */;
  %364 = nn.bias_add(%363, %v_param_123, axis=3) /* span=model_90/tf.math.add_49/Add;model_90/tf.nn.convolution_39/convolution;Const_35:0:0 */;
  %365 = qnn.requantize(%364, meta[relay.Constant][77] /* span=model_90/tf.math.add_49/Add;model_90/tf.nn.convolution_39/convolution;Const_35:0:0 */, 0 /* span=model_90/tf.math.add_49/Add;model_90/tf.nn.convolution_39/convolution;Const_35:0:0 */, 0.0583578f /* span=model_90/tf.math.add_49/Add;model_90/tf.nn.convolution_39/convolution;Const_35:0:0 */, 6 /* span=model_90/tf.math.add_49/Add;model_90/tf.nn.convolution_39/convolution;Const_35:0:0 */, axis=3, out_dtype="int8") /* span=model_90/tf.math.add_49/Add;model_90/tf.nn.convolution_39/convolution;Const_35:0:0 */;
  %366 = qnn.dequantize(%365, 0.0583578f /* span=model_90/tf.math.sigmoid_35/Sigmoid:0:0 */, 6 /* span=model_90/tf.math.sigmoid_35/Sigmoid:0:0 */, out_dtype="float32") /* span=model_90/tf.math.sigmoid_35/Sigmoid:0:0 */;
  %367 = sigmoid(%366) /* span=model_90/tf.math.sigmoid_35/Sigmoid:0:0 */;
  %368 = qnn.quantize(%367, 0.00390625f /* span=model_90/tf.math.sigmoid_35/Sigmoid:0:0 */, -128 /* span=model_90/tf.math.sigmoid_35/Sigmoid:0:0 */, out_dtype="int8") /* span=model_90/tf.math.sigmoid_35/Sigmoid:0:0 */;
  %369 = qnn.mul(%365, %368, 0.0583578f /* span=model_90/tf.math.multiply_156/Mul:0:0 */, 6 /* span=model_90/tf.math.multiply_156/Mul:0:0 */, 0.00390625f /* span=model_90/tf.math.multiply_156/Mul:0:0 */, -128 /* span=model_90/tf.math.multiply_156/Mul:0:0 */, 0.028793f /* span=model_90/tf.math.multiply_156/Mul:0:0 */, -118 /* span=model_90/tf.math.multiply_156/Mul:0:0 */) /* span=model_90/tf.math.multiply_156/Mul:0:0 */;
  %370 = qnn.conv2d(%369, %v_param_124, -118 /* span=model_90/tf.math.add_51/Add;model_90/tf.nn.convolution_41/convolution;Const_23:0:0 */, 0 /* span=model_90/tf.math.add_51/Add;model_90/tf.nn.convolution_41/convolution;Const_23:0:0 */, 0.028793f /* span=model_90/tf.math.add_51/Add;model_90/tf.nn.convolution_41/convolution;Const_23:0:0 */, meta[relay.Constant][78] /* span=model_90/tf.math.add_51/Add;model_90/tf.nn.convolution_41/convolution;Const_23:0:0 */, padding=[1, 1, 1, 1], channels=64, kernel_size=[3, 3], data_layout="NHWC", kernel_layout="HWIO", out_dtype="int32") /* span=model_90/tf.math.add_51/Add;model_90/tf.nn.convolution_41/convolution;Const_23:0:0 */;
  %371 = nn.bias_add(%370, %v_param_125, axis=3) /* span=model_90/tf.math.add_51/Add;model_90/tf.nn.convolution_41/convolution;Const_23:0:0 */;
  %372 = qnn.requantize(%371, meta[relay.Constant][79] /* span=model_90/tf.math.add_51/Add;model_90/tf.nn.convolution_41/convolution;Const_23:0:0 */, 0 /* span=model_90/tf.math.add_51/Add;model_90/tf.nn.convolution_41/convolution;Const_23:0:0 */, 0.219562f /* span=model_90/tf.math.add_51/Add;model_90/tf.nn.convolution_41/convolution;Const_23:0:0 */, -32 /* span=model_90/tf.math.add_51/Add;model_90/tf.nn.convolution_41/convolution;Const_23:0:0 */, axis=3, out_dtype="int8") /* span=model_90/tf.math.add_51/Add;model_90/tf.nn.convolution_41/convolution;Const_23:0:0 */;
  %373 = qnn.dequantize(%372, 0.219562f /* span=model_90/tf.math.sigmoid_37/Sigmoid:0:0 */, -32 /* span=model_90/tf.math.sigmoid_37/Sigmoid:0:0 */, out_dtype="float32") /* span=model_90/tf.math.sigmoid_37/Sigmoid:0:0 */;
  %374 = sigmoid(%373) /* span=model_90/tf.math.sigmoid_37/Sigmoid:0:0 */;
  %375 = qnn.quantize(%374, 0.00390625f /* span=model_90/tf.math.sigmoid_37/Sigmoid:0:0 */, -128 /* span=model_90/tf.math.sigmoid_37/Sigmoid:0:0 */, out_dtype="int8") /* span=model_90/tf.math.sigmoid_37/Sigmoid:0:0 */;
  %376 = qnn.mul(%372, %375, 0.219562f /* span=model_90/tf.math.multiply_164/Mul:0:0 */, -32 /* span=model_90/tf.math.multiply_164/Mul:0:0 */, 0.00390625f /* span=model_90/tf.math.multiply_164/Mul:0:0 */, -128 /* span=model_90/tf.math.multiply_164/Mul:0:0 */, 0.138064f /* span=model_90/tf.math.multiply_164/Mul:0:0 */, -126 /* span=model_90/tf.math.multiply_164/Mul:0:0 */) /* span=model_90/tf.math.multiply_164/Mul:0:0 */;
  %377 = qnn.conv2d(%376, %v_param_126, -126 /* span=model_90/tf.math.add_54/Add;model_90/tf.nn.convolution_44/convolution;Const_12:0:0 */, 0 /* span=model_90/tf.math.add_54/Add;model_90/tf.nn.convolution_44/convolution;Const_12:0:0 */, 0.138064f /* span=model_90/tf.math.add_54/Add;model_90/tf.nn.convolution_44/convolution;Const_12:0:0 */, meta[relay.Constant][80] /* span=model_90/tf.math.add_54/Add;model_90/tf.nn.convolution_44/convolution;Const_12:0:0 */, padding=[0, 0, 0, 0], channels=64, kernel_size=[1, 1], data_layout="NHWC", kernel_layout="HWIO", out_dtype="int32") /* span=model_90/tf.math.add_54/Add;model_90/tf.nn.convolution_44/convolution;Const_12:0:0 */;
  %378 = nn.bias_add(%377, %v_param_127, axis=3) /* span=model_90/tf.math.add_54/Add;model_90/tf.nn.convolution_44/convolution;Const_12:0:0 */;
  %379 = qnn.conv2d(%362, %v_param_128, -111 /* span=model_90/tf.math.add_50/Add;model_90/tf.nn.convolution_40/convolution;Const_36:0:0 */, 0 /* span=model_90/tf.math.add_50/Add;model_90/tf.nn.convolution_40/convolution;Const_36:0:0 */, 0.0167996f /* span=model_90/tf.math.add_50/Add;model_90/tf.nn.convolution_40/convolution;Const_36:0:0 */, meta[relay.Constant][82] /* span=model_90/tf.math.add_50/Add;model_90/tf.nn.convolution_40/convolution;Const_36:0:0 */, padding=[1, 1, 1, 1], channels=64, kernel_size=[3, 3], data_layout="NHWC", kernel_layout="HWIO", out_dtype="int32") /* span=model_90/tf.math.add_50/Add;model_90/tf.nn.convolution_40/convolution;Const_36:0:0 */;
  %380 = nn.bias_add(%379, %v_param_129, axis=3) /* span=model_90/tf.math.add_50/Add;model_90/tf.nn.convolution_40/convolution;Const_36:0:0 */;
  %381 = qnn.requantize(%380, meta[relay.Constant][83] /* span=model_90/tf.math.add_50/Add;model_90/tf.nn.convolution_40/convolution;Const_36:0:0 */, 0 /* span=model_90/tf.math.add_50/Add;model_90/tf.nn.convolution_40/convolution;Const_36:0:0 */, 0.0496394f /* span=model_90/tf.math.add_50/Add;model_90/tf.nn.convolution_40/convolution;Const_36:0:0 */, -20 /* span=model_90/tf.math.add_50/Add;model_90/tf.nn.convolution_40/convolution;Const_36:0:0 */, axis=3, out_dtype="int8") /* span=model_90/tf.math.add_50/Add;model_90/tf.nn.convolution_40/convolution;Const_36:0:0 */;
  %382 = qnn.dequantize(%381, 0.0496394f /* span=model_90/tf.math.sigmoid_36/Sigmoid:0:0 */, -20 /* span=model_90/tf.math.sigmoid_36/Sigmoid:0:0 */, out_dtype="float32") /* span=model_90/tf.math.sigmoid_36/Sigmoid:0:0 */;
  %383 = sigmoid(%382) /* span=model_90/tf.math.sigmoid_36/Sigmoid:0:0 */;
  %384 = qnn.quantize(%383, 0.00390625f /* span=model_90/tf.math.sigmoid_36/Sigmoid:0:0 */, -128 /* span=model_90/tf.math.sigmoid_36/Sigmoid:0:0 */, out_dtype="int8") /* span=model_90/tf.math.sigmoid_36/Sigmoid:0:0 */;
  %385 = qnn.mul(%381, %384, 0.0496394f /* span=model_90/tf.math.multiply_160/Mul:0:0 */, -20 /* span=model_90/tf.math.multiply_160/Mul:0:0 */, 0.00390625f /* span=model_90/tf.math.multiply_160/Mul:0:0 */, -128 /* span=model_90/tf.math.multiply_160/Mul:0:0 */, 0.0296438f /* span=model_90/tf.math.multiply_160/Mul:0:0 */, -119 /* span=model_90/tf.math.multiply_160/Mul:0:0 */) /* span=model_90/tf.math.multiply_160/Mul:0:0 */;
  %386 = qnn.conv2d(%385, %v_param_130, -119 /* span=model_90/tf.math.add_52/Add;model_90/tf.nn.convolution_42/convolution;Const_24:0:0 */, 0 /* span=model_90/tf.math.add_52/Add;model_90/tf.nn.convolution_42/convolution;Const_24:0:0 */, 0.0296438f /* span=model_90/tf.math.add_52/Add;model_90/tf.nn.convolution_42/convolution;Const_24:0:0 */, meta[relay.Constant][84] /* span=model_90/tf.math.add_52/Add;model_90/tf.nn.convolution_42/convolution;Const_24:0:0 */, padding=[1, 1, 1, 1], channels=64, kernel_size=[3, 3], data_layout="NHWC", kernel_layout="HWIO", out_dtype="int32") /* span=model_90/tf.math.add_52/Add;model_90/tf.nn.convolution_42/convolution;Const_24:0:0 */;
  %387 = nn.bias_add(%386, %v_param_131, axis=3) /* span=model_90/tf.math.add_52/Add;model_90/tf.nn.convolution_42/convolution;Const_24:0:0 */;
  %388 = qnn.requantize(%387, meta[relay.Constant][85] /* span=model_90/tf.math.add_52/Add;model_90/tf.nn.convolution_42/convolution;Const_24:0:0 */, 0 /* span=model_90/tf.math.add_52/Add;model_90/tf.nn.convolution_42/convolution;Const_24:0:0 */, 0.0781628f /* span=model_90/tf.math.add_52/Add;model_90/tf.nn.convolution_42/convolution;Const_24:0:0 */, -23 /* span=model_90/tf.math.add_52/Add;model_90/tf.nn.convolution_42/convolution;Const_24:0:0 */, axis=3, out_dtype="int8") /* span=model_90/tf.math.add_52/Add;model_90/tf.nn.convolution_42/convolution;Const_24:0:0 */;
  %389 = qnn.dequantize(%388, 0.0781628f /* span=model_90/tf.math.sigmoid_38/Sigmoid:0:0 */, -23 /* span=model_90/tf.math.sigmoid_38/Sigmoid:0:0 */, out_dtype="float32") /* span=model_90/tf.math.sigmoid_38/Sigmoid:0:0 */;
  %390 = sigmoid(%389) /* span=model_90/tf.math.sigmoid_38/Sigmoid:0:0 */;
  %391 = qnn.quantize(%390, 0.00390625f /* span=model_90/tf.math.sigmoid_38/Sigmoid:0:0 */, -128 /* span=model_90/tf.math.sigmoid_38/Sigmoid:0:0 */, out_dtype="int8") /* span=model_90/tf.math.sigmoid_38/Sigmoid:0:0 */;
  %392 = qnn.mul(%388, %391, 0.0781628f /* span=model_90/tf.math.multiply_168/Mul:0:0 */, -23 /* span=model_90/tf.math.multiply_168/Mul:0:0 */, 0.00390625f /* span=model_90/tf.math.multiply_168/Mul:0:0 */, -128 /* span=model_90/tf.math.multiply_168/Mul:0:0 */, 0.0472009f /* span=model_90/tf.math.multiply_168/Mul:0:0 */, -122 /* span=model_90/tf.math.multiply_168/Mul:0:0 */) /* span=model_90/tf.math.multiply_168/Mul:0:0 */;
  %393 = qnn.conv2d(%392, %v_param_132, -122 /* span=model_90/tf.math.add_55/Add;model_90/tf.nn.convolution_45/convolution;Const_11:0:0 */, 0 /* span=model_90/tf.math.add_55/Add;model_90/tf.nn.convolution_45/convolution;Const_11:0:0 */, 0.0472009f /* span=model_90/tf.math.add_55/Add;model_90/tf.nn.convolution_45/convolution;Const_11:0:0 */, meta[relay.Constant][86] /* span=model_90/tf.math.add_55/Add;model_90/tf.nn.convolution_45/convolution;Const_11:0:0 */, padding=[0, 0, 0, 0], channels=15, kernel_size=[1, 1], data_layout="NHWC", kernel_layout="HWIO", out_dtype="int32") /* span=model_90/tf.math.add_55/Add;model_90/tf.nn.convolution_45/convolution;Const_11:0:0 */;
  %394 = nn.bias_add(%393, %v_param_133, axis=3) /* span=model_90/tf.math.add_55/Add;model_90/tf.nn.convolution_45/convolution;Const_11:0:0 */;
  %395 = qnn.requantize(%378, meta[relay.Constant][81] /* span=model_90/tf.math.add_54/Add;model_90/tf.nn.convolution_44/convolution;Const_12:0:0 */, 0 /* span=model_90/tf.math.add_54/Add;model_90/tf.nn.convolution_44/convolution;Const_12:0:0 */, 0.124789f /* span=model_90/tf.math.add_54/Add;model_90/tf.nn.convolution_44/convolution;Const_12:0:0 */, 16 /* span=model_90/tf.math.add_54/Add;model_90/tf.nn.convolution_44/convolution;Const_12:0:0 */, axis=3, out_dtype="int8") /* span=model_90/tf.math.add_54/Add;model_90/tf.nn.convolution_44/convolution;Const_12:0:0 */;
  %396 = qnn.requantize(%394, meta[relay.Constant][87] /* span=model_90/tf.math.add_55/Add;model_90/tf.nn.convolution_45/convolution;Const_11:0:0 */, 0 /* span=model_90/tf.math.add_55/Add;model_90/tf.nn.convolution_45/convolution;Const_11:0:0 */, 0.124789f /* span=model_90/tf.math.add_55/Add;model_90/tf.nn.convolution_45/convolution;Const_11:0:0 */, 16 /* span=model_90/tf.math.add_55/Add;model_90/tf.nn.convolution_45/convolution;Const_11:0:0 */, axis=3, out_dtype="int8") /* span=model_90/tf.math.add_55/Add;model_90/tf.nn.convolution_45/convolution;Const_11:0:0 */;
  %397 = (%395, %396) /* span=model_90/tf.concat_11/concat:0:0 */;
  %398 = (0.124789f /* span=model_90/tf.concat_11/concat:0:0 */, 0.124789f /* span=model_90/tf.concat_11/concat:0:0 */) /* span=model_90/tf.concat_11/concat:0:0 */;
  %399 = (16 /* span=model_90/tf.concat_11/concat:0:0 */, 16 /* span=model_90/tf.concat_11/concat:0:0 */) /* span=model_90/tf.concat_11/concat:0:0 */;
  %400 = qnn.concatenate(%397, %398, %399, 0.124789f /* span=model_90/tf.concat_11/concat:0:0 */, 16 /* span=model_90/tf.concat_11/concat:0:0 */, axis=3) /* span=model_90/tf.concat_11/concat:0:0 */;
  %401 = transpose(%400, axes=[0, 3, 1, 2]) /* span=model_90/tf.compat.v1.transpose_114/transpose:0:0 */;
  %402 = nn.pad(%362, -111f /* span=model_90/tf.compat.v1.pad_5/Pad:0:0 */, pad_width=[[0, 0], [1, 1], [1, 1], [0, 0]]) /* span=model_90/tf.compat.v1.pad_5/Pad:0:0 */;
  %403 = qnn.conv2d(%402, %v_param_78, -111 /* span=model_90/tf.math.add_48/Add;model_90/tf.nn.convolution_38/convolution;Const_74:0:0 */, 0 /* span=model_90/tf.math.add_48/Add;model_90/tf.nn.convolution_38/convolution;Const_74:0:0 */, 0.0167996f /* span=model_90/tf.math.add_48/Add;model_90/tf.nn.convolution_38/convolution;Const_74:0:0 */, meta[relay.Constant][88] /* span=model_90/tf.math.add_48/Add;model_90/tf.nn.convolution_38/convolution;Const_74:0:0 */, strides=[2, 2], padding=[0, 0, 0, 0], channels=64, kernel_size=[3, 3], data_layout="NHWC", kernel_layout="HWIO", out_dtype="int32") /* span=model_90/tf.math.add_48/Add;model_90/tf.nn.convolution_38/convolution;Const_74:0:0 */;
  %404 = nn.bias_add(%403, %v_param_79, axis=3) /* span=model_90/tf.math.add_48/Add;model_90/tf.nn.convolution_38/convolution;Const_74:0:0 */;
  %405 = qnn.requantize(%404, meta[relay.Constant][89] /* span=model_90/tf.math.add_48/Add;model_90/tf.nn.convolution_38/convolution;Const_74:0:0 */, 0 /* span=model_90/tf.math.add_48/Add;model_90/tf.nn.convolution_38/convolution;Const_74:0:0 */, 0.0488f /* span=model_90/tf.math.add_48/Add;model_90/tf.nn.convolution_38/convolution;Const_74:0:0 */, 27 /* span=model_90/tf.math.add_48/Add;model_90/tf.nn.convolution_38/convolution;Const_74:0:0 */, axis=3, out_dtype="int8") /* span=model_90/tf.math.add_48/Add;model_90/tf.nn.convolution_38/convolution;Const_74:0:0 */;
  %406 = qnn.dequantize(%405, 0.0488f /* span=model_90/tf.math.sigmoid_34/Sigmoid:0:0 */, 27 /* span=model_90/tf.math.sigmoid_34/Sigmoid:0:0 */, out_dtype="float32") /* span=model_90/tf.math.sigmoid_34/Sigmoid:0:0 */;
  %407 = sigmoid(%406) /* span=model_90/tf.math.sigmoid_34/Sigmoid:0:0 */;
  %408 = qnn.quantize(%407, 0.00390625f /* span=model_90/tf.math.sigmoid_34/Sigmoid:0:0 */, -128 /* span=model_90/tf.math.sigmoid_34/Sigmoid:0:0 */, out_dtype="int8") /* span=model_90/tf.math.sigmoid_34/Sigmoid:0:0 */;
  %409 = qnn.mul(%405, %408, 0.0488f /* span=model_90/tf.math.multiply_152/Mul:0:0 */, 27 /* span=model_90/tf.math.multiply_152/Mul:0:0 */, 0.00390625f /* span=model_90/tf.math.multiply_152/Mul:0:0 */, -128 /* span=model_90/tf.math.multiply_152/Mul:0:0 */, 0.0200745f /* span=model_90/tf.math.multiply_152/Mul:0:0 */, -114 /* span=model_90/tf.math.multiply_152/Mul:0:0 */) /* span=model_90/tf.math.multiply_152/Mul:0:0 */;
  %410 = (%409, %320) /* span=model_90/tf.concat_10/concat:0:0 */;
  %411 = (0.0200745f /* span=model_90/tf.concat_10/concat:0:0 */, 0.0200745f /* span=model_90/tf.concat_10/concat:0:0 */) /* span=model_90/tf.concat_10/concat:0:0 */;
  %412 = (-114 /* span=model_90/tf.concat_10/concat:0:0 */, -114 /* span=model_90/tf.concat_10/concat:0:0 */) /* span=model_90/tf.concat_10/concat:0:0 */;
  %413 = qnn.concatenate(%410, %411, %412, 0.0200745f /* span=model_90/tf.concat_10/concat:0:0 */, -114 /* span=model_90/tf.concat_10/concat:0:0 */, axis=3) /* span=model_90/tf.concat_10/concat:0:0 */;
  %414 = qnn.conv2d(%413, %v_param_80, -114 /* span=model_90/tf.math.add_53/Add;model_90/tf.nn.convolution_43/convolution;Const_72:0:0 */, 0 /* span=model_90/tf.math.add_53/Add;model_90/tf.nn.convolution_43/convolution;Const_72:0:0 */, 0.0200745f /* span=model_90/tf.math.add_53/Add;model_90/tf.nn.convolution_43/convolution;Const_72:0:0 */, meta[relay.Constant][90] /* span=model_90/tf.math.add_53/Add;model_90/tf.nn.convolution_43/convolution;Const_72:0:0 */, padding=[0, 0, 0, 0], channels=128, kernel_size=[1, 1], data_layout="NHWC", kernel_layout="HWIO", out_dtype="int32") /* span=model_90/tf.math.add_53/Add;model_90/tf.nn.convolution_43/convolution;Const_72:0:0 */;
  %415 = nn.bias_add(%414, %v_param_81, axis=3) /* span=model_90/tf.math.add_53/Add;model_90/tf.nn.convolution_43/convolution;Const_72:0:0 */;
  %416 = qnn.requantize(%415, meta[relay.Constant][91] /* span=model_90/tf.math.add_53/Add;model_90/tf.nn.convolution_43/convolution;Const_72:0:0 */, 0 /* span=model_90/tf.math.add_53/Add;model_90/tf.nn.convolution_43/convolution;Const_72:0:0 */, 0.0514981f /* span=model_90/tf.math.add_53/Add;model_90/tf.nn.convolution_43/convolution;Const_72:0:0 */, 18 /* span=model_90/tf.math.add_53/Add;model_90/tf.nn.convolution_43/convolution;Const_72:0:0 */, axis=3, out_dtype="int8") /* span=model_90/tf.math.add_53/Add;model_90/tf.nn.convolution_43/convolution;Const_72:0:0 */;
  %417 = qnn.dequantize(%416, 0.0514981f /* span=model_90/tf.math.sigmoid_39/Sigmoid:0:0 */, 18 /* span=model_90/tf.math.sigmoid_39/Sigmoid:0:0 */, out_dtype="float32") /* span=model_90/tf.math.sigmoid_39/Sigmoid:0:0 */;
  %418 = sigmoid(%417) /* span=model_90/tf.math.sigmoid_39/Sigmoid:0:0 */;
  %419 = qnn.quantize(%418, 0.00390625f /* span=model_90/tf.math.sigmoid_39/Sigmoid:0:0 */, -128 /* span=model_90/tf.math.sigmoid_39/Sigmoid:0:0 */, out_dtype="int8") /* span=model_90/tf.math.sigmoid_39/Sigmoid:0:0 */;
  %420 = qnn.mul(%416, %419, 0.0514981f /* span=model_90/tf.math.multiply_172/Mul:0:0 */, 18 /* span=model_90/tf.math.multiply_172/Mul:0:0 */, 0.00390625f /* span=model_90/tf.math.multiply_172/Mul:0:0 */, -128 /* span=model_90/tf.math.multiply_172/Mul:0:0 */, 0.0398441f /* span=model_90/tf.math.multiply_172/Mul:0:0 */, -121 /* span=model_90/tf.math.multiply_172/Mul:0:0 */) /* span=model_90/tf.math.multiply_172/Mul:0:0 */;
  %421 = strided_slice(%420, begin=[0, 0, 0, 0], end=[1, 40, 40, 64], strides=[1, 1, 1, 1], axes=None) /* span=model_90/tf.strided_slice_17/StridedSlice:0:0 */;
  %422 = strided_slice(%420, begin=[0, 0, 0, 64], end=[1, 40, 40, 128], strides=[1, 1, 1, 1], axes=None) /* span=model_90/tf.strided_slice_18/StridedSlice:0:0 */;
  %423 = reshape(%422, newshape=[1, 40, 40, 64]) /* span=model_90/tf.strided_slice_18/StridedSlice:0:0 */;
  %424 = qnn.conv2d(%423, %v_param_82, -121 /* span=model_90/tf.math.add_56/Add;model_90/tf.nn.convolution_46/convolution;Const_68:0:0 */, 0 /* span=model_90/tf.math.add_56/Add;model_90/tf.nn.convolution_46/convolution;Const_68:0:0 */, 0.0398441f /* span=model_90/tf.math.add_56/Add;model_90/tf.nn.convolution_46/convolution;Const_68:0:0 */, meta[relay.Constant][92] /* span=model_90/tf.math.add_56/Add;model_90/tf.nn.convolution_46/convolution;Const_68:0:0 */, padding=[1, 1, 1, 1], channels=64, kernel_size=[3, 3], data_layout="NHWC", kernel_layout="HWIO", out_dtype="int32") /* span=model_90/tf.math.add_56/Add;model_90/tf.nn.convolution_46/convolution;Const_68:0:0 */;
  %425 = nn.bias_add(%424, %v_param_83, axis=3) /* span=model_90/tf.math.add_56/Add;model_90/tf.nn.convolution_46/convolution;Const_68:0:0 */;
  %426 = qnn.requantize(%425, meta[relay.Constant][93] /* span=model_90/tf.math.add_56/Add;model_90/tf.nn.convolution_46/convolution;Const_68:0:0 */, 0 /* span=model_90/tf.math.add_56/Add;model_90/tf.nn.convolution_46/convolution;Const_68:0:0 */, 0.0466153f /* span=model_90/tf.math.add_56/Add;model_90/tf.nn.convolution_46/convolution;Const_68:0:0 */, -26 /* span=model_90/tf.math.add_56/Add;model_90/tf.nn.convolution_46/convolution;Const_68:0:0 */, axis=3, out_dtype="int8") /* span=model_90/tf.math.add_56/Add;model_90/tf.nn.convolution_46/convolution;Const_68:0:0 */;
  %427 = qnn.dequantize(%426, 0.0466153f /* span=model_90/tf.math.sigmoid_40/Sigmoid:0:0 */, -26 /* span=model_90/tf.math.sigmoid_40/Sigmoid:0:0 */, out_dtype="float32") /* span=model_90/tf.math.sigmoid_40/Sigmoid:0:0 */;
  %428 = sigmoid(%427) /* span=model_90/tf.math.sigmoid_40/Sigmoid:0:0 */;
  %429 = qnn.quantize(%428, 0.00390625f /* span=model_90/tf.math.sigmoid_40/Sigmoid:0:0 */, -128 /* span=model_90/tf.math.sigmoid_40/Sigmoid:0:0 */, out_dtype="int8") /* span=model_90/tf.math.sigmoid_40/Sigmoid:0:0 */;
  %430 = qnn.mul(%426, %429, 0.0466153f /* span=model_90/tf.math.multiply_176/Mul:0:0 */, -26 /* span=model_90/tf.math.multiply_176/Mul:0:0 */, 0.00390625f /* span=model_90/tf.math.multiply_176/Mul:0:0 */, -128 /* span=model_90/tf.math.multiply_176/Mul:0:0 */, 0.0290745f /* span=model_90/tf.math.multiply_176/Mul:0:0 */, -118 /* span=model_90/tf.math.multiply_176/Mul:0:0 */) /* span=model_90/tf.math.multiply_176/Mul:0:0 */;
  %431 = qnn.conv2d(%430, %v_param_84, -118 /* span=model_90/tf.math.add_57/Add;model_90/tf.nn.convolution_47/convolution;Const_66:0:0 */, 0 /* span=model_90/tf.math.add_57/Add;model_90/tf.nn.convolution_47/convolution;Const_66:0:0 */, 0.0290745f /* span=model_90/tf.math.add_57/Add;model_90/tf.nn.convolution_47/convolution;Const_66:0:0 */, meta[relay.Constant][94] /* span=model_90/tf.math.add_57/Add;model_90/tf.nn.convolution_47/convolution;Const_66:0:0 */, padding=[1, 1, 1, 1], channels=64, kernel_size=[3, 3], data_layout="NHWC", kernel_layout="HWIO", out_dtype="int32") /* span=model_90/tf.math.add_57/Add;model_90/tf.nn.convolution_47/convolution;Const_66:0:0 */;
  %432 = nn.bias_add(%431, %v_param_85, axis=3) /* span=model_90/tf.math.add_57/Add;model_90/tf.nn.convolution_47/convolution;Const_66:0:0 */;
  %433 = qnn.requantize(%432, meta[relay.Constant][95] /* span=model_90/tf.math.add_57/Add;model_90/tf.nn.convolution_47/convolution;Const_66:0:0 */, 0 /* span=model_90/tf.math.add_57/Add;model_90/tf.nn.convolution_47/convolution;Const_66:0:0 */, 0.0805248f /* span=model_90/tf.math.add_57/Add;model_90/tf.nn.convolution_47/convolution;Const_66:0:0 */, 4 /* span=model_90/tf.math.add_57/Add;model_90/tf.nn.convolution_47/convolution;Const_66:0:0 */, axis=3, out_dtype="int8") /* span=model_90/tf.math.add_57/Add;model_90/tf.nn.convolution_47/convolution;Const_66:0:0 */;
  %434 = qnn.dequantize(%433, 0.0805248f /* span=model_90/tf.math.sigmoid_41/Sigmoid:0:0 */, 4 /* span=model_90/tf.math.sigmoid_41/Sigmoid:0:0 */, out_dtype="float32") /* span=model_90/tf.math.sigmoid_41/Sigmoid:0:0 */;
  %435 = sigmoid(%434) /* span=model_90/tf.math.sigmoid_41/Sigmoid:0:0 */;
  %436 = qnn.quantize(%435, 0.00390625f /* span=model_90/tf.math.sigmoid_41/Sigmoid:0:0 */, -128 /* span=model_90/tf.math.sigmoid_41/Sigmoid:0:0 */, out_dtype="int8") /* span=model_90/tf.math.sigmoid_41/Sigmoid:0:0 */;
  %437 = reshape(%421, newshape=[1, 40, 40, 64]) /* span=model_90/tf.strided_slice_17/StridedSlice:0:0 */;
  %438 = qnn.mul(%433, %436, 0.0805248f /* span=model_90/tf.math.multiply_180/Mul:0:0 */, 4 /* span=model_90/tf.math.multiply_180/Mul:0:0 */, 0.00390625f /* span=model_90/tf.math.multiply_180/Mul:0:0 */, -128 /* span=model_90/tf.math.multiply_180/Mul:0:0 */, 0.0398441f /* span=model_90/tf.math.multiply_180/Mul:0:0 */, -121 /* span=model_90/tf.math.multiply_180/Mul:0:0 */) /* span=model_90/tf.math.multiply_180/Mul:0:0 */;
  %439 = (%437, %423, %438) /* span=model_90/tf.concat_12/concat:0:0 */;
  %440 = (0.0398441f /* span=model_90/tf.concat_12/concat:0:0 */, 0.0398441f /* span=model_90/tf.concat_12/concat:0:0 */, 0.0398441f /* span=model_90/tf.concat_12/concat:0:0 */) /* span=model_90/tf.concat_12/concat:0:0 */;
  %441 = (-121 /* span=model_90/tf.concat_12/concat:0:0 */, -121 /* span=model_90/tf.concat_12/concat:0:0 */, -121 /* span=model_90/tf.concat_12/concat:0:0 */) /* span=model_90/tf.concat_12/concat:0:0 */;
  %442 = qnn.concatenate(%439, %440, %441, 0.0398441f /* span=model_90/tf.concat_12/concat:0:0 */, -121 /* span=model_90/tf.concat_12/concat:0:0 */, axis=3) /* span=model_90/tf.concat_12/concat:0:0 */;
  %443 = qnn.conv2d(%442, %v_param_86, -121 /* span=model_90/tf.math.add_58/Add;model_90/tf.nn.convolution_48/convolution;Const_62:0:0 */, 0 /* span=model_90/tf.math.add_58/Add;model_90/tf.nn.convolution_48/convolution;Const_62:0:0 */, 0.0398441f /* span=model_90/tf.math.add_58/Add;model_90/tf.nn.convolution_48/convolution;Const_62:0:0 */, meta[relay.Constant][96] /* span=model_90/tf.math.add_58/Add;model_90/tf.nn.convolution_48/convolution;Const_62:0:0 */, padding=[0, 0, 0, 0], channels=128, kernel_size=[1, 1], data_layout="NHWC", kernel_layout="HWIO", out_dtype="int32") /* span=model_90/tf.math.add_58/Add;model_90/tf.nn.convolution_48/convolution;Const_62:0:0 */;
  %444 = nn.bias_add(%443, %v_param_87, axis=3) /* span=model_90/tf.math.add_58/Add;model_90/tf.nn.convolution_48/convolution;Const_62:0:0 */;
  %445 = qnn.requantize(%444, meta[relay.Constant][97] /* span=model_90/tf.math.add_58/Add;model_90/tf.nn.convolution_48/convolution;Const_62:0:0 */, 0 /* span=model_90/tf.math.add_58/Add;model_90/tf.nn.convolution_48/convolution;Const_62:0:0 */, 0.0517764f /* span=model_90/tf.math.add_58/Add;model_90/tf.nn.convolution_48/convolution;Const_62:0:0 */, 35 /* span=model_90/tf.math.add_58/Add;model_90/tf.nn.convolution_48/convolution;Const_62:0:0 */, axis=3, out_dtype="int8") /* span=model_90/tf.math.add_58/Add;model_90/tf.nn.convolution_48/convolution;Const_62:0:0 */;
  %446 = qnn.dequantize(%445, 0.0517764f /* span=model_90/tf.math.sigmoid_42/Sigmoid:0:0 */, 35 /* span=model_90/tf.math.sigmoid_42/Sigmoid:0:0 */, out_dtype="float32") /* span=model_90/tf.math.sigmoid_42/Sigmoid:0:0 */;
  %447 = sigmoid(%446) /* span=model_90/tf.math.sigmoid_42/Sigmoid:0:0 */;
  %448 = qnn.quantize(%447, 0.00390625f /* span=model_90/tf.math.sigmoid_42/Sigmoid:0:0 */, -128 /* span=model_90/tf.math.sigmoid_42/Sigmoid:0:0 */, out_dtype="int8") /* span=model_90/tf.math.sigmoid_42/Sigmoid:0:0 */;
  %449 = qnn.mul(%445, %448, 0.0517764f /* span=model_90/tf.math.multiply_184/Mul:0:0 */, 35 /* span=model_90/tf.math.multiply_184/Mul:0:0 */, 0.00390625f /* span=model_90/tf.math.multiply_184/Mul:0:0 */, -128 /* span=model_90/tf.math.multiply_184/Mul:0:0 */, 0.019545f /* span=model_90/tf.math.multiply_184/Mul:0:0 */, -114 /* span=model_90/tf.math.multiply_184/Mul:0:0 */) /* span=model_90/tf.math.multiply_184/Mul:0:0 */;
  %450 = qnn.conv2d(%449, %v_param_110, -114 /* span=model_90/tf.math.add_60/Add;model_90/tf.nn.convolution_50/convolution;Const_37:0:0 */, 0 /* span=model_90/tf.math.add_60/Add;model_90/tf.nn.convolution_50/convolution;Const_37:0:0 */, 0.019545f /* span=model_90/tf.math.add_60/Add;model_90/tf.nn.convolution_50/convolution;Const_37:0:0 */, meta[relay.Constant][98] /* span=model_90/tf.math.add_60/Add;model_90/tf.nn.convolution_50/convolution;Const_37:0:0 */, padding=[1, 1, 1, 1], channels=64, kernel_size=[3, 3], data_layout="NHWC", kernel_layout="HWIO", out_dtype="int32") /* span=model_90/tf.math.add_60/Add;model_90/tf.nn.convolution_50/convolution;Const_37:0:0 */;
  %451 = nn.bias_add(%450, %v_param_111, axis=3) /* span=model_90/tf.math.add_60/Add;model_90/tf.nn.convolution_50/convolution;Const_37:0:0 */;
  %452 = qnn.requantize(%451, meta[relay.Constant][99] /* span=model_90/tf.math.add_60/Add;model_90/tf.nn.convolution_50/convolution;Const_37:0:0 */, 0 /* span=model_90/tf.math.add_60/Add;model_90/tf.nn.convolution_50/convolution;Const_37:0:0 */, 0.0871864f /* span=model_90/tf.math.add_60/Add;model_90/tf.nn.convolution_50/convolution;Const_37:0:0 */, 45 /* span=model_90/tf.math.add_60/Add;model_90/tf.nn.convolution_50/convolution;Const_37:0:0 */, axis=3, out_dtype="int8") /* span=model_90/tf.math.add_60/Add;model_90/tf.nn.convolution_50/convolution;Const_37:0:0 */;
  %453 = qnn.dequantize(%452, 0.0871864f /* span=model_90/tf.math.sigmoid_44/Sigmoid:0:0 */, 45 /* span=model_90/tf.math.sigmoid_44/Sigmoid:0:0 */, out_dtype="float32") /* span=model_90/tf.math.sigmoid_44/Sigmoid:0:0 */;
  %454 = sigmoid(%453) /* span=model_90/tf.math.sigmoid_44/Sigmoid:0:0 */;
  %455 = qnn.quantize(%454, 0.00390625f /* span=model_90/tf.math.sigmoid_44/Sigmoid:0:0 */, -128 /* span=model_90/tf.math.sigmoid_44/Sigmoid:0:0 */, out_dtype="int8") /* span=model_90/tf.math.sigmoid_44/Sigmoid:0:0 */;
  %456 = qnn.mul(%452, %455, 0.0871864f /* span=model_90/tf.math.multiply_192/Mul:0:0 */, 45 /* span=model_90/tf.math.multiply_192/Mul:0:0 */, 0.00390625f /* span=model_90/tf.math.multiply_192/Mul:0:0 */, -128 /* span=model_90/tf.math.multiply_192/Mul:0:0 */, 0.0290358f /* span=model_90/tf.math.multiply_192/Mul:0:0 */, -118 /* span=model_90/tf.math.multiply_192/Mul:0:0 */) /* span=model_90/tf.math.multiply_192/Mul:0:0 */;
  %457 = qnn.conv2d(%456, %v_param_112, -118 /* span=model_90/tf.math.add_62/Add;model_90/tf.nn.convolution_52/convolution;Const_25:0:0 */, 0 /* span=model_90/tf.math.add_62/Add;model_90/tf.nn.convolution_52/convolution;Const_25:0:0 */, 0.0290358f /* span=model_90/tf.math.add_62/Add;model_90/tf.nn.convolution_52/convolution;Const_25:0:0 */, meta[relay.Constant][100] /* span=model_90/tf.math.add_62/Add;model_90/tf.nn.convolution_52/convolution;Const_25:0:0 */, padding=[1, 1, 1, 1], channels=64, kernel_size=[3, 3], data_layout="NHWC", kernel_layout="HWIO", out_dtype="int32") /* span=model_90/tf.math.add_62/Add;model_90/tf.nn.convolution_52/convolution;Const_25:0:0 */;
  %458 = nn.bias_add(%457, %v_param_113, axis=3) /* span=model_90/tf.math.add_62/Add;model_90/tf.nn.convolution_52/convolution;Const_25:0:0 */;
  %459 = qnn.requantize(%458, meta[relay.Constant][101] /* span=model_90/tf.math.add_62/Add;model_90/tf.nn.convolution_52/convolution;Const_25:0:0 */, 0 /* span=model_90/tf.math.add_62/Add;model_90/tf.nn.convolution_52/convolution;Const_25:0:0 */, 0.192037f /* span=model_90/tf.math.add_62/Add;model_90/tf.nn.convolution_52/convolution;Const_25:0:0 */, -20 /* span=model_90/tf.math.add_62/Add;model_90/tf.nn.convolution_52/convolution;Const_25:0:0 */, axis=3, out_dtype="int8") /* span=model_90/tf.math.add_62/Add;model_90/tf.nn.convolution_52/convolution;Const_25:0:0 */;
  %460 = qnn.dequantize(%459, 0.192037f /* span=model_90/tf.math.sigmoid_46/Sigmoid:0:0 */, -20 /* span=model_90/tf.math.sigmoid_46/Sigmoid:0:0 */, out_dtype="float32") /* span=model_90/tf.math.sigmoid_46/Sigmoid:0:0 */;
  %461 = sigmoid(%460) /* span=model_90/tf.math.sigmoid_46/Sigmoid:0:0 */;
  %462 = qnn.quantize(%461, 0.00390625f /* span=model_90/tf.math.sigmoid_46/Sigmoid:0:0 */, -128 /* span=model_90/tf.math.sigmoid_46/Sigmoid:0:0 */, out_dtype="int8") /* span=model_90/tf.math.sigmoid_46/Sigmoid:0:0 */;
  %463 = qnn.mul(%459, %462, 0.192037f /* span=model_90/tf.math.multiply_200/Mul:0:0 */, -20 /* span=model_90/tf.math.multiply_200/Mul:0:0 */, 0.00390625f /* span=model_90/tf.math.multiply_200/Mul:0:0 */, -128 /* span=model_90/tf.math.multiply_200/Mul:0:0 */, 0.111582f /* span=model_90/tf.math.multiply_200/Mul:0:0 */, -126 /* span=model_90/tf.math.multiply_200/Mul:0:0 */) /* span=model_90/tf.math.multiply_200/Mul:0:0 */;
  %464 = qnn.conv2d(%463, %v_param_114, -126 /* span=model_90/tf.math.add_65/Add;model_90/tf.nn.convolution_55/convolution;Const_14:0:0 */, 0 /* span=model_90/tf.math.add_65/Add;model_90/tf.nn.convolution_55/convolution;Const_14:0:0 */, 0.111582f /* span=model_90/tf.math.add_65/Add;model_90/tf.nn.convolution_55/convolution;Const_14:0:0 */, meta[relay.Constant][102] /* span=model_90/tf.math.add_65/Add;model_90/tf.nn.convolution_55/convolution;Const_14:0:0 */, padding=[0, 0, 0, 0], channels=64, kernel_size=[1, 1], data_layout="NHWC", kernel_layout="HWIO", out_dtype="int32") /* span=model_90/tf.math.add_65/Add;model_90/tf.nn.convolution_55/convolution;Const_14:0:0 */;
  %465 = nn.bias_add(%464, %v_param_115, axis=3) /* span=model_90/tf.math.add_65/Add;model_90/tf.nn.convolution_55/convolution;Const_14:0:0 */;
  %466 = qnn.conv2d(%449, %v_param_116, -114 /* span=model_90/tf.math.add_61/Add;model_90/tf.nn.convolution_51/convolution;Const_38:0:0 */, 0 /* span=model_90/tf.math.add_61/Add;model_90/tf.nn.convolution_51/convolution;Const_38:0:0 */, 0.019545f /* span=model_90/tf.math.add_61/Add;model_90/tf.nn.convolution_51/convolution;Const_38:0:0 */, meta[relay.Constant][104] /* span=model_90/tf.math.add_61/Add;model_90/tf.nn.convolution_51/convolution;Const_38:0:0 */, padding=[1, 1, 1, 1], channels=64, kernel_size=[3, 3], data_layout="NHWC", kernel_layout="HWIO", out_dtype="int32") /* span=model_90/tf.math.add_61/Add;model_90/tf.nn.convolution_51/convolution;Const_38:0:0 */;
  %467 = nn.bias_add(%466, %v_param_117, axis=3) /* span=model_90/tf.math.add_61/Add;model_90/tf.nn.convolution_51/convolution;Const_38:0:0 */;
  %468 = qnn.requantize(%467, meta[relay.Constant][105] /* span=model_90/tf.math.add_61/Add;model_90/tf.nn.convolution_51/convolution;Const_38:0:0 */, 0 /* span=model_90/tf.math.add_61/Add;model_90/tf.nn.convolution_51/convolution;Const_38:0:0 */, 0.038406f /* span=model_90/tf.math.add_61/Add;model_90/tf.nn.convolution_51/convolution;Const_38:0:0 */, 16 /* span=model_90/tf.math.add_61/Add;model_90/tf.nn.convolution_51/convolution;Const_38:0:0 */, axis=3, out_dtype="int8") /* span=model_90/tf.math.add_61/Add;model_90/tf.nn.convolution_51/convolution;Const_38:0:0 */;
  %469 = qnn.dequantize(%468, 0.038406f /* span=model_90/tf.math.sigmoid_45/Sigmoid:0:0 */, 16 /* span=model_90/tf.math.sigmoid_45/Sigmoid:0:0 */, out_dtype="float32") /* span=model_90/tf.math.sigmoid_45/Sigmoid:0:0 */;
  %470 = sigmoid(%469) /* span=model_90/tf.math.sigmoid_45/Sigmoid:0:0 */;
  %471 = qnn.quantize(%470, 0.00390625f /* span=model_90/tf.math.sigmoid_45/Sigmoid:0:0 */, -128 /* span=model_90/tf.math.sigmoid_45/Sigmoid:0:0 */, out_dtype="int8") /* span=model_90/tf.math.sigmoid_45/Sigmoid:0:0 */;
…
sor[(64), float32] span=model_90/tf.math.add_75/Add;model_90/tf.nn.convolution_63/convolution;Const_28:0:0 */, padding=[1, 1, 1, 1], channels=64, kernel_size=[3, 3], data_layout="NHWC", kernel_layout="HWIO", out_dtype="int32") /* ty=Tensor[(1, 20, 20, 64), int32] span=model_90/tf.math.add_75/Add;model_90/tf.nn.convolution_63/convolution;Const_28:0:0 */;
  %532 = nn.bias_add(%531, %v_param_107, axis=3) /* ty=Tensor[(1, 20, 20, 64), int32] span=model_90/tf.math.add_75/Add;model_90/tf.nn.convolution_63/convolution;Const_28:0:0 */;
  %533 = qnn.requantize(%532, meta[relay.Constant][129] /* ty=Tensor[(64), float32] span=model_90/tf.math.add_75/Add;model_90/tf.nn.convolution_63/convolution;Const_28:0:0 */, 0 /* ty=int32 span=model_90/tf.math.add_75/Add;model_90/tf.nn.convolution_63/convolution;Const_28:0:0 */, 0.029939f /* ty=float32 span=model_90/tf.math.add_75/Add;model_90/tf.nn.convolution_63/convolution;Const_28:0:0 */, -1 /* ty=int32 span=model_90/tf.math.add_75/Add;model_90/tf.nn.convolution_63/convolution;Const_28:0:0 */, axis=3, out_dtype="int8") /* ty=Tensor[(1, 20, 20, 64), int8] span=model_90/tf.math.add_75/Add;model_90/tf.nn.convolution_63/convolution;Const_28:0:0 */;
  %534 = qnn.dequantize(%533, 0.029939f /* ty=float32 span=model_90/tf.math.sigmoid_55/Sigmoid:0:0 */, -1 /* ty=int32 span=model_90/tf.math.sigmoid_55/Sigmoid:0:0 */, out_dtype="float32") /* ty=Tensor[(1, 20, 20, 64), float32] span=model_90/tf.math.sigmoid_55/Sigmoid:0:0 */;
  %535 = sigmoid(%534) /* ty=Tensor[(1, 20, 20, 64), float32] span=model_90/tf.math.sigmoid_55/Sigmoid:0:0 */;
  %536 = qnn.quantize(%535, 0.00390625f /* ty=float32 span=model_90/tf.math.sigmoid_55/Sigmoid:0:0 */, -128 /* ty=int32 span=model_90/tf.math.sigmoid_55/Sigmoid:0:0 */, out_dtype="int8") /* ty=Tensor[(1, 20, 20, 64), int8] span=model_90/tf.math.sigmoid_55/Sigmoid:0:0 */;
  %537 = qnn.mul(%533, %536, 0.029939f /* ty=float32 span=model_90/tf.math.multiply_238/Mul:0:0 */, -1 /* ty=int32 span=model_90/tf.math.multiply_238/Mul:0:0 */, 0.00390625f /* ty=float32 span=model_90/tf.math.multiply_238/Mul:0:0 */, -128 /* ty=int32 span=model_90/tf.math.multiply_238/Mul:0:0 */, 0.0158277f /* ty=float32 span=model_90/tf.math.multiply_238/Mul:0:0 */, -110 /* ty=int32 span=model_90/tf.math.multiply_238/Mul:0:0 */) /* ty=Tensor[(1, 20, 20, 64), int8] span=model_90/tf.math.multiply_238/Mul:0:0 */;
  %538 = qnn.conv2d(%537, %v_param_108, -110 /* ty=int32 span=model_90/tf.math.add_77/Add;model_90/tf.nn.convolution_65/convolution;Const_15:0:0 */, 0 /* ty=int32 span=model_90/tf.math.add_77/Add;model_90/tf.nn.convolution_65/convolution;Const_15:0:0 */, 0.0158277f /* ty=float32 span=model_90/tf.math.add_77/Add;model_90/tf.nn.convolution_65/convolution;Const_15:0:0 */, meta[relay.Constant][130] /* ty=Tensor[(15), float32] span=model_90/tf.math.add_77/Add;model_90/tf.nn.convolution_65/convolution;Const_15:0:0 */, padding=[0, 0, 0, 0], channels=15, kernel_size=[1, 1], data_layout="NHWC", kernel_layout="HWIO", out_dtype="int32") /* ty=Tensor[(1, 20, 20, 15), int32] span=model_90/tf.math.add_77/Add;model_90/tf.nn.convolution_65/convolution;Const_15:0:0 */;
  %539 = nn.bias_add(%538, %v_param_109, axis=3) /* ty=Tensor[(1, 20, 20, 15), int32] span=model_90/tf.math.add_77/Add;model_90/tf.nn.convolution_65/convolution;Const_15:0:0 */;
  %540 = qnn.requantize(%523, meta[relay.Constant][125] /* ty=Tensor[(64), float32] span=model_90/tf.math.add_76/Add;model_90/tf.nn.convolution_64/convolution;Const_16:0:0 */, 0 /* ty=int32 span=model_90/tf.math.add_76/Add;model_90/tf.nn.convolution_64/convolution;Const_16:0:0 */, 0.124789f /* ty=float32 span=model_90/tf.math.add_76/Add;model_90/tf.nn.convolution_64/convolution;Const_16:0:0 */, 16 /* ty=int32 span=model_90/tf.math.add_76/Add;model_90/tf.nn.convolution_64/convolution;Const_16:0:0 */, axis=3, out_dtype="int8") /* ty=Tensor[(1, 20, 20, 64), int8] span=model_90/tf.math.add_76/Add;model_90/tf.nn.convolution_64/convolution;Const_16:0:0 */;
  %541 = qnn.requantize(%539, meta[relay.Constant][131] /* ty=Tensor[(15), float32] span=model_90/tf.math.add_77/Add;model_90/tf.nn.convolution_65/convolution;Const_15:0:0 */, 0 /* ty=int32 span=model_90/tf.math.add_77/Add;model_90/tf.nn.convolution_65/convolution;Const_15:0:0 */, 0.124789f /* ty=float32 span=model_90/tf.math.add_77/Add;model_90/tf.nn.convolution_65/convolution;Const_15:0:0 */, 16 /* ty=int32 span=model_90/tf.math.add_77/Add;model_90/tf.nn.convolution_65/convolution;Const_15:0:0 */, axis=3, out_dtype="int8") /* ty=Tensor[(1, 20, 20, 15), int8] span=model_90/tf.math.add_77/Add;model_90/tf.nn.convolution_65/convolution;Const_15:0:0 */;
  %542 = (%540, %541) /* ty=(Tensor[(1, 20, 20, 64), int8], Tensor[(1, 20, 20, 15), int8]) span=model_90/tf.concat_16/concat:0:0 */;
  %543 = @tvmgen_default_ethos_n_main_111(%542) /* ty=Tensor[(1, 20, 20, 79), int8] */;
  %544 = transpose(%543, axes=[0, 3, 1, 2]) /* ty=Tensor[(1, 79, 20, 20), int8] span=model_90/tf.compat.v1.transpose_164/transpose:0:0 */;
  %545 = @tvmgen_default_ethos_n_main_116(%544) /* ty=Tensor[(1, 79, 400), int8] */;
  %546 = @tvmgen_default_ethos_n_main_79(%380) /* ty=Tensor[(1, 79, 6400), int8] */;
  %547 = @tvmgen_default_ethos_n_main_98(%462) /* ty=Tensor[(1, 79, 1600), int8] */;
  %548 = @tvmgen_default_ethos_n_main_117(%545) /* ty=Tensor[(1, 79, 400), int8] */;
  %549 = (%546, %547, %548) /* ty=(Tensor[(1, 79, 6400), int8], Tensor[(1, 79, 1600), int8], Tensor[(1, 79, 400), int8]) span=model_90/tf.concat_17/concat:0:0 */;
  %550 = @tvmgen_default_ethos_n_main_118(%549) /* ty=Tensor[(1, 79, 8400), int8] */;
  %551 = strided_slice(%550, begin=[0, 0, 0], end=[1, 64, 8400], strides=[1, 1, 1], axes=None) /* ty=Tensor[(1, 64, 8400), int8] span=model_90/tf.strided_slice_21/StridedSlice:0:0 */;
  %552 = @tvmgen_default_ethos_n_main_123(%551) /* ty=Tensor[(1, 64, 8400), int8] */;
  %553 = reshape(%552, newshape=[1, 4, 16, 8400]) /* ty=Tensor[(1, 4, 16, 8400), int8] span=model_90/tf.reshape_71/Reshape:0:0 */;
  %554 = transpose(%553, axes=[0, 1, 3, 2]) /* ty=Tensor[(1, 4, 8400, 16), int8] span=model_90/tf.compat.v1.transpose_177/transpose;model_90/tf.compat.v1.transpose_176/transpose/perm;model_90/tf.compat.v1.transpose_176/transpose;:0:0 */;
  %555 = qnn.dequantize(%554, 0.124789f /* ty=float32 span=model_90/tf.nn.softmax_2/wa/model.23/dfl/Softmax:0:0 */, 16 /* ty=int32 span=model_90/tf.nn.softmax_2/wa/model.23/dfl/Softmax:0:0 */, out_dtype="float32") /* ty=Tensor[(1, 4, 8400, 16), float32] span=model_90/tf.nn.softmax_2/wa/model.23/dfl/Softmax:0:0 */;
  %556 = nn.softmax(%555) /* ty=Tensor[(1, 4, 8400, 16), float32] span=model_90/tf.nn.softmax_2/wa/model.23/dfl/Softmax:0:0 */;
  %557 = qnn.quantize(%556, 0.00390625f /* ty=float32 span=model_90/tf.nn.softmax_2/wa/model.23/dfl/Softmax:0:0 */, -128 /* ty=int32 span=model_90/tf.nn.softmax_2/wa/model.23/dfl/Softmax:0:0 */, out_dtype="int8") /* ty=Tensor[(1, 4, 8400, 16), int8] span=model_90/tf.nn.softmax_2/wa/model.23/dfl/Softmax:0:0 */;
  %558 = qnn.conv2d(%557, %v_param_134, -128 /* ty=int32 span=model_90/tf.nn.convolution_66/convolution:0:0 */, 0 /* ty=int32 span=model_90/tf.nn.convolution_66/convolution:0:0 */, 0.00390625f /* ty=float32 span=model_90/tf.nn.convolution_66/convolution:0:0 */, 0.11811f /* ty=float32 span=model_90/tf.nn.convolution_66/convolution:0:0 */, padding=[0, 0, 0, 0], channels=1, kernel_size=[1, 1], data_layout="NHWC", kernel_layout="HWIO", out_dtype="int32") /* ty=Tensor[(1, 4, 8400, 1), int32] span=model_90/tf.nn.convolution_66/convolution:0:0 */;
  %559 = nn.bias_add(%558, %v_param_135, axis=3) /* ty=Tensor[(1, 4, 8400, 1), int32] span=model_90/tf.nn.convolution_66/convolution:0:0 */;
  %560 = qnn.requantize(%559, 0.000461368f /* ty=float32 span=model_90/tf.nn.convolution_66/convolution:0:0 */, 0 /* ty=int32 span=model_90/tf.nn.convolution_66/convolution:0:0 */, 0.0418361f /* ty=float32 span=model_90/tf.nn.convolution_66/convolution:0:0 */, -128 /* ty=int32 span=model_90/tf.nn.convolution_66/convolution:0:0 */, axis=3, out_dtype="int8") /* ty=Tensor[(1, 4, 8400, 1), int8] span=model_90/tf.nn.convolution_66/convolution:0:0 */;
  %561 = reshape(%560, newshape=[1, 1, 4, 8400]) /* ty=Tensor[(1, 1, 4, 8400), int8] span=model_90/tf.compat.v1.transpose_182/transpose;:0:0 */;
  %562 = qnn.mul(%561, %v_param_136, 0.0418361f /* ty=float32 span=model_90/tf.math.multiply_241/Mul;model_90/tf.reshape_74/Reshape;model_90/tf.math.multiply_241/Mul/y:0:0 */, -128 /* ty=int32 span=model_90/tf.math.multiply_241/Mul;model_90/tf.reshape_74/Reshape;model_90/tf.math.multiply_241/Mul/y:0:0 */, 0.000196078f /* ty=float32 span=model_90/tf.math.multiply_241/Mul;model_90/tf.reshape_74/Reshape;model_90/tf.math.multiply_241/Mul/y:0:0 */, -128 /* ty=int32 span=model_90/tf.math.multiply_241/Mul;model_90/tf.reshape_74/Reshape;model_90/tf.math.multiply_241/Mul/y:0:0 */, 0.00209034f /* ty=float32 span=model_90/tf.math.multiply_241/Mul;model_90/tf.reshape_74/Reshape;model_90/tf.math.multiply_241/Mul/y:0:0 */, -128 /* ty=int32 span=model_90/tf.math.multiply_241/Mul;model_90/tf.reshape_74/Reshape;model_90/tf.math.multiply_241/Mul/y:0:0 */) /* ty=Tensor[(1, 1, 4, 8400), int8] span=model_90/tf.math.multiply_241/Mul;model_90/tf.reshape_74/Reshape;model_90/tf.math.multiply_241/Mul/y:0:0 */;
  %563 = reshape(%562, newshape=[1, 4, 8400]) /* ty=Tensor[(1, 4, 8400), int8] span=model_90/tf.math.multiply_241/Mul;model_90/tf.reshape_74/Reshape;model_90/tf.math.multiply_241/Mul/y1:0:0 */;
  %564 = strided_slice(%563, begin=[0, 0, 0], end=[1, 2, 8400], strides=[1, 1, 1], axes=None) /* ty=Tensor[(1, 2, 8400), int8] span=model_90/tf.strided_slice_23/StridedSlice:0:0 */;
  %565 = @tvmgen_default_ethos_n_main_124(%564) /* ty=Tensor[(1, 2, 8400), int8] */;
  %566 = strided_slice(%563, begin=[0, 2, 0], end=[1, 4, 8400], strides=[1, 1, 1], axes=None) /* ty=Tensor[(1, 2, 8400), int8] span=model_90/tf.strided_slice_24/StridedSlice:0:0 */;
  %567 = @tvmgen_default_ethos_n_main_125(%566) /* ty=Tensor[(1, 2, 8400), int8] */;
  %568 = qnn.subtract(%v_param_137, %565, 0.00389706f /* ty=float32 span=model_90/tf.math.subtract/Sub:0:0 */, -128 /* ty=int32 span=model_90/tf.math.subtract/Sub:0:0 */, 0.00209034f /* ty=float32 span=model_90/tf.math.subtract/Sub:0:0 */, -128 /* ty=int32 span=model_90/tf.math.subtract/Sub:0:0 */, 0.00443674f /* ty=float32 span=model_90/tf.math.subtract/Sub:0:0 */, -96 /* ty=int32 span=model_90/tf.math.subtract/Sub:0:0 */) /* ty=Tensor[(1, 2, 8400), int8] span=model_90/tf.math.subtract/Sub:0:0 */;
  %569 = qnn.add(%567, %v_param_138, 0.00209034f /* ty=float32 span=model_90/tf.math.add_78/Add:0:0 */, -128 /* ty=int32 span=model_90/tf.math.add_78/Add:0:0 */, 0.00389706f /* ty=float32 span=model_90/tf.math.add_78/Add:0:0 */, -128 /* ty=int32 span=model_90/tf.math.add_78/Add:0:0 */, 0.00481051f /* ty=float32 span=model_90/tf.math.add_78/Add:0:0 */, -128 /* ty=int32 span=model_90/tf.math.add_78/Add:0:0 */) /* ty=Tensor[(1, 2, 8400), int8] span=model_90/tf.math.add_78/Add:0:0 */;
  %570 = qnn.add(%568, %569, 0.00443674f /* ty=float32 span=model_90/tf.math.add_79/Add:0:0 */, -96 /* ty=int32 span=model_90/tf.math.add_79/Add:0:0 */, 0.00481051f /* ty=float32 span=model_90/tf.math.add_79/Add:0:0 */, -128 /* ty=int32 span=model_90/tf.math.add_79/Add:0:0 */, 0.00782389f /* ty=float32 span=model_90/tf.math.add_79/Add:0:0 */, -127 /* ty=int32 span=model_90/tf.math.add_79/Add:0:0 */) /* ty=Tensor[(1, 2, 8400), int8] span=model_90/tf.math.add_79/Add:0:0 */;
  %571 = strided_slice(%550, begin=[0, 64, 0], end=[1, 79, 8400], strides=[1, 1, 1], axes=None) /* ty=Tensor[(1, 15, 8400), int8] span=model_90/tf.strided_slice_22/StridedSlice:0:0 */;
  %572 = @tvmgen_default_ethos_n_main_126(%571) /* ty=Tensor[(1, 15, 8400), int8] */;
  %573 = qnn.dequantize(%572, 0.124789f /* ty=float32 span=model_90/tf.math.sigmoid_56/Sigmoid:0:0 */, 16 /* ty=int32 span=model_90/tf.math.sigmoid_56/Sigmoid:0:0 */, out_dtype="float32") /* ty=Tensor[(1, 15, 8400), float32] span=model_90/tf.math.sigmoid_56/Sigmoid:0:0 */;
  %574 = sigmoid(%573) /* ty=Tensor[(1, 15, 8400), float32] span=model_90/tf.math.sigmoid_56/Sigmoid:0:0 */;
  %575 = qnn.quantize(%574, 0.00390625f /* ty=float32 span=model_90/tf.math.sigmoid_56/Sigmoid:0:0 */, -128 /* ty=int32 span=model_90/tf.math.sigmoid_56/Sigmoid:0:0 */, out_dtype="int8") /* ty=Tensor[(1, 15, 8400), int8] span=model_90/tf.math.sigmoid_56/Sigmoid:0:0 */;
  %576 = qnn.mul(%570, %v_param_139, 0.00782389f /* ty=float32 span=model_90/tf.math.divide/truediv;model_90/tf.math.divide/truediv/y:0:0 */, -127 /* ty=int32 span=model_90/tf.math.divide/truediv;model_90/tf.math.divide/truediv/y:0:0 */, 0.00196078f /* ty=float32 span=model_90/tf.math.divide/truediv;model_90/tf.math.divide/truediv/y:0:0 */, -128 /* ty=int32 span=model_90/tf.math.divide/truediv;model_90/tf.math.divide/truediv/y:0:0 */, 0.00391194f /* ty=float32 span=model_90/tf.math.divide/truediv;model_90/tf.math.divide/truediv/y:0:0 */, -127 /* ty=int32 span=model_90/tf.math.divide/truediv;model_90/tf.math.divide/truediv/y:0:0 */) /* ty=Tensor[(1, 2, 8400), int8] span=model_90/tf.math.divide/truediv;model_90/tf.math.divide/truediv/y:0:0 */;
  %577 = qnn.subtract(%569, %568, 0.00481051f /* ty=float32 span=model_90/tf.math.subtract_1/Sub:0:0 */, -128 /* ty=int32 span=model_90/tf.math.subtract_1/Sub:0:0 */, 0.00443674f /* ty=float32 span=model_90/tf.math.subtract_1/Sub:0:0 */, -96 /* ty=int32 span=model_90/tf.math.subtract_1/Sub:0:0 */, 0.00391194f /* ty=float32 span=model_90/tf.math.subtract_1/Sub:0:0 */, -127 /* ty=int32 span=model_90/tf.math.subtract_1/Sub:0:0 */) /* ty=Tensor[(1, 2, 8400), int8] span=model_90/tf.math.subtract_1/Sub:0:0 */;
  %578 = qnn.requantize(%575, 0.00390625f /* ty=float32 span=model_90/tf.math.sigmoid_56/Sigmoid1:0:0 */, -128 /* ty=int32 span=model_90/tf.math.sigmoid_56/Sigmoid1:0:0 */, 0.00391194f /* ty=float32 span=model_90/tf.math.sigmoid_56/Sigmoid1:0:0 */, -127 /* ty=int32 span=model_90/tf.math.sigmoid_56/Sigmoid1:0:0 */, out_dtype="int8") /* ty=Tensor[(1, 15, 8400), int8] span=model_90/tf.math.sigmoid_56/Sigmoid1:0:0 */;
  %579 = (%576, %577, %578) /* ty=(Tensor[(1, 2, 8400), int8], Tensor[(1, 2, 8400), int8], Tensor[(1, 15, 8400), int8]) span=StatefulPartitionedCall:0:0:0 */;
  @tvmgen_default_ethos_n_main_127(%579) /* ty=Tensor[(1, 19, 8400), int8] */
}

def @tvmgen_default_ethos_n_main_0(%ethos-n_0_i0: Tensor[(1, 160, 160, 32), int8] /* ty=Tensor[(1, 160, 160, 32), int8] */, Compiler="ethos-n", Primitive=1, Inline=1, global_symbol="tvmgen_default_ethos_n_main_0") -> Tensor[(1, 160, 160, 32), int8] {
  reshape(%ethos-n_0_i0, newshape=[1, 160, 160, 32]) /* ty=Tensor[(1, 160, 160, 32), int8] span=model_90/tf.strided_slice/StridedSlice:0:0 */
}

def @tvmgen_default_ethos_n_main_1(%ethos-n_1_i0: Tensor[(1, 160, 160, 32), int8] /* ty=Tensor[(1, 160, 160, 32), int8] */, Compiler="ethos-n", Primitive=1, Inline=1, global_symbol="tvmgen_default_ethos_n_main_1") -> Tensor[(1, 160, 160, 32), int8] {
  reshape(%ethos-n_1_i0, newshape=[1, 160, 160, 32]) /* ty=Tensor[(1, 160, 160, 32), int8] span=model_90/tf.strided_slice_1/StridedSlice:0:0 */
}

def @tvmgen_default_ethos_n_main_104(%ethos-n_104_i0: Tensor[(1, 20, 20, 128), int8] /* ty=Tensor[(1, 20, 20, 128), int8] */, Compiler="ethos-n", Primitive=1, Inline=1, global_symbol="tvmgen_default_ethos_n_main_104") -> Tensor[(1, 20, 20, 128), int8] {
  reshape(%ethos-n_104_i0, newshape=[1, 20, 20, 128]) /* ty=Tensor[(1, 20, 20, 128), int8] span=model_90/tf.strided_slice_19/StridedSlice:0:0 */
}

def @tvmgen_default_ethos_n_main_105(%ethos-n_105_i0: Tensor[(1, 20, 20, 128), int8] /* ty=Tensor[(1, 20, 20, 128), int8] */, Compiler="ethos-n", Primitive=1, Inline=1, global_symbol="tvmgen_default_ethos_n_main_105") -> Tensor[(1, 20, 20, 128), int8] {
  reshape(%ethos-n_105_i0, newshape=[1, 20, 20, 128]) /* ty=Tensor[(1, 20, 20, 128), int8] span=model_90/tf.strided_slice_20/StridedSlice:0:0 */
}

def @tvmgen_default_ethos_n_main_106(%ethos-n_106_i0: (Tensor[(1, 20, 20, 128), int8], Tensor[(1, 20, 20, 128), int8], Tensor[(1, 20, 20, 128), int8]) /* ty=(Tensor[(1, 20, 20, 128), int8], Tensor[(1, 20, 20, 128), int8], Tensor[(1, 20, 20, 128), int8]) */, Compiler="ethos-n", Primitive=1, Inline=1, global_symbol="tvmgen_default_ethos_n_main_106") -> Tensor[(1, 20, 20, 384), int8] {
  %580 = (0.0255796f /* ty=float32 span=model_90/tf.concat_15/concat:0:0 */, 0.0255796f /* ty=float32 span=model_90/tf.concat_15/concat:0:0 */, 0.0255796f /* ty=float32 span=model_90/tf.concat_15/concat:0:0 */) /* ty=(float32, float32, float32) span=model_90/tf.concat_15/concat:0:0 */;
  %581 = (-106 /* ty=int32 span=model_90/tf.concat_15/concat:0:0 */, -106 /* ty=int32 span=model_90/tf.concat_15/concat:0:0 */, -106 /* ty=int32 span=model_90/tf.concat_15/concat:0:0 */) /* ty=(int32, int32, int32) span=model_90/tf.concat_15/concat:0:0 */;
  qnn.concatenate(%ethos-n_106_i0, %580, %581, 0.0255796f /* ty=float32 span=model_90/tf.concat_15/concat:0:0 */, -106 /* ty=int32 span=model_90/tf.concat_15/concat:0:0 */, axis=3) /* ty=Tensor[(1, 20, 20, 384), int8] span=model_90/tf.concat_15/concat:0:0 */
}

def @tvmgen_default_ethos_n_main_111(%ethos-n_111_i0: (Tensor[(1, 20, 20, 64), int8], Tensor[(1, 20, 20, 15), int8]) /* ty=(Tensor[(1, 20, 20, 64), int8], Tensor[(1, 20, 20, 15), int8]) */, Compiler="ethos-n", Primitive=1, Inline=1, global_symbol="tvmgen_default_ethos_n_main_111") -> Tensor[(1, 20, 20, 79), int8] {
  %582 = (0.124789f /* ty=float32 span=model_90/tf.concat_16/concat:0:0 */, 0.124789f /* ty=float32 span=model_90/tf.concat_16/concat:0:0 */) /* ty=(float32, float32) span=model_90/tf.concat_16/concat:0:0 */;
  %583 = (16 /* ty=int32 span=model_90/tf.concat_16/concat:0:0 */, 16 /* ty=int32 span=model_90/tf.concat_16/concat:0:0 */) /* ty=(int32, int32) span=model_90/tf.concat_16/concat:0:0 */;
  qnn.concatenate(%ethos-n_111_i0, %582, %583, 0.124789f /* ty=float32 span=model_90/tf.concat_16/concat:0:0 */, 16 /* ty=int32 span=model_90/tf.concat_16/concat:0:0 */, axis=3) /* ty=Tensor[(1, 20, 20, 79), int8] span=model_90/tf.concat_16/concat:0:0 */
}

def @tvmgen_default_ethos_n_main_116(%ethos-n_116_i0: Tensor[(1, 79, 20, 20), int8] /* ty=Tensor[(1, 79, 20, 20), int8] */, Compiler="ethos-n", Primitive=1, Inline=1, global_symbol="tvmgen_default_ethos_n_main_116") -> Tensor[(1, 79, 400), int8] {
  reshape(%ethos-n_116_i0, newshape=[1, 79, 400]) /* ty=Tensor[(1, 79, 400), int8] span=model_90/tf.reshape_63/Reshape:0:0 */
}

def @tvmgen_default_ethos_n_main_117(%ethos-n_117_i0: Tensor[(1, 79, 400), int8] /* ty=Tensor[(1, 79, 400), int8] */, Compiler="ethos-n", Primitive=1, Inline=1, global_symbol="tvmgen_default_ethos_n_main_117") -> Tensor[(1, 79, 400), int8] {
  %ethos-n_117_i0
}

def @tvmgen_default_ethos_n_main_118(%ethos-n_118_i0: (Tensor[(1, 79, 6400), int8], Tensor[(1, 79, 1600), int8], Tensor[(1, 79, 400), int8]) /* ty=(Tensor[(1, 79, 6400), int8], Tensor[(1, 79, 1600), int8], Tensor[(1, 79, 400), int8]) */, Compiler="ethos-n", Primitive=1, Inline=1, global_symbol="tvmgen_default_ethos_n_main_118") -> Tensor[(1, 79, 8400), int8] {
  %584 = (0.124789f /* ty=float32 span=model_90/tf.concat_17/concat:0:0 */, 0.124789f /* ty=float32 span=model_90/tf.concat_17/concat:0:0 */, 0.124789f /* ty=float32 span=model_90/tf.concat_17/concat:0:0 */) /* ty=(float32, float32, float32) span=model_90/tf.concat_17/concat:0:0 */;
  %585 = (16 /* ty=int32 span=model_90/tf.concat_17/concat:0:0 */, 16 /* ty=int32 span=model_90/tf.concat_17/concat:0:0 */, 16 /* ty=int32 span=model_90/tf.concat_17/concat:0:0 */) /* ty=(int32, int32, int32) span=model_90/tf.concat_17/concat:0:0 */;
  qnn.concatenate(%ethos-n_118_i0, %584, %585, 0.124789f /* ty=float32 span=model_90/tf.concat_17/concat:0:0 */, 16 /* ty=int32 span=model_90/tf.concat_17/concat:0:0 */, axis=2) /* ty=Tensor[(1, 79, 8400), int8] span=model_90/tf.concat_17/concat:0:0 */
}

def @tvmgen_default_ethos_n_main_123(%ethos-n_123_i0: Tensor[(1, 64, 8400), int8] /* ty=Tensor[(1, 64, 8400), int8] */, Compiler="ethos-n", Primitive=1, Inline=1, global_symbol="tvmgen_default_ethos_n_main_123") -> Tensor[(1, 64, 8400), int8] {
  reshape(%ethos-n_123_i0, newshape=[1, 64, 8400]) /* ty=Tensor[(1, 64, 8400), int8] span=model_90/tf.strided_slice_21/StridedSlice:0:0 */
}

def @tvmgen_default_ethos_n_main_124(%ethos-n_124_i0: Tensor[(1, 2, 8400), int8] /* ty=Tensor[(1, 2, 8400), int8] */, Compiler="ethos-n", Primitive=1, Inline=1, global_symbol="tvmgen_default_ethos_n_main_124") -> Tensor[(1, 2, 8400), int8] {
  reshape(%ethos-n_124_i0, newshape=[1, 2, 8400]) /* ty=Tensor[(1, 2, 8400), int8] span=model_90/tf.strided_slice_23/StridedSlice:0:0 */
}

def @tvmgen_default_ethos_n_main_125(%ethos-n_125_i0: Tensor[(1, 2, 8400), int8] /* ty=Tensor[(1, 2, 8400), int8] */, Compiler="ethos-n", Primitive=1, Inline=1, global_symbol="tvmgen_default_ethos_n_main_125") -> Tensor[(1, 2, 8400), int8] {
  reshape(%ethos-n_125_i0, newshape=[1, 2, 8400]) /* ty=Tensor[(1, 2, 8400), int8] span=model_90/tf.strided_slice_24/StridedSlice:0:0 */
}

def @tvmgen_default_ethos_n_main_126(%ethos-n_126_i0: Tensor[(1, 15, 8400), int8] /* ty=Tensor[(1, 15, 8400), int8] */, Compiler="ethos-n", Primitive=1, Inline=1, global_symbol="tvmgen_default_ethos_n_main_126") -> Tensor[(1, 15, 8400), int8] {
  reshape(%ethos-n_126_i0, newshape=[1, 15, 8400]) /* ty=Tensor[(1, 15, 8400), int8] span=model_90/tf.strided_slice_22/StridedSlice:0:0 */
}

def @tvmgen_default_ethos_n_main_127(%ethos-n_127_i0: (Tensor[(1, 2, 8400), int8], Tensor[(1, 2, 8400), int8], Tensor[(1, 15, 8400), int8]) /* ty=(Tensor[(1, 2, 8400), int8], Tensor[(1, 2, 8400), int8], Tensor[(1, 15, 8400), int8]) */, Compiler="ethos-n", Primitive=1, Inline=1, global_symbol="tvmgen_default_ethos_n_main_127") -> Tensor[(1, 19, 8400), int8] {
  %586 = (0.00391194f /* ty=float32 span=StatefulPartitionedCall:0:0:0 */, 0.00391194f /* ty=float32 span=StatefulPartitionedCall:0:0:0 */, 0.00391194f /* ty=float32 span=StatefulPartitionedCall:0:0:0 */) /* ty=(float32, float32, float32) span=StatefulPartitionedCall:0:0:0 */;
  %587 = (-127 /* ty=int32 span=StatefulPartitionedCall:0:0:0 */, -127 /* ty=int32 span=StatefulPartitionedCall:0:0:0 */, -127 /* ty=int32 span=StatefulPartitionedCall:0:0:0 */) /* ty=(int32, int32, int32) span=StatefulPartitionedCall:0:0:0 */;
  qnn.concatenate(%ethos-n_127_i0, %586, %587, 0.00391194f /* ty=float32 span=StatefulPartitionedCall:0:0:0 */, -127 /* ty=int32 span=StatefulPartitionedCall:0:0:0 */, axis=1) /* ty=Tensor[(1, 19, 8400), int8] span=StatefulPartitionedCall:0:0:0 */
}

def @tvmgen_default_ethos_n_main_14(%ethos-n_14_i0: Tensor[(1, 40, 40, 64), int8] /* ty=Tensor[(1, 40, 40, 64), int8] */, Compiler="ethos-n", Primitive=1, Inline=1, global_symbol="tvmgen_default_ethos_n_main_14") -> Tensor[(1, 40, 40, 64), int8] {
  reshape(%ethos-n_14_i0, newshape=[1, 40, 40, 64]) /* ty=Tensor[(1, 40, 40, 64), int8] span=model_90/tf.strided_slice_4/StridedSlice:0:0 */
}

def @tvmgen_default_ethos_n_main_15(%ethos-n_15_i0: Tensor[(1, 40, 40, 64), int8] /* ty=Tensor[(1, 40, 40, 64), int8] */, Compiler="ethos-n", Primitive=1, Inline=1, global_symbol="tvmgen_default_ethos_n_main_15") -> Tensor[(1, 40, 40, 64), int8] {
  reshape(%ethos-n_15_i0, newshape=[1, 40, 40, 64]) /* ty=Tensor[(1, 40, 40, 64), int8] span=model_90/tf.strided_slice_5/StridedSlice:0:0 */
}

def @tvmgen_default_ethos_n_main_16(%ethos-n_16_i0: (Tensor[(1, 40, 40, 64), int8], Tensor[(1, 40, 40, 64), int8], Tensor[(1, 40, 40, 64), int8]) /* ty=(Tensor[(1, 40, 40, 64), int8], Tensor[(1, 40, 40, 64), int8], Tensor[(1, 40, 40, 64), int8]) */, Compiler="ethos-n", Primitive=1, Inline=1, global_symbol="tvmgen_default_ethos_n_main_16") -> Tensor[(1, 40, 40, 192), int8] {
  %588 = (0.040282f /* ty=float32 span=model_90/tf.concat_2/concat:0:0 */, 0.040282f /* ty=float32 span=model_90/tf.concat_2/concat:0:0 */, 0.040282f /* ty=float32 span=model_90/tf.concat_2/concat:0:0 */) /* ty=(float32, float32, float32) span=model_90/tf.concat_2/concat:0:0 */;
  %589 = (-114 /* ty=int32 span=model_90/tf.concat_2/concat:0:0 */, -114 /* ty=int32 span=model_90/tf.concat_2/concat:0:0 */, -114 /* ty=int32 span=model_90/tf.concat_2/concat:0:0 */) /* ty=(int32, int32, int32) span=model_90/tf.concat_2/concat:0:0 */;
  qnn.concatenate(%ethos-n_16_i0, %588, %589, 0.040282f /* ty=float32 span=model_90/tf.concat_2/concat:0:0 */, -114 /* ty=int32 span=model_90/tf.concat_2/concat:0:0 */, axis=3) /* ty=Tensor[(1, 40, 40, 192), int8] span=model_90/tf.concat_2/concat:0:0 */
}

def @tvmgen_default_ethos_n_main_2(%ethos-n_2_i0: (Tensor[(1, 160, 160, 32), int8], Tensor[(1, 160, 160, 32), int8], Tensor[(1, 160, 160, 32), int8]) /* ty=(Tensor[(1, 160, 160, 32), int8], Tensor[(1, 160, 160, 32), int8], Tensor[(1, 160, 160, 32), int8]) */, Compiler="ethos-n", Primitive=1, Inline=1, global_symbol="tvmgen_default_ethos_n_main_2") -> Tensor[(1, 160, 160, 96), int8] {
  %590 = (0.0920584f /* ty=float32 span=model_90/tf.concat/concat:0:0 */, 0.0920584f /* ty=float32 span=model_90/tf.concat/concat:0:0 */, 0.0920584f /* ty=float32 span=model_90/tf.concat/concat:0:0 */) /* ty=(float32, float32, float32) span=model_90/tf.concat/concat:0:0 */;
  %591 = (-125 /* ty=int32 span=model_90/tf.concat/concat:0:0 */, -125 /* ty=int32 span=model_90/tf.concat/concat:0:0 */, -125 /* ty=int32 span=model_90/tf.concat/concat:0:0 */) /* ty=(int32, int32, int32) span=model_90/tf.concat/concat:0:0 */;
  qnn.concatenate(%ethos-n_2_i0, %590, %591, 0.0920584f /* ty=float32 span=model_90/tf.concat/concat:0:0 */, -125 /* ty=int32 span=model_90/tf.concat/concat:0:0 */, axis=3) /* ty=Tensor[(1, 160, 160, 96), int8] span=model_90/tf.concat/concat:0:0 */
}

def @tvmgen_default_ethos_n_main_21(%ethos-n_21_i0: Tensor[(1, 20, 20, 128), int8] /* ty=Tensor[(1, 20, 20, 128), int8] */, Compiler="ethos-n", Primitive=1, Inline=1, global_symbol="tvmgen_default_ethos_n_main_21") -> Tensor[(1, 20, 20, 128), int8] {
  reshape(%ethos-n_21_i0, newshape=[1, 20, 20, 128]) /* ty=Tensor[(1, 20, 20, 128), int8] span=model_90/tf.strided_slice_6/StridedSlice:0:0 */
}

def @tvmgen_default_ethos_n_main_22(%ethos-n_22_i0: Tensor[(1, 20, 20, 128), int8] /* ty=Tensor[(1, 20, 20, 128), int8] */, Compiler="ethos-n", Primitive=1, Inline=1, global_symbol="tvmgen_default_ethos_n_main_22") -> Tensor[(1, 20, 20, 128), int8] {
  reshape(%ethos-n_22_i0, newshape=[1, 20, 20, 128]) /* ty=Tensor[(1, 20, 20, 128), int8] span=model_90/tf.strided_slice_7/StridedSlice:0:0 */
}

def @tvmgen_default_ethos_n_main_23(%ethos-n_23_i0: (Tensor[(1, 20, 20, 128), int8], Tensor[(1, 20, 20, 128), int8], Tensor[(1, 20, 20, 128), int8]) /* ty=(Tensor[(1, 20, 20, 128), int8], Tensor[(1, 20, 20, 128), int8], Tensor[(1, 20, 20, 128), int8]) */, Compiler="ethos-n", Primitive=1, Inline=1, global_symbol="tvmgen_default_ethos_n_main_23") -> Tensor[(1, 20, 20, 384), int8] {
  %592 = (0.0288433f /* ty=float32 span=model_90/tf.concat_3/concat:0:0 */, 0.0288433f /* ty=float32 span=model_90/tf.concat_3/concat:0:0 */, 0.0288433f /* ty=float32 span=model_90/tf.concat_3/concat:0:0 */) /* ty=(float32, float32, float32) span=model_90/tf.concat_3/concat:0:0 */;
  %593 = (-109 /* ty=int32 span=model_90/tf.concat_3/concat:0:0 */, -109 /* ty=int32 span=model_90/tf.concat_3/concat:0:0 */, -109 /* ty=int32 span=model_90/tf.concat_3/concat:0:0 */) /* ty=(int32, int32, int32) span=model_90/tf.concat_3/concat:0:0 */;
  qnn.concatenate(%ethos-n_23_i0, %592, %593, 0.0288433f /* ty=float32 span=model_90/tf.concat_3/concat:0:0 */, -109 /* ty=int32 span=model_90/tf.concat_3/concat:0:0 */, axis=3) /* ty=Tensor[(1, 20, 20, 384), int8] span=model_90/tf.concat_3/concat:0:0 */
}

def @tvmgen_default_ethos_n_main_28(%ethos-n_28_i0: Tensor[(1, 20, 20, 128), int8] /* ty=Tensor[(1, 20, 20, 128), int8] */, Compiler="ethos-n", Primitive=1, Inline=1, global_symbol="tvmgen_default_ethos_n_main_28") -> Tensor[(1, 20, 20, 128), int8] {
  nn.max_pool2d(%ethos-n_28_i0, pool_size=[5, 5], padding=[2, 2, 2, 2], layout="NHWC") /* ty=Tensor[(1, 20, 20, 128), int8] span=model_90/tf.compat.v1.nn.pool/max_pool:0:0 */
}

def @tvmgen_default_ethos_n_main_29(%ethos-n_29_i0: Tensor[(1, 20, 20, 128), int8] /* ty=Tensor[(1, 20, 20, 128), int8] */, Compiler="ethos-n", Primitive=1, Inline=1, global_symbol="tvmgen_default_ethos_n_main_29") -> Tensor[(1, 20, 20, 128), int8] {
  nn.max_pool2d(%ethos-n_29_i0, pool_size=[5, 5], padding=[2, 2, 2, 2], layout="NHWC") /* ty=Tensor[(1, 20, 20, 128), int8] span=model_90/tf.compat.v1.nn.pool_1/max_pool:0:0 */
}

def @tvmgen_default_ethos_n_main_30(%ethos-n_30_i0: Tensor[(1, 20, 20, 128), int8] /* ty=Tensor[(1, 20, 20, 128), int8] */, Compiler="ethos-n", Primitive=1, Inline=1, global_symbol="tvmgen_default_ethos_n_main_30") -> Tensor[(1, 20, 20, 128), int8] {
  nn.max_pool2d(%ethos-n_30_i0, pool_size=[5, 5], padding=[2, 2, 2, 2], layout="NHWC") /* ty=Tensor[(1, 20, 20, 128), int8] span=model_90/tf.compat.v1.nn.pool_2/max_pool:0:0 */
}

def @tvmgen_default_ethos_n_main_31(%ethos-n_31_i0: (Tensor[(1, 20, 20, 128), int8], Tensor[(1, 20, 20, 128), int8], Tensor[(1, 20, 20, 128), int8], Tensor[(1, 20, 20, 128), int8]) /* ty=(Tensor[(1, 20, 20, 128), int8], Tensor[(1, 20, 20, 128), int8], Tensor[(1, 20, 20, 128), int8], Tensor[(1, 20, 20, 128), int8]) */, Compiler="ethos-n", Primitive=1, Inline=1, global_symbol="tvmgen_default_ethos_n_main_31") -> Tensor[(1, 20, 20, 512), int8] {
  %594 = (0.0282958f /* ty=float32 span=model_90/tf.concat_4/concat:0:0 */, 0.0282958f /* ty=float32 span=model_90/tf.concat_4/concat:0:0 */, 0.0282958f /* ty=float32 span=model_90/tf.concat_4/concat:0:0 */, 0.0282958f /* ty=float32 span=model_90/tf.concat_4/concat:0:0 */) /* ty=(float32, float32, float32, float32) span=model_90/tf.concat_4/concat:0:0 */;
  %595 = (-118 /* ty=int32 span=model_90/tf.concat_4/concat:0:0 */, -118 /* ty=int32 span=model_90/tf.concat_4/concat:0:0 */, -118 /* ty=int32 span=model_90/tf.concat_4/concat:0:0 */, -118 /* ty=int32 span=model_90/tf.concat_4/concat:0:0 */) /* ty=(int32, int32, int32, int32) span=model_90/tf.concat_4/concat:0:0 */;
  qnn.concatenate(%ethos-n_31_i0, %594, %595, 0.0282958f /* ty=float32 span=model_90/tf.concat_4/concat:0:0 */, -118 /* ty=int32 span=model_90/tf.concat_4/concat:0:0 */, axis=3) /* ty=Tensor[(1, 20, 20, 512), int8] span=model_90/tf.concat_4/concat:0:0 */
}

def @tvmgen_default_ethos_n_main_36(%ethos-n_36_i0: Tensor[(1, 20, 20, 128), int8] /* ty=Tensor[(1, 20, 20, 128), int8] */, Compiler="ethos-n", Primitive=1, Inline=1, global_symbol="tvmgen_default_ethos_n_main_36") -> Tensor[(1, 20, 20, 128), int8] {
  reshape(%ethos-n_36_i0, newshape=[1, 20, 20, 128]) /* ty=Tensor[(1, 20, 20, 128), int8] span=model_90/tf.strided_slice_8/StridedSlice:0:0 */
}

def @tvmgen_default_ethos_n_main_37(%ethos-n_37_i0: Tensor[(1, 20, 20, 128), int8] /* ty=Tensor[(1, 20, 20, 128), int8] */, Compiler="ethos-n", Primitive=1, Inline=1, global_symbol="tvmgen_default_ethos_n_main_37") -> Tensor[(1, 20, 20, 128), int8] {
  reshape(%ethos-n_37_i0, newshape=[1, 20, 20, 128]) /* ty=Tensor[(1, 20, 20, 128), int8] span=model_90/tf.strided_slice_9/StridedSlice:0:0 */
}

def @tvmgen_default_ethos_n_main_38(%ethos-n_38_i0: Tensor[(1, 256, 20, 20), int8] /* ty=Tensor[(1, 256, 20, 20), int8] */, Compiler="ethos-n", Primitive=1, Inline=1, global_symbol="tvmgen_default_ethos_n_main_38") -> Tensor[(1, 2, 128, 400), int8] {
  reshape(%ethos-n_38_i0, newshape=[1, 2, 128, 400]) /* ty=Tensor[(1, 2, 128, 400), int8] span=model_90/tf.reshape_2/Reshape:0:0 */
}

def @tvmgen_default_ethos_n_main_39(%ethos-n_39_i0: Tensor[(1, 2, 64, 400), int8] /* ty=Tensor[(1, 2, 64, 400), int8] */, Compiler="ethos-n", Primitive=1, Inline=1, global_symbol="tvmgen_default_ethos_n_main_39") -> Tensor[(1, 2, 64, 400), int8] {
  reshape(%ethos-n_39_i0, newshape=[1, 2, 64, 400]) /* ty=Tensor[(1, 2, 64, 400), int8] span=model_90/tf.strided_slice_12/StridedSlice:0:0 */
}

def @tvmgen_default_ethos_n_main_40(%ethos-n_40_i0: Tensor[(1, 2, 32, 400), int8] /* ty=Tensor[(1, 2, 32, 400), int8] */, Compiler="ethos-n", Primitive=1, Inline=1, global_symbol="tvmgen_default_ethos_n_main_40") -> Tensor[(1, 2, 32, 400), int8] {
  reshape(%ethos-n_40_i0, newshape=[1, 2, 32, 400]) /* ty=Tensor[(1, 2, 32, 400), int8] span=model_90/tf.strided_slice_10/StridedSlice:0:0 */
}

def @tvmgen_default_ethos_n_main_41(%ethos-n_41_i0: Tensor[(1, 2, 32, 400), int8] /* ty=Tensor[(1, 2, 32, 400), int8] */, Compiler="ethos-n", Primitive=1, Inline=1, global_symbol="tvmgen_default_ethos_n_main_41") -> Tensor[(1, 2, 32, 400), int8] {
  reshape(%ethos-n_41_i0, newshape=[1, 2, 32, 400]) /* ty=Tensor[(1, 2, 32, 400), int8] span=model_90/tf.strided_slice_11/StridedSlice:0:0 */
}

def @tvmgen_default_ethos_n_main_42(%ethos-n_42_i0: Tensor[(1, 2, 64, 400), int8] /* ty=Tensor[(1, 2, 64, 400), int8] */, Compiler="ethos-n", Primitive=1, Inline=1, global_symbol="tvmgen_default_ethos_n_main_42") -> Tensor[(1, 128, 20, 20), int8] {
  reshape(%ethos-n_42_i0, newshape=[1, 128, 20, 20]) /* ty=Tensor[(1, 128, 20, 20), int8] span=model_90/tf.reshape_31/Reshape:0:0 */
}

def @tvmgen_default_ethos_n_main_43(%ethos-n_43_i0: Tensor[(1, 2, 64, 400), int8] /* ty=Tensor[(1, 2, 64, 400), int8] */, Compiler="ethos-n", Primitive=1, Inline=1, global_symbol="tvmgen_default_ethos_n_main_43") -> Tensor[(1, 128, 20, 20), int8] {
  reshape(%ethos-n_43_i0, newshape=[1, 128, 20, 20]) /* ty=Tensor[(1, 128, 20, 20), int8] span=model_90/tf.reshape_5/Reshape:0:0 */
}

def @tvmgen_default_ethos_n_main_44(%ethos-n_44_i0: (Tensor[(1, 20, 20, 128), int8], Tensor[(1, 20, 20, 128), int8]) /* ty=(Tensor[(1, 20, 20, 128), int8], Tensor[(1, 20, 20, 128), int8]) */, Compiler="ethos-n", Primitive=1, Inline=1, global_symbol="tvmgen_default_ethos_n_main_44") -> Tensor[(1, 20, 20, 256), int8] {
  %596 = (0.0930227f /* ty=float32 span=model_90/tf.concat_5/concat:0:0 */, 0.0930227f /* ty=float32 span=model_90/tf.concat_5/concat:0:0 */) /* ty=(float32, float32) span=model_90/tf.concat_5/concat:0:0 */;
  %597 = (-51 /* ty=int32 span=model_90/tf.concat_5/concat:0:0 */, -51 /* ty=int32 span=model_90/tf.concat_5/concat:0:0 */) /* ty=(int32, int32) span=model_90/tf.concat_5/concat:0:0 */;
  qnn.concatenate(%ethos-n_44_i0, %596, %597, 0.0930227f /* ty=float32 span=model_90/tf.concat_5/concat:0:0 */, -51 /* ty=int32 span=model_90/tf.concat_5/concat:0:0 */, axis=3) /* ty=Tensor[(1, 20, 20, 256), int8] span=model_90/tf.concat_5/concat:0:0 */
}

def @tvmgen_default_ethos_n_main_49(%ethos-n_49_i0: (Tensor[(1, 40, 40, 256), int8], Tensor[(1, 40, 40, 128), int8]) /* ty=(Tensor[(1, 40, 40, 256), int8], Tensor[(1, 40, 40, 128), int8]) */, Compiler="ethos-n", Primitive=1, Inline=1, global_symbol="tvmgen_default_ethos_n_main_49") -> Tensor[(1, 40, 40, 384), int8] {
  %598 = (0.019251f /* ty=float32 span=model_90/tf.concat_6/concat:0:0 */, 0.019251f /* ty=float32 span=model_90/tf.concat_6/concat:0:0 */) /* ty=(float32, float32) span=model_90/tf.concat_6/concat:0:0 */;
  %599 = (-114 /* ty=int32 span=model_90/tf.concat_6/concat:0:0 */, -114 /* ty=int32 span=model_90/tf.concat_6/concat:0:0 */) /* ty=(int32, int32) span=model_90/tf.concat_6/concat:0:0 */;
  qnn.concatenate(%ethos-n_49_i0, %598, %599, 0.019251f /* ty=float32 span=model_90/tf.concat_6/concat:0:0 */, -114 /* ty=int32 span=model_90/tf.concat_6/concat:0:0 */, axis=3) /* ty=Tensor[(1, 40, 40, 384), int8] span=model_90/tf.concat_6/concat:0:0 */
}

def @tvmgen_default_ethos_n_main_54(%ethos-n_54_i0: Tensor[(1, 40, 40, 64), int8] /* ty=Tensor[(1, 40, 40, 64), int8] */, Compiler="ethos-n", Primitive=1, Inline=1, global_symbol="tvmgen_default_ethos_n_main_54") -> Tensor[(1, 40, 40, 64), int8] {
  reshape(%ethos-n_54_i0, newshape=[1, 40, 40, 64]) /* ty=Tensor[(1, 40, 40, 64), int8] span=model_90/tf.strided_slice_13/StridedSlice:0:0 */
}

def @tvmgen_default_ethos_n_main_55(%ethos-n_55_i0: Tensor[(1, 40, 40, 64), int8] /* ty=Tensor[(1, 40, 40, 64), int8] */, Compiler="ethos-n", Primitive=1, Inline=1, global_symbol="tvmgen_default_ethos_n_main_55") -> Tensor[(1, 40, 40, 64), int8] {
  reshape(%ethos-n_55_i0, newshape=[1, 40, 40, 64]) /* ty=Tensor[(1, 40, 40, 64), int8] span=model_90/tf.strided_slice_14/StridedSlice:0:0 */
}

def @tvmgen_default_ethos_n_main_56(%ethos-n_56_i0: (Tensor[(1, 40, 40, 64), int8], Tensor[(1, 40, 40, 64), int8], Tensor[(1, 40, 40, 64), int8]) /* ty=(Tensor[(1, 40, 40, 64), int8], Tensor[(1, 40, 40, 64), int8], Tensor[(1, 40, 40, 64), int8]) */, Compiler="ethos-n", Primitive=1, Inline=1, global_symbol="tvmgen_default_ethos_n_main_56") -> Tensor[(1, 40, 40, 192), int8] {
  %600 = (0.0226269f /* ty=float32 span=model_90/tf.concat_7/concat:0:0 */, 0.0226269f /* ty=float32 span=model_90/tf.concat_7/concat:0:0 */, 0.0226269f /* ty=float32 span=model_90/tf.concat_7/concat:0:0 */) /* ty=(float32, float32, float32) span=model_90/tf.concat_7/concat:0:0 */;
  %601 = (-116 /* ty=int32 span=model_90/tf.concat_7/concat:0:0 */, -116 /* ty=int32 span=model_90/tf.concat_7/concat:0:0 */, -116 /* ty=int32 span=model_90/tf.concat_7/concat:0:0 */) /* ty=(int32, int32, int32) span=model_90/tf.concat_7/concat:0:0 */;
  qnn.concatenate(%ethos-n_56_i0, %600, %601, 0.0226269f /* ty=float32 span=model_90/tf.concat_7/concat:0:0 */, -116 /* ty=int32 span=model_90/tf.concat_7/concat:0:0 */, axis=3) /* ty=Tensor[(1, 40, 40, 192), int8] span=model_90/tf.concat_7/concat:0:0 */
}

def @tvmgen_default_ethos_n_main_61(%ethos-n_61_i0: (Tensor[(1, 80, 80, 128), int8], Tensor[(1, 80, 80, 128), int8]) /* ty=(Tensor[(1, 80, 80, 128), int8], Tensor[(1, 80, 80, 128), int8]) */, Compiler="ethos-n", Primitive=1, Inline=1, global_symbol="tvmgen_default_ethos_n_main_61") -> Tensor[(1, 80, 80, 256), int8] {
  %602 = (0.0299939f /* ty=float32 span=model_90/tf.concat_8/concat:0:0 */, 0.0299939f /* ty=float32 span=model_90/tf.concat_8/concat:0:0 */) /* ty=(float32, float32) span=model_90/tf.concat_8/concat:0:0 */;
  %603 = (-119 /* ty=int32 span=model_90/tf.concat_8/concat:0:0 */, -119 /* ty=int32 span=model_90/tf.concat_8/concat:0:0 */) /* ty=(int32, int32) span=model_90/tf.concat_8/concat:0:0 */;
  qnn.concatenate(%ethos-n_61_i0, %602, %603, 0.0299939f /* ty=float32 span=model_90/tf.concat_8/concat:0:0 */, -119 /* ty=int32 span=model_90/tf.concat_8/concat:0:0 */, axis=3) /* ty=Tensor[(1, 80, 80, 256), int8] span=model_90/tf.concat_8/concat:0:0 */
}

def @tvmgen_default_ethos_n_main_66(%ethos-n_66_i0: Tensor[(1, 80, 80, 32), int8] /* ty=Tensor[(1, 80, 80, 32), int8] */, Compiler="ethos-n", Primitive=1, Inline=1, global_symbol="tvmgen_default_ethos_n_main_66") -> Tensor[(1, 80, 80, 32), int8] {
  reshape(%ethos-n_66_i0, newshape=[1, 80, 80, 32]) /* ty=Tensor[(1, 80, 80, 32), int8] span=model_90/tf.strided_slice_15/StridedSlice:0:0 */
}

def @tvmgen_default_ethos_n_main_67(%ethos-n_67_i0: Tensor[(1, 80, 80, 32), int8] /* ty=Tensor[(1, 80, 80, 32), int8] */, Compiler="ethos-n", Primitive=1, Inline=1, global_symbol="tvmgen_default_ethos_n_main_67") -> Tensor[(1, 80, 80, 32), int8] {
  reshape(%ethos-n_67_i0, newshape=[1, 80, 80, 32]) /* ty=Tensor[(1, 80, 80, 32), int8] span=model_90/tf.strided_slice_16/StridedSlice:0:0 */
}

def @tvmgen_default_ethos_n_main_68(%ethos-n_68_i0: (Tensor[(1, 80, 80, 32), int8], Tensor[(1, 80, 80, 32), int8], Tensor[(1, 80, 80, 32), int8]) /* ty=(Tensor[(1, 80, 80, 32), int8], Tensor[(1, 80, 80, 32), int8], Tensor[(1, 80, 80, 32), int8]) */, Compiler="ethos-n", Primitive=1, Inline=1, global_symbol="tvmgen_default_ethos_n_main_68") -> Tensor[(1, 80, 80, 96), int8] {
  %604 = (0.0275721f /* ty=float32 span=model_90/tf.concat_9/concat:0:0 */, 0.0275721f /* ty=float32 span=model_90/tf.concat_9/concat:0:0 */, 0.0275721f /* ty=float32 span=model_90/tf.concat_9/concat:0:0 */) /* ty=(float32, float32, float32) span=model_90/tf.concat_9/concat:0:0 */;
  %605 = (-118 /* ty=int32 span=model_90/tf.concat_9/concat:0:0 */, -118 /* ty=int32 span=model_90/tf.concat_9/concat:0:0 */, -118 /* ty=int32 span=model_90/tf.concat_9/concat:0:0 */) /* ty=(int32, int32, int32) span=model_90/tf.concat_9/concat:0:0 */;
  qnn.concatenate(%ethos-n_68_i0, %604, %605, 0.0275721f /* ty=float32 span=model_90/tf.concat_9/concat:0:0 */, -118 /* ty=int32 span=model_90/tf.concat_9/concat:0:0 */, axis=3) /* ty=Tensor[(1, 80, 80, 96), int8] span=model_90/tf.concat_9/concat:0:0 */
}

def @tvmgen_default_ethos_n_main_7(%ethos-n_7_i0: Tensor[(1, 80, 80, 64), int8] /* ty=Tensor[(1, 80, 80, 64), int8] */, Compiler="ethos-n", Primitive=1, Inline=1, global_symbol="tvmgen_default_ethos_n_main_7") -> Tensor[(1, 80, 80, 64), int8] {
  reshape(%ethos-n_7_i0, newshape=[1, 80, 80, 64]) /* ty=Tensor[(1, 80, 80, 64), int8] span=model_90/tf.strided_slice_2/StridedSlice:0:0 */
}

def @tvmgen_default_ethos_n_main_73(%ethos-n_73_i0: (Tensor[(1, 80, 80, 64), int8], Tensor[(1, 80, 80, 15), int8]) /* ty=(Tensor[(1, 80, 80, 64), int8], Tensor[(1, 80, 80, 15), int8]) */, Compiler="ethos-n", Primitive=1, Inline=1, global_symbol="tvmgen_default_ethos_n_main_73") -> Tensor[(1, 80, 80, 79), int8] {
  %606 = (0.124789f /* ty=float32 span=model_90/tf.concat_11/concat:0:0 */, 0.124789f /* ty=float32 span=model_90/tf.concat_11/concat:0:0 */) /* ty=(float32, float32) span=model_90/tf.concat_11/concat:0:0 */;
  %607 = (16 /* ty=int32 span=model_90/tf.concat_11/concat:0:0 */, 16 /* ty=int32 span=model_90/tf.concat_11/concat:0:0 */) /* ty=(int32, int32) span=model_90/tf.concat_11/concat:0:0 */;
  qnn.concatenate(%ethos-n_73_i0, %606, %607, 0.124789f /* ty=float32 span=model_90/tf.concat_11/concat:0:0 */, 16 /* ty=int32 span=model_90/tf.concat_11/concat:0:0 */, axis=3) /* ty=Tensor[(1, 80, 80, 79), int8] span=model_90/tf.concat_11/concat:0:0 */
}

def @tvmgen_default_ethos_n_main_78(%ethos-n_78_i0: Tensor[(1, 79, 80, 80), int8] /* ty=Tensor[(1, 79, 80, 80), int8] */, Compiler="ethos-n", Primitive=1, Inline=1, global_symbol="tvmgen_default_ethos_n_main_78") -> Tensor[(1, 79, 6400), int8] {
  reshape(%ethos-n_78_i0, newshape=[1, 79, 6400]) /* ty=Tensor[(1, 79, 6400), int8] span=model_90/tf.reshape_57/Reshape:0:0 */
}

def @tvmgen_default_ethos_n_main_79(%ethos-n_79_i0: Tensor[(1, 79, 6400), int8] /* ty=Tensor[(1, 79, 6400), int8] */, Compiler="ethos-n", Primitive=1, Inline=1, global_symbol="tvmgen_default_ethos_n_main_79") -> Tensor[(1, 79, 6400), int8] {
  %ethos-n_79_i0
}

def @tvmgen_default_ethos_n_main_8(%ethos-n_8_i0: Tensor[(1, 80, 80, 64), int8] /* ty=Tensor[(1, 80, 80, 64), int8] */, Compiler="ethos-n", Primitive=1, Inline=1, global_symbol="tvmgen_default_ethos_n_main_8") -> Tensor[(1, 80, 80, 64), int8] {
  reshape(%ethos-n_8_i0, newshape=[1, 80, 80, 64]) /* ty=Tensor[(1, 80, 80, 64), int8] span=model_90/tf.strided_slice_3/StridedSlice:0:0 */
}

def @tvmgen_default_ethos_n_main_80(%ethos-n_80_i0: (Tensor[(1, 40, 40, 64), int8], Tensor[(1, 40, 40, 128), int8]) /* ty=(Tensor[(1, 40, 40, 64), int8], Tensor[(1, 40, 40, 128), int8]) */, Compiler="ethos-n", Primitive=1, Inline=1, global_symbol="tvmgen_default_ethos_n_main_80") -> Tensor[(1, 40, 40, 192), int8] {
  %608 = (0.0200745f /* ty=float32 span=model_90/tf.concat_10/concat:0:0 */, 0.0200745f /* ty=float32 span=model_90/tf.concat_10/concat:0:0 */) /* ty=(float32, float32) span=model_90/tf.concat_10/concat:0:0 */;
  %609 = (-114 /* ty=int32 span=model_90/tf.concat_10/concat:0:0 */, -114 /* ty=int32 span=model_90/tf.concat_10/concat:0:0 */) /* ty=(int32, int32) span=model_90/tf.concat_10/concat:0:0 */;
  qnn.concatenate(%ethos-n_80_i0, %608, %609, 0.0200745f /* ty=float32 span=model_90/tf.concat_10/concat:0:0 */, -114 /* ty=int32 span=model_90/tf.concat_10/concat:0:0 */, axis=3) /* ty=Tensor[(1, 40, 40, 192), int8] span=model_90/tf.concat_10/concat:0:0 */
}

def @tvmgen_default_ethos_n_main_85(%ethos-n_85_i0: Tensor[(1, 40, 40, 64), int8] /* ty=Tensor[(1, 40, 40, 64), int8] */, Compiler="ethos-n", Primitive=1, Inline=1, global_symbol="tvmgen_default_ethos_n_main_85") -> Tensor[(1, 40, 40, 64), int8] {
  reshape(%ethos-n_85_i0, newshape=[1, 40, 40, 64]) /* ty=Tensor[(1, 40, 40, 64), int8] span=model_90/tf.strided_slice_17/StridedSlice:0:0 */
}

def @tvmgen_default_ethos_n_main_86(%ethos-n_86_i0: Tensor[(1, 40, 40, 64), int8] /* ty=Tensor[(1, 40, 40, 64), int8] */, Compiler="ethos-n", Primitive=1, Inline=1, global_symbol="tvmgen_default_ethos_n_main_86") -> Tensor[(1, 40, 40, 64), int8] {
  reshape(%ethos-n_86_i0, newshape=[1, 40, 40, 64]) /* ty=Tensor[(1, 40, 40, 64), int8] span=model_90/tf.strided_slice_18/StridedSlice:0:0 */
}

def @tvmgen_default_ethos_n_main_87(%ethos-n_87_i0: (Tensor[(1, 40, 40, 64), int8], Tensor[(1, 40, 40, 64), int8], Tensor[(1, 40, 40, 64), int8]) /* ty=(Tensor[(1, 40, 40, 64), int8], Tensor[(1, 40, 40, 64), int8], Tensor[(1, 40, 40, 64), int8]) */, Compiler="ethos-n", Primitive=1, Inline=1, global_symbol="tvmgen_default_ethos_n_main_87") -> Tensor[(1, 40, 40, 192), int8] {
  %610 = (0.0398441f /* ty=float32 span=model_90/tf.concat_12/concat:0:0 */, 0.0398441f /* ty=float32 span=model_90/tf.concat_12/concat:0:0 */, 0.0398441f /* ty=float32 span=model_90/tf.concat_12/concat:0:0 */) /* ty=(float32, float32, float32) span=model_90/tf.concat_12/concat:0:0 */;
  %611 = (-121 /* ty=int32 span=model_90/tf.concat_12/concat:0:0 */, -121 /* ty=int32 span=model_90/tf.concat_12/concat:0:0 */, -121 /* ty=int32 span=model_90/tf.concat_12/concat:0:0 */) /* ty=(int32, int32, int32) span=model_90/tf.concat_12/concat:0:0 */;
  qnn.concatenate(%ethos-n_87_i0, %610, %611, 0.0398441f /* ty=float32 span=model_90/tf.concat_12/concat:0:0 */, -121 /* ty=int32 span=model_90/tf.concat_12/concat:0:0 */, axis=3) /* ty=Tensor[(1, 40, 40, 192), int8] span=model_90/tf.concat_12/concat:0:0 */
}

def @tvmgen_default_ethos_n_main_9(%ethos-n_9_i0: (Tensor[(1, 80, 80, 64), int8], Tensor[(1, 80, 80, 64), int8], Tensor[(1, 80, 80, 64), int8]) /* ty=(Tensor[(1, 80, 80, 64), int8], Tensor[(1, 80, 80, 64), int8], Tensor[(1, 80, 80, 64), int8]) */, Compiler="ethos-n", Primitive=1, Inline=1, global_symbol="tvmgen_default_ethos_n_main_9") -> Tensor[(1, 80, 80, 192), int8] {
  %612 = (0.043374f /* ty=float32 span=model_90/tf.concat_1/concat:0:0 */, 0.043374f /* ty=float32 span=model_90/tf.concat_1/concat:0:0 */, 0.043374f /* ty=float32 span=model_90/tf.concat_1/concat:0:0 */) /* ty=(float32, float32, float32) span=model_90/tf.concat_1/concat:0:0 */;
  %613 = (-122 /* ty=int32 span=model_90/tf.concat_1/concat:0:0 */, -122 /* ty=int32 span=model_90/tf.concat_1/concat:0:0 */, -122 /* ty=int32 span=model_90/tf.concat_1/concat:0:0 */) /* ty=(int32, int32, int32) span=model_90/tf.concat_1/concat:0:0 */;
  qnn.concatenate(%ethos-n_9_i0, %612, %613, 0.043374f /* ty=float32 span=model_90/tf.concat_1/concat:0:0 */, -122 /* ty=int32 span=model_90/tf.concat_1/concat:0:0 */, axis=3) /* ty=Tensor[(1, 80, 80, 192), int8] span=model_90/tf.concat_1/concat:0:0 */
}

def @tvmgen_default_ethos_n_main_92(%ethos-n_92_i0: (Tensor[(1, 40, 40, 64), int8], Tensor[(1, 40, 40, 15), int8]) /* ty=(Tensor[(1, 40, 40, 64), int8], Tensor[(1, 40, 40, 15), int8]) */, Compiler="ethos-n", Primitive=1, Inline=1, global_symbol="tvmgen_default_ethos_n_main_92") -> Tensor[(1, 40, 40, 79), int8] {
  %614 = (0.124789f /* ty=float32 span=model_90/tf.concat_14/concat:0:0 */, 0.124789f /* ty=float32 span=model_90/tf.concat_14/concat:0:0 */) /* ty=(float32, float32) span=model_90/tf.concat_14/concat:0:0 */;
  %615 = (16 /* ty=int32 span=model_90/tf.concat_14/concat:0:0 */, 16 /* ty=int32 span=model_90/tf.concat_14/concat:0:0 */) /* ty=(int32, int32) span=model_90/tf.concat_14/concat:0:0 */;
  qnn.concatenate(%ethos-n_92_i0, %614, %615, 0.124789f /* ty=float32 span=model_90/tf.concat_14/concat:0:0 */, 16 /* ty=int32 span=model_90/tf.concat_14/concat:0:0 */, axis=3) /* ty=Tensor[(1, 40, 40, 79), int8] span=model_90/tf.concat_14/concat:0:0 */
}

def @tvmgen_default_ethos_n_main_97(%ethos-n_97_i0: Tensor[(1, 79, 40, 40), int8] /* ty=Tensor[(1, 79, 40, 40), int8] */, Compiler="ethos-n", Primitive=1, Inline=1, global_symbol="tvmgen_default_ethos_n_main_97") -> Tensor[(1, 79, 1600), int8] {
  reshape(%ethos-n_97_i0, newshape=[1, 79, 1600]) /* ty=Tensor[(1, 79, 1600), int8] span=model_90/tf.reshape_60/Reshape:0:0 */
}

def @tvmgen_default_ethos_n_main_98(%ethos-n_98_i0: Tensor[(1, 79, 1600), int8] /* ty=Tensor[(1, 79, 1600), int8] */, Compiler="ethos-n", Primitive=1, Inline=1, global_symbol="tvmgen_default_ethos_n_main_98") -> Tensor[(1, 79, 1600), int8] {
  %ethos-n_98_i0
}

def @tvmgen_default_ethos_n_main_99(%ethos-n_99_i0: (Tensor[(1, 20, 20, 128), int8], Tensor[(1, 20, 20, 256), int8]) /* ty=(Tensor[(1, 20, 20, 128), int8], Tensor[(1, 20, 20, 256), int8]) */, Compiler="ethos-n", Primitive=1, Inline=1, global_symbol="tvmgen_default_ethos_n_main_99") -> Tensor[(1, 20, 20, 384), int8] {
  %616 = (0.0334442f /* ty=float32 span=model_90/tf.concat_13/concat:0:0 */, 0.0334442f /* ty=float32 span=model_90/tf.concat_13/concat:0:0 */) /* ty=(float32, float32) span=model_90/tf.concat_13/concat:0:0 */;
  %617 = (-120 /* ty=int32 span=model_90/tf.concat_13/concat:0:0 */, -120 /* ty=int32 span=model_90/tf.concat_13/concat:0:0 */) /* ty=(int32, int32) span=model_90/tf.concat_13/concat:0:0 */;
  qnn.concatenate(%ethos-n_99_i0, %616, %617, 0.0334442f /* ty=float32 span=model_90/tf.concat_13/concat:0:0 */, -120 /* ty=int32 span=model_90/tf.concat_13/concat:0:0 */, axis=3) /* ty=Tensor[(1, 20, 20, 384), int8] span=model_90/tf.concat_13/concat:0:0 */
}

/* For debugging purposes the metadata section has been omitted.
 * If you would like to see the full metadata section you can set the 
 * option to `True` when invoking `astext`. 
 */

================================================================================
 3. Partitioning Statistics 
================================================================================
Ethos-N으로 오프로딩된 함수 개수: 56

주요 연산 개수:
  - qnn.conv2d: 67
  - qnn.concatenate: 19
  - reshape: 40
  - nn.max_pool2d: 3

================================================================================
결과가 'full_report.txt' 파일에 저장되었습니다.
================================================================================
